RFID_TRANS/process/result/distillation_weight.pth (torch, 297837 bytes, 40 tensors)

embedding_enc.weight f4 [8, 50]
00000000: f471 bebd f080 583d 89f1 f2bd 2095 a2bc
00000010: 19d8 4e3d 064b 88bd 1ae7 5cbc f770 ec3c
00000020: c112 0ebd 6feb 11bd 4b76 dabd 4aa9 64bd
00000030: d0f7 3bbc 0c3b 92bd 73c0 eabc f1b7 8bbc
00000040: c43c ef3d 2ad3 19be 8a07 f43d 5bb4 c43d
00000050: e48c 23bd 7af0 51bd e139 21bd 3087 ee3b
00000060: da9e c53b ae37 12be 238f 003e 8334 203d
00000070: 8325 7b3d 24e7 dc3d e1f9 ef3c 2c43 6bbd
00000080: d8f1 8dbd b28e 363d db02 c93d ebce 8dbd
00000090: 7710 253c e3b2 0cbe 027c 3dbd f637 813d
000000a0: 8434 3abc fda7 09be 990c 0cbd bea6 e63c
000000b0: 8bc9 ce3d ca3f 943d 271f c6bd 2368 18be
000000c0: 1c7a e4bd 5cb5 693d c8e5 c5bb 7638 05be
000000d0: ad81 05be ea9d a33b a938 78bc 2da8 883c
000000e0: 78fc 3b3c 78a7 103d 990b e7bb 4cfe ac3d
000000f0: 31fd b63d e7ad 97bd 0798 203c 498c 0cbe
00000100: 0830 cc3d 4598 b6bd 45b4 13be 6eba ebbb
00000110: 71a2 bdbd de2a d73c fff8 713d e776 183e
00000120: 4ef0 15bd cde3 3dbd 6113 02be 4f9b 7cbd
00000130: 30f5 8bbb 9a67 04be f10f f6bd 44ad c83d
00000140: a38f da3d ace7 c03c 4f1c 8bbc 1db0 de3d
00000150: 740b f3bd bf9f c53d 8014 ba3d 6ee7 07be
00000160: 4865 4a3d 7889 3bbd bb2d fbbd 649a 893c
00000170: 26b3 f5bd d675 f63d 23ab 0bbe 458d 08be
00000180: d450 da3d 2cf5 4fbc 4a2f 613b 1639 01bd
00000190: 276e 073e 2c86 72bd 4ed1 ba39 2941 16be
000001a0: 4050 143e 58b8 63bb 6f5c e9bd c2fd c93d
000001b0: 5302 e3bd ad6e bebd 9ae5 acbd 6b2d b03d
000001c0: 0781 68bd 19cb 9ebd f088 6c3d 4bd2 e43d
000001d0: 82fa 3a3d e130 3ebd 5eef 643c 087c ff3c
000001e0: 6831 cb3d 7da4 4f3d b062 f2bd 72cb c73d
000001f0: 52cc 843d 6b1e d9bd 1d2e a73d b929 7fbd
00000200: 2ef4 c0bc b7a4 953d e28e 72bd 9a0d 793d
00000210: c2b2 183d 7577 26be 3b18 e2bc 6ed8 b2bd
00000220: 3cd2 aebb 2378 753d af59 99bd c93b cd3c
00000230: 12cb 143e 3f3d 10bd ad56 5c3d f853 0bbe
00000240: 73e4 da3d b17e 3c3d 69bc ddbc d324 edbd
00000250: 6eac 02bd 0376 e93c 9f93 d6bd b986 cfbb
00000260: b012 503d 62e8 3ebd 75c7 a83d 8336 efbc
00000270: 5048 afbc 2888 03bd 2e3f 0fbd c7ca 43bb
00000280: b5b6 953d 576c d6bd 9ab8 ae3d f79e 19be
00000290: aada 30be 28d7 a63d 9946 c6bd af3e f0bd
000002a0: 1cb1 19be 3984 99bc bc2b 453c 18d2 59bd
000002b0: 1782 443d eb3f 853d 0d94 ad3d aa5c f33d
000002c0: 9eda ec3d 022c 7ebb b4fc 733c f33b 63bd
000002d0: c25c 81bd 9521 823d 1d25 d4bd 8ac2 0bbe
000002e0: 8a27 d23c 41ff f53d ac88 29be 4779 dabc
000002f0: 7149 b93d 362c 10bd 5bb0 41bd d1d4 54bd
00000300: d889 763d 0008 893d fdf5 5f3d 157e 523c
00000310: 533b 893d 68b1 373d 9d66 e0bd 0807 b83c
00000320: 5060 e63d 1b13 0fbd b58b 9c3d cd44 df3c
00000330: 50c0 ebbc 33dd 5cbd 044b cabc 3916 74bd
00000340: 00cf e33d c995 9ebc 2229 003e 4cd6 493d
00000350: 161d dc3d b2b5 263e 33ae a13d 1c68 e13d
00000360: 681c 4fbc 7ed5 88bc a3a6 01be 3048 593c
00000370: d166 983d f008 b53d 8337 763c 9ac0 ef3c
00000380: fbe2 98bd 36b9 843d 6dbd 573d 228e 84bc
00000390: db7c 48bc f2ee dd3d 4bf1 253d 9dff c1bc
000003a0: 7ba7 b4bc 4372 d4bc 5e37 81bb 7753 113e
000003b0: c9b3 08bc b38e dbbd c631 db3d 8a3e d63b
000003c0: 294b 0c3c d739 d43d 2ca4 91ba 182b 28bd
000003d0: 527a f03b ba9f 9e3c 5faa 10be d687 b73d
000003e0: 8a9a c9bd 22d2 873c 56c2 6abd ad72 bdbc
000003f0: 4e66 48bd 8ddb 143e 0860 063e 0c25 56bd
-0.092990786 0.05285734 -0.118624754 -0.019846499 0.050499056 -0.066549346 -0.013482833 0.02886246
-0.034685854 -0.035624918 -0.10667094 -0.05582551 -0.011472657 -0.071401685 -0.02865622 -0.017055484
0.11681512 -0.15021959 0.119155005 0.096047126 -0.039929286 -0.051254727 -0.03936184 0.007279299
0.0060308995 -0.14279053 0.12554602 0.03911258 0.06131507 0.10786274 0.029293956 -0.057437107
-0.06930894 0.04456968 0.09814998 -0.06924232 0.010074726 -0.13740115 -0.04626084 0.06309502
-0.01136506 -0.13442989 -0.0341917 0.02815568 0.10097035 0.07238729 -0.096739106 -0.14883475
-0.11156103 0.057057723 -0.006039355 -0.1300982 -0.13037749 0.00499319 -0.015150228 0.016681755
0.011473767 0.03531596 -0.007050943 0.08446941 0.08935011 -0.07406216 0.009801871 -0.1372539
0.09970099 -0.08915762 -0.14424236 -0.007193855 -0.09259499 0.026265558 0.05907535 0.14889108
-0.036606126 -0.046359826 -0.12702705 -0.06167155 -0.004271172 -0.12930146 -0.12014759 0.09798673
0.10671928 0.02354797 -0.016981272 0.10873435 -0.11867419 0.0964961 0.09085941 -0.13271877
0.049412996 -0.045785397 -0.12264582 0.016797252 -0.119970605 0.12034194 -0.13639502 -0.1333514
0.10659948 -0.012692731 0.0034360462 -0.031548582 0.13225614 -0.059209988 0.0003563263 -0.14673294
0.14483738 -0.0034747329 -0.113945834 0.098628536 -0.11084428 -0.092984535 -0.084422305 0.08602413
-0.056763675 -0.077535816 0.05774778 0.11172923 0.04564906 -0.046433333 0.013973085 0.031187072
0.09921533 0.050693978 -0.118352294 0.09755601 0.064842835 -0.10601505 0.08163092 -0.06229565
-0.023553934 0.073068075 -0.059218295 0.060803987 0.03727985 -0.16256507 -0.027599445 -0.08732687
-0.0053351205 0.059929024 -0.07487809 0.025052922 0.1453059 -0.03521466 0.053793598 -0.1360625
0.106881045 0.04601926 -0.02706738 -0.11579289 -0.031902723 0.028498655 -0.10477375 -0.006333199
0.05079907 -0.046608336 0.082411684 -0.029200798 -0.021396786 -0.03211227 -0.034972362 -0.0029875503
0.07310239 -0.10469883 0.08531304 -0.15002047 -0.17270914 0.081465065 -0.09681434 -0.11730706
-0.15008968 -0.018739806 0.012034353 -0.053178877 0.047975626 0.06506332 0.08475504 0.11882909
0.115651354 -0.0038783555 0.014891792 -0.055477094 -0.0631652 0.063540615 -0.10358641 -0.1364843
0.02565362 0.120115764 -0.16556042 -0.026669158 0.09047211 -0.035198413 -0.047287326 -0.05196077
0.06019005 0.06690979 0.054677952 0.012847443 0.06700768 0.044846922 -0.10957072 0.02246429
0.11248839 -0.03493033 0.076438345 0.027254486 -0.028778225 -0.05392189 -0.024693973 -0.059591506
0.111234665 -0.019358533 0.12515691 0.049276635 0.10747735 0.16280249 0.07894554 0.110061854
-0.01264105 -0.016703364 -0.12661223 0.01326184 0.07441486 0.08839595 0.015027883 0.029266644
-0.07465168 0.06480639 0.052670885 -0.016181055 -0.012236799 0.10836591 0.040513318 -0.023681456
-0.022052517 -0.02593339 -0.003943368 0.14191996 -0.008343645 -0.10720577 0.10702853 0.006538217
0.008562841 0.103625946 -0.0011111549 -0.041056722 0.0073388005 0.019363273 -0.14127491 0.089614555
-0.09843929 0.016579691 -0.05731424 -0.02312597 -0.04892569 0.14536877 0.1312257 -0.052281424

embedding_enc.bias f4 [8]
00000000: 34da 8f3d 4f1b 83bc 13a9 643b 4950 debd
00000010: bccd ddbc 93ee b63d 6537 68bd 76bb a7bd
0.07024041 -0.016004233 0.0034890815 -0.10855157 -0.02707564 0.08932223 -0.056693453 -0.08190052

embedding_dec.weight f4 [8, 2]
00000000: 2df8 7fbe 5eaf 19bf 88ae 193f c53d 06bf
00000010: cf27 ffbe 1f05 2b3f dafa 3f3e aee2 913b
00000020: 5340 4f3e 31a3 933e 2b43 03bf 9944 063f
00000030: a6f1 bebd 15c3 563e fe8e 0bbf 98db 583d
-0.24997015 -0.60033214 0.6003194 -0.52438 -0.4983506 0.6680469 0.18748036 0.004452071
0.20239381 0.28835443 -0.51274365 0.5244842 -0.093234345 0.20972855 -0.54515064 0.052943796

embedding_dec.bias f4 [8]
00000000: 6111 063f c54a 973d c56b debe b8c8 1abf
00000010: be9e 2b3f 271a 26bf 42c8 abbe 996d 763e
0.5237027 0.07387308 -0.43441597 -0.6046252 0.67039096 -0.64883655 -0.33551222 0.24065246

Transformer_layer.encoder.layers.0.self_attn.in_proj_weight f4 [24, 8]
00000000: 9ee0 4bbe 04ec d5be 20cb aabe fd69 54be
00000010: 6598 683e d259 d7be fc2c 263e 9e66 8f3e
00000020: 926d 7f3e 4d6f 11be 12d8 b1be 9dc7 c63e
00000030: abfb 6ebe c513 d1be 60cb d43e 0dd3 9a3e
00000040: 6fcb 8d3e 9f3a acbe a571 833e dd62 26be
00000050: 83b7 09be 62aa fe3d 24fc a7bd ea7a 193d
00000060: 26b2 733e 5cf0 873b 35fe b83e ec3b 9abe
00000070: a572 a13e 6cbd a9be 988a 5f3e f44a b9be
00000080: 6f4a c33e 637f a33e 757d 69be 70d6 b6bd
00000090: 457d 38be 39f3 a33e f990 51be 394d 9bbe
000000a0: 27f5 973e 0337 c63d 11cb 223d dbfd a13e
000000b0: e1e9 d03e 9b6e 833e d189 8a3e c6a1 bebe
000000c0: 5005 8c3e f226 e7be ad71 033e bcc3 fbbd
000000d0: ce09 983e da28 31bc 401b c23d f01a adbb
000000e0: 3a12 87be a028 3dbe 29e3 0c3e 260a a1be
000000f0: f42a 6ebe 02d4 1e3e 556f 423d 7054 d73e
00000100: a5dc a83e 04fc 8abe d47b a6be e409 1a3e
00000110: ea34 933e a426 0d3e 1184 413e 5b18 8bbe
00000120: 9af2 b73e 9f0d dabe a3f5 923e 92aa c2bd
00000130: c34d 30be f89f 86bd 870a d23e 5e8e 853e
00000140: a452 903e a259 743e 138c 883d 44dd 203c
00000150: 6614 dc3e a894 0f3d 90b9 ad3d 621d ccbe
00000160: 77c1 273e 7800 2bbd 17be 75be 941f 8abd
00000170: 9db9 f3bd ed46 74be 7b05 9e3d a720 953e
00000180: c30b 3fbc b1d0 843e f37b b63e 8386 04be
00000190: 51b0 893d ed9d 643e 7694 c83d cdb1 693e
000001a0: 9d4e 803e 5345 3a3e ddb5 c53e 822b a4be
000001b0: 685b 22be a205 11bc 735c ae3d 4642 bd3e
000001c0: 7aeb 263e b517 b23e 8490 563d 4346 a03e
000001d0: 38f8 35be f88c 9dbc 2fef c7bd a099 99be
000001e0: c679 b5bd 83cd c2be efc0 453e a243 2c3d
000001f0: aa7f c7be fdbc 013d 6750 6dbe 33b9 90bc
00000200: 99a8 903e 95d2 ee3d 4c2f 9fbe 27d5 fcbd
00000210: f352 22bd 2f3f bd3e e9d4 4e3c e874 323e
00000220: 6ec1 9a3e c357 633d f32c c8bd ea7b 913e
00000230: 00c6 953e fcdf 56be b135 a33e a866 223e
00000240: 29cf b5be 3ed3 2ebe c135 8d3e b5f4 9b3e
00000250: 0bbe b83e a5c3 1c3d 23c7 82be 8f77 6fbe
00000260: 6669 9cbe 1876 8ebd bfca b63d 3662 793e
00000270: 6825 24be d11c d5be 32d2 1b3e 5a2e aa3e
00000280: 4257 acbe c379 87be f416 92bc 630b 53be
00000290: 76f2 94bc b82f cd3e 75af a13e 205e 543d
000002a0: fc1f 04be d230 2bbe 3b8c da3e 2785 9cbd
000002b0: c730 d1be 60de b03e cf65 ce3e 81f3 793c
000002c0: 4072 5b3e fa14 c23e 6fb6 cdbd 61ce cfbd
000002d0: d32c 5e3e f187 1fbc 03a5 f73d 1bb5 9c3e
000002e0: dc25 8fbc 12c5 c93e a68a bfbe 5a0b 8bbe
000002f0: 391b 603e 8c33 be3e 88ba c03e bd09 f43c
-0.19909903 -0.41781628 -0.33358097 -0.20743556 0.22714384 -0.42060715 0.16228098 0.28007978
0.24944142 -0.14202614 -0.3473516 0.38824168 -0.23338191 -0.40835395 0.41561413 0.30239144
0.2769427 -0.33638474 0.2567264 -0.16248651 -0.1344891 0.12434842 -0.08202389 0.037470736
0.23798427 0.004148526 0.36131445 -0.30123842 0.3153278 -0.3315233 0.21830213 -0.36189997
0.38142726 0.31933126 -0.22801764 -0.089276195 -0.18016537 0.32021502 -0.20465459 -0.30332354
0.29679224 0.096784614 0.03974444 0.3163899 0.40803435 0.25670323 0.2705827 -0.37232798
0.27347803 -0.451469 0.12836333 -0.12293193 0.2969498 -0.010812962 0.09477854 -0.005282752
-0.26381093 -0.18472528 0.1375853 -0.31453055 -0.23258573 0.15510562 0.047469456 0.42056608
0.32980838 -0.27145398 -0.32516348 0.15042835 0.28751308 0.13784271 0.18898036 -0.2716702
0.35927278 -0.42588517 0.2870303 -0.0950519 -0.17217164 -0.0657348 0.41023657 0.2608518
0.2818805 0.23862317 0.06667342 0.009818379 0.42984313 0.03505388 0.08482659 -0.39866167
0.16382395 -0.041748494 -0.23998295 -0.06744304 -0.11900637 -0.23855181 0.07715889 0.29126474
-0.011660519 0.2594047 0.3564144 -0.12941937 0.06723083 0.22325869 0.09793942 0.22821732
0.25059977 0.18190508 0.38615313 -0.32064444 -0.15855181 -0.008851441 0.08513727 0.36964625
0.16300765 0.34783712 0.052383915 0.31303605 -0.17770469 -0.019232258 -0.097624175 -0.3000002
-0.08861117 -0.38047418 0.1931188 0.042056687 -0.38964587 0.031674374 -0.23175202 -0.017666435
0.2825363 0.11661259 -0.31090772 -0.12345343 -0.039629888 0.36962268 0.012624004 0.17427409
0.302257 0.055503618 -0.097741984 0.2841485 0.29252625 -0.20983881 0.318769 0.15859473
-0.35509613 -0.1707277 0.27580073 0.30460134 0.3608249 0.03827252 -0.25542554 -0.23385452
-0.30549163 -0.06956118 0.089253895 0.24353871 -0.16029894 -0.41623548 0.15216902 0.33238488
-0.33660322 -0.26460084 -0.01783321 -0.20609812 -0.01818202 0.4007547 0.31579176 0.051847577
-0.12902826 -0.16717842 0.42685112 -0.07642584 -0.40857527 0.3454466 0.4031205 0.01525581
0.21430302 0.3790663 -0.10044562 -0.101467855 0.21696787 -0.009737001 0.1209202 0.30606923
-0.017474107 0.39408165 -0.37410468 -0.27157098 0.21885385 0.37148702 0.37642312 0.0297898

Transformer_layer.encoder.layers.0.self_attn.in_proj_bias f4 [24]
00000000: 56d5 f83b 4797 003c 18ae 6d3b 7c5a 43bc
00000010: 4e19 233b 952a 893c b9d7 57ba 8e8a dfbc
00000020: e9c2 99b8 603b ce39 5e4f d838 86cb 3238
00000030: bb54 8038 8bb1 c3b9 0072 7138 4a01 5f39
00000040: 200e 6b3c 0544 1d3c c274 6e3c 2532 a9bb
00000050: 5f78 9bbb cab6 16bc 935b 1e3c db3d 693c
0.007593791 0.007848567 0.0036267098 -0.011923429 0.002488691 0.016743938 -0.00082337443 -0.027287748
-7.3319134e-05 0.0003933562 0.00010314466 4.2628053e-05 6.119298e-05 -0.00037325578 5.756505e-05 0.00021267417
0.014346629 0.009598737 0.014554204 -0.0051634484 -0.004744574 -0.009198854 0.009665388 0.014235939

Transformer_layer.encoder.layers.0.self_attn.out_proj.weight f4 [8, 8]
00000000: e509 60be db5f aa3d 4ac8 86be 9690 75be
00000010: 37f9 013f 5b93 40be f352 e2be 4e58 9b3e
00000020: 7760 d43e 37b3 5cbe 904a 013f f48e 80be
00000030: 3671 713a 76ed d2bd 5721 0b3f 8c3f b7be
00000040: 8920 edbe aa5e c03e 3f74 d5be 04f2 0fbf
00000050: a431 54be 94fc 88bc 63c5 a1be 3b70 c2be
00000060: 93c2 0cbf f4aa bbbe 3774 df3e 2c01 f8bd
00000070: 4d70 64be a940 0b3e 099d 9ebe 2612 073f
00000080: 9b54 1cbe fee2 19be c3d7 05bf 2b7a 90be
00000090: e831 7abe 44ac a6be 753d d2be a197 d5bd
000000a0: 5ad7 b2bc bb7e 93be 5ca2 05bf a68a 133f
000000b0: 2fe9 dd3e 9b2f a03e 3936 ec3d be78 e0be
000000c0: 80f0 e73e 2921 e43d 8fd6 033e 014c ca3e
000000d0: 3d33 95be a88d 9cbe f9bc bd3e d78d 333d
000000e0: e285 063f de5f 09bf c6e2 f7bd 6272 ee3d
000000f0: bfd4 16be f995 553e c886 e9bc 69ab 86be
-0.21878774 0.08319064 -0.26324683 -0.23980936 0.50770897 -0.18806212 -0.4420391 0.3034081
0.41479847 -0.2155274 0.505044 -0.25109065 0.000921029 -0.10299198 0.5434775 -0.3579067
-0.46313885 0.37572223 -0.4169025 -0.5622866 -0.20722061 -0.016722001 -0.31595907 -0.3797625
-0.54984397 -0.36653864 0.43643352 -0.121095985 -0.22308464 0.13598885 -0.30979183 0.5276207
-0.1526665 -0.15027997 -0.5228235 -0.28218207 -0.244331 -0.32553303 -0.41062513 -0.104293115
-0.021831203 -0.28807625 -0.52200866 0.57633436 0.43341967 0.3128632 0.1153378 -0.4384212
0.45300674 0.11139137 0.12874816 0.3951111 -0.29140654 -0.30576825 0.37058237 0.04383644
0.5254804 -0.53661907 -0.121038005 0.116429105 -0.14729594 0.20857991 -0.028506652 -0.2630265

Transformer_layer.encoder.layers.0.self_attn.out_proj.bias f4 [8]
00000000: f53a 2d3c 8563 ad3b 55d3 eab9 8245 2abb
00000010: cd93 dfbc 3ee0 a1bc 3c54 7d3c 62f4 e0ba
0.0105731385 0.0052914047 -0.00044789413 -0.0025981371 -0.027292157 -0.019760247 0.015461978 -0.0017162676

Transformer_layer.encoder.layers.0.linear1.weight f4 [2048, 8]
00000000: b666 acbc 208f eebc 2d38 893d e38b fe3c
00000010: ba3e 0abd f8a6 03bd a02a 303b cfa8 aabc
00000020: 889d 543d d248 333d d4c4 e93c 26f2 c9bc
00000030: a0f1 ccbb 3077 8e3c 3a75 0b3d 70c1 2b3d
00000040: 745c 4c3d d40c 8c3c bf11 843d 2d79 54bd
00000050: 93e5 d83c 85f8 163d 2ab5 04bd 2163 8ebc
00000060: 66bc 0d3d 7961 75bc 8723 a2bd a747 44ba
00000070: 74c7 2dbd 1061 88bc 3c67 d93c de59 42bc
00000080: a1cb f23a 0112 33bd 08d1 243d c1c5 633c
00000090: a112 763d 31ec 0bbd afcc 29bd ac1f 3b3d
000000a0: 6414 fabc 5c7d 03bc 46bd 2cbd 406b d4ba
000000b0: c8dd 39bc 2425 443d a668 3ebd b038 a83c
000000c0: cd69 263c 4aae 2f3d 42f2 febc 866d 9cbc
000000d0: d60e b7bb 0f48 673c 5723 a3ba ffa2 86bc
000000e0: 57f5 83bd 8418 0cbc ee45 26bb 0f2f 493d
000000f0: 91b8 8cbc 2541 a93c 5648 013d b8f3 0cbc
00000100: b2c5 443d a81f e93c c471 fcbb 0d10 07bd
00000110: e229 803d 4ae2 f1bc 440e 26bc ced5 27bd
00000120: c7e4 3b3d 3da2 673c c616 6e3c e9d3 0ebd
00000130: 4c4a f0bc 6ee9 853c 32a9 2d3d 6faf f63c
00000140: 00de 5a3a bc05 063d e800 c0bb 445e 25bc
00000150: c00d 72ba 48d0 6e3c 1d9d 34bd 80c4 1e3c
00000160: 52bc 00bd 9066 55bb 2a2b cebc ace1 c9bc
00000170: 7ae7 1abd d0fa dabb 0847 b83c 4241 0c3d
00000180: a3ea f33b 36e8 013d 97e3 4a3c f8e9 9c3a
00000190: f89b 01bd d886 013c 9c82 c4bc 36df 1f3b
000001a0: 7735 9b3c a7d3 b63c bef1 5abd 9824 50bd
000001b0: 4d5b c13c 4aff 2ebc d7c1 d13c 4a6d 6fbd
000001c0: 262f b4bc a5fc f4bc 85ca d1bc 685e 77bc
000001d0: 5c02 3cbc 2ee2 15bd 806a faba f0f0 05bd
000001e0: ec3e 96bd dd30 bb3c b057 8f3c 5533 1a3d
000001f0: fc8a 8dbb 1de1 1cbd 26c5 a93c 1260 9f3d
00000200: 30e2 c23b dd6c e0bc dca2 23bd b705 e1bc
00000210: 688c 193c 42fb 273d 9012 c0bc 4c97 1fbc
00000220: c369 42bc 967d 213d 4064 52bc bd63 483d
00000230: 0fe7 8cbc c51d 883c ac61 bdbc ec17 34bc
00000240: a63e a5bc 249f 7ebc 5dca 22bd c0d7 86bb
00000250: 2e12 8ebc f28c dfbc 10a1 34bb 7e81 423d
00000260: c41f b7bc 87f2 0fbc 0eda 9c3b 6a3a 25bd
00000270: 59dd 4f3d 9499 7e3c 70a1 44bc a5b2 5f3d
00000280: e457 f1b8 b80d 553d c247 53bd 715b 64bd
00000290: a3de c33a 0c56 5c3d a508 913c d413 393c
000002a0: b287 00bd 3041 d23c 728a 5a3d 181a 253d
000002b0: de37 4c3d f8ed 113d c2ce a2bc a827 acbc
000002c0: cc7f 553d f816 94bc 145b 3abd ce71 91bc
000002d0: 0000 9e3c be08 0b3d 50c4 823c 8afb 143d
000002e0: a8ad 4bbd b9f3 54bd 08a8 e43c 956a e33c
000002f0: b647 b23c 9e12 d8bc 0c6a f1bb 799b 7f3c
00000300: 5fa7 953d 4247 173d 3ff9 233d 0792 a1bd
00000310: a000 a7bd f09a 6c3d 5470 b83d 5d3d b5bd
00000320: e13d 7a3c 4ad0 abbb 1c50 42bd 8c11 bbbb
00000330: 38d5 8d3c 7489 f0bb 6018 42bd a789 0dbd
00000340: 4cb4 d13c 18a6 133c 161f 4e3d e84c 9abc
00000350: 4011 093d 8a4b 2c3d 3191 17bd 4070 bb3c
00000360: 2eb1 343c aa08 2bbc 31bd d2bc 4fa7 fbbc
00000370: 4b2c d6bc a61d 6e3d 74cf 95bc 5728 553d
00000380: a250 a13c 734d b8bc 5932 433d 2bc7 40bd
00000390: fb30 193d 3f24 65bd a172 323d 509a 57bd
000003a0: 039a 1dbc c171 e03c 5cf0 ec39 81f3 ce3c
000003b0: 113b 72bd 9d79 92bc 0aac 4e3d 9fd8 38bd
000003c0: d9ca 3cbc 4bd5 6bbd 3088 24bc aaba 4b3d
000003d0: 2a04 5a3d bedd 41bd 8a31 0fbd 4813 16bd
000003e0: 396b 1abd 4310 59bc 2ed9 23bd 04c5 a3ba
000003f0: c776 403d 3326 97bc 66a7 0fbc 3c2a 153d
-0.02104507 -0.029120982 0.06700168 0.031072563 -0.033751227 -0.032141656 0.0026880875 -0.020832447
0.051908046 0.04377062 0.028536238 -0.024651598 -0.00625439 0.017390817 0.034047343 0.041932523
0.049892858 0.01709596 0.06448697 -0.051873375 0.026476657 0.0368581 -0.032399334 -0.017381253
0.0346035 -0.014976853 -0.079169326 -0.00074874837 -0.04242654 -0.016647846 0.026538484 -0.011862246
0.0018523821 -0.04371834 0.04023841 0.013902129 0.06007636 -0.034160797 -0.041454967 0.0456845
-0.030527301 -0.0080254935 -0.042172693 -0.0016206279 -0.011344381 0.047886983 -0.04648652 0.020534843
0.010157061 0.042890824 -0.031121377 -0.019095194 -0.0055864854 0.014116301 -0.0012446445 -0.016435144
-0.06443279 -0.008550767 -0.0025371271 0.049117144 -0.017177852 0.020660946 0.031563126 -0.008603029
0.0480401 0.028457478 -0.0077039916 -0.03297429 0.062579885 -0.029526848 -0.010135237 -0.040975384
0.045872476 0.014137802 0.014531797 -0.034870062 -0.029332303 0.01634666 0.042397685 0.03011295
0.00083491206 0.032720312 -0.005859483 -0.010093275 -0.00092336163 0.014576025 -0.044095147 0.009690404
-0.031429596 -0.0032562353 -0.025167067 -0.024643742 -0.03781841 -0.006682731 0.022494808 0.034241922
0.0074437424 0.031715594 0.012383363 0.0011971584 -0.031642884 0.007905684 -0.02398806 0.0024394519
0.018946392 0.02231772 -0.0534532 -0.05081615 0.023603106 -0.010680983 0.025605125 -0.058453836
-0.021995138 -0.029905627 -0.025609264 -0.015098192 -0.011475172 -0.036592655 -0.0019105226 -0.03270048
-0.0733622 0.022850448 0.017497867 0.03764661 -0.0043195467 -0.038300622 0.02072389 0.07781996
0.005947374 -0.02739566 -0.039950237 -0.027468545 0.009371854 0.041011102 -0.023446351 -0.009740662
-0.011866036 0.03942641 -0.012841284 0.048923243 -0.017200021 0.016615758 -0.023117863 -0.010992032
-0.020171475 -0.015540872 -0.03974377 -0.004115075 -0.017342653 -0.027288888 -0.002756182 0.047486775
-0.022354014 -0.00878585 0.0047867363 -0.04033891 0.050748203 0.015539546 -0.01200138 0.054613728
-0.000115081464 0.052015036 -0.051582105 -0.055751268 0.001494367 0.053793 0.017704317 0.011296231
-0.03137941 0.02566585 0.053354688 0.040308088 0.049857967 0.035627335 -0.01987398 -0.021015003
0.05212383 -0.018077359 -0.045497015 -0.017754462 0.01928711 0.033943884 0.01596275 0.0363727
-0.04972616 -0.051990245 0.027912155 0.027760783 0.02176271 -0.026376065 -0.007367378 0.015601032
0.07307314 0.03693319 0.04003262 -0.07889181 -0.08154416 0.057764947 0.090058 -0.08849595
0.015273542 -0.005243336 -0.04743968 -0.005708879 0.017313585 -0.0073406044 -0.047386527 -0.034555104
0.025598668 0.009011768 0.050322615 -0.0188355 0.033463717 0.042064227 -0.0370037 0.022880673
0.011028571 -0.010439077 -0.02572498 -0.030719427 -0.026144167 0.058133744 -0.018287398 0.052040424
0.019691769 -0.022497868 0.047655437 -0.04706494 0.037400227 -0.05594277 0.04356635 -0.0526374
-0.009619239 0.027397992 0.0004519251 0.025262596 -0.05913836 -0.017880255 0.050457038 -0.04512846
-0.011522972 -0.05757646 -0.010042235 0.049738564 0.053226627 -0.04733061 -0.034959354 -0.03663948
-0.03769991 -0.013248506 -0.04000204 -0.0012494628 0.046988275 -0.018450832 -0.008767938 0.03641723

Transformer_layer.encoder.layers.0.linear1.bias f4 [2048]
00000000: d8fe 993e 9250 9dbe 7111 a6bc c9d6 bf3e
00000010: 386d 2b3d a611 5cbe 24be 943e e95a ef3d
00000020: 97fd 22be c23e 943d 37c4 9ebe a38b afbe
00000030: 10f1 b83e b8ea 143e 4849 ccbd 57e4 0f3e
00000040: fe2a 56be f15d e63d e633 febd 274a 43bd
00000050: 7e43 06be f75e 69be 8e9c 9fbe a939 b4bd
00000060: 4b80 a73e a7b5 363d d15e 86be c16d 6c3e
00000070: a023 113e 6c12 a03c 6fe8 673e e832 8e3e
00000080: bd06 343d 237d ad3e c29d b13d 7227 3dbd
00000090: 1f9c 203e 2324 803e 2c70 38be 5ba8 843e
000000a0: 8311 f8bd 99c6 793e d610 82be 4bb3 d6bd
000000b0: 121f ae3e 5667 1a3d 0331 2e3e 66a2 60be
000000c0: 74f3 6d3b 0e71 0fbe 56ec ba3d 47ba d1bd
000000d0: 318c a8bd 8bcd 4ebc e73e a53e 262c 943e
000000e0: e1f2 b3be 98d2 fdbc e833 093d a11c 813d
000000f0: c62c ebbd 9c06 193d 67e9 14be f246 28be
00000100: f4ff 9cbe 4699 acbe 458e 8abe 3237 1c3e
00000110: dbaa 61be 4084 aebe 6b1d 40be bcde 813e
00000120: c73e fc3d e9aa 103c 3add 813e c995 933c
00000130: 75fe 443e 0c46 683c a2ef 463e b277 883e
00000140: d1de ae3e 7bca 4e3e 1b09 893e c109 b5bd
00000150: bd1a 103e 0839 81be 78fc 793e a915 1dbe
00000160: 27c0 85be f5f8 a7be 8661 603e 537a b7bd
00000170: 7e74 c43d 808d 64bd 97cc 193c fd5c 0c3e
00000180: 2a8a 263e 2e31 993e 890a 223d 6a63 f5bd
00000190: 649f 14be 1f5d 0cbe e725 8a3e 91d6 26be
000001a0: ca02 373e 8560 2f3e f200 a83e fcaa 9abe
000001b0: 5f7b af3e d14c 34bd a65b a3be fda4 503e
000001c0: 8b31 153d 4f63 203e 3c0c 593b 902d 073e
000001d0: d01d 8d3e 5ad4 b2be cea7 9fbd e0fa 4dbe
000001e0: fc59 47be 0fb5 e63d 40ab 8c3d a9cc ac3e
000001f0: 0e8d d93d 117e af3e 2236 fcbb ae6f bcbd
00000200: 438b 843c 6ceb 35be 7f85 f73d c88d 10be
00000210: 28d2 6fbe a339 a63e 7ae7 9c3e a394 853e
00000220: 02cd fa3d 2177 afbe 914a c5bd 9c36 debd
00000230: b92e 813e a3a4 ad3d dc53 403e 9fa3 9fbd
00000240: bafd 6dbd aa42 ba3c d7ed 013e a186 0d3d
00000250: 3eb0 f1bc 0fda cebd 58de 37ba dac8 063e
00000260: 71f8 6e3d f06b 8f3d 840e 6ebe 1994 9ebe
00000270: 29f2 45be 8259 15be 9f3f bf3e dd27 e2bd
00000280: 27b8 51bd af7a 633e 19ce 9b3e e40a ef3c
00000290: 382d 3abe d1da 4cbe 5509 18be b405 f4bd
000002a0: 9bfb ab3e 5653 0ebe c7e8 373e 299c 493d
000002b0: cd99 51bd 1475 153d e32d 333e 12ee f839
000002c0: 613f 253e fa09 7a3e 1515 36be 7636 d73c
000002d0: 2dc2 a83e d690 903e 3abe 223e fb0f 8b3e
000002e0: dbf6 65bd 4ea0 073e c04a 943e 1ee7 8bbe
000002f0: 30e6 02bd a7fa adbc 7800 853e 88be 1b3e
00000300: ec0a 913e d07f 42be 2ccd f9bd 6bdf 423e
00000310: 8bd0 a63e 146e b43e 622e 82be b88c 42bd
00000320: 4516 2abd 6035 4c3e 89f0 203e 488f 16be
00000330: 46b4 21be a747 46bd ed07 b1be 9aab b0bd
00000340: fddb 963e cc68 38bd 5561 a9bd 6a92 413e
00000350: 4d53 08be 1133 a6bb a061 55bc 245e ab3c
00000360: 6607 393e caff 43bc 6d00 903e c862 81be
00000370: c99b 52bd 7fc9 e9bd 56ce af3b ad33 a03e
00000380: aca1 8a3e f49f ff3d d7b7 bebc 86f4 f93d
00000390: 0d99 a13e ee17 b73e acf3 2bbe 9cf7 d9bd
000003a0: d246 70be 8cde 3abe dc3d 173e 6c10 343e
000003b0: 915b febd fd71 b83e 16da c63d 8ce4 743e
000003c0: c6d1 983e 0213 18bc 0a6f b1bc aa0b 4dbe
000003d0: 2e0a 58be 070f 243e f783 323e 3469 863e
000003e0: 01f2 193e 5fba a93e f22d 9f3e f9e6 343d
000003f0: c190 a73e 7be5 b53d 98b6 6abe 7b4c 01bd
0.30077243 -0.30725533 -0.020271989 0.37468556 0.041852206 -0.21491107 0.29051316 0.116872616
-0.1591705 0.072385326 -0.31009075 -0.34286222 0.36121416 0.14542663 -0.09974915 0.14051948
-0.20914838 0.11248387 -0.124122426 -0.04767814 -0.13111684 -0.22790132 -0.3117413 -0.0880006
0.32715067 0.04460683 -0.26244214 0.23088743 0.14173746 0.019540034 0.2264726 0.27773213
0.04395174 0.33884534 0.08672668 -0.046180196 0.15684555 0.2502757 -0.1801154 0.25909695
-0.12112715 0.24392165 -0.2540347 -0.10483416 0.3400808 0.037696205 0.17010884 -0.2193695
0.003630844 -0.1400797 0.09127109 -0.10240608 -0.082298644 -0.012622247 0.32274553 0.28939933
-0.3514624 -0.030984208 0.033496767 0.06304289 -0.11483149 0.03735982 -0.14542161 -0.16433313
-0.30664027 -0.33710688 -0.27061668 0.1525543 -0.22037832 -0.34085274 -0.18761222 0.25365245
0.12316661 0.008829811 0.25364095 0.018015759 0.19237693 0.014176857 0.1942735 0.2665382
0.3415437 0.20194428 0.2676476 -0.08839751 0.140727 -0.25238824 0.24412715 -0.15340294
-0.26123163 -0.32807127 0.21912202 -0.08958878 0.095925316 -0.055799007 0.009387157 0.13707347
0.16263643 0.29920334 0.03956083 -0.11981852 -0.14513928 -0.13707398 0.26982042 -0.16292788
0.17872158 0.17126663 0.3281322 -0.30208576 0.34273812 -0.04401857 -0.3190586 0.20375438
0.0364242 0.15662883 0.0033118865 0.13200974 0.27561808 -0.34927636 -0.07795678 -0.20115232
-0.1946792 0.11265003 0.06868601 0.33749893 0.10622607 0.3427587 -0.007696883 -0.09200989
0.016179686 -0.17765588 0.12086009 -0.14116585 -0.23420012 0.32465848 0.30645353 0.26089963
0.122461334 -0.34270576 -0.09633363 -0.1085026 0.2523096 0.084786676 0.1878199 -0.0779488
-0.0581033 0.022736866 0.12688385 0.03455222 -0.029502984 -0.10100185 -0.0007014028 0.13162556
0.0583424 0.07003009 -0.23247725 -0.30972365 -0.19330658 -0.14584926 0.37353227 -0.110427596
-0.051201012 0.22214769 0.30430678 0.029179998 -0.18181312 -0.20005347 -0.1484731 -0.1191515
0.33590397 -0.13898978 0.17959891 0.04922119 -0.051172066 0.036488608 0.17497973 0.00047479622
0.16137458 0.24417868 -0.1778148 0.026271086 0.32960644 0.282355 0.15892878 0.2716063
-0.056143623 0.13244745 0.2896328 -0.27324766 -0.031957805 -0.021237684 0.2597692 0.152094
0.28328645 -0.18994069 -0.121973366 0.1903054 0.3258098 0.35240233 -0.25426012 -0.04749748
-0.041525144 0.19942236 0.15716757 -0.14703095 -0.15791425 -0.048408177 -0.3457636 -0.086264804
0.29464713 -0.045021817 -0.08270518 0.18903509 -0.13313027 -0.0050720056 -0.013023764 0.020918913
0.18069229 -0.01196284 0.28125325 -0.25270677 -0.0514181 -0.114153855 0.0053651733 0.31289425
0.2707647 0.124816805 -0.023281021 0.12204842 0.3156208 0.35760444 -0.16792172 -0.10642931
-0.23464516 -0.18248957 0.14769691 0.1758439 -0.12419809 0.36024466 0.09709565 0.23915309
0.29847544 -0.009281876 -0.021659393 -0.2002398 -0.21097633 0.16021357 0.17433153 0.2625214
0.15033723 0.33150002 0.3108974 0.044165585 0.32727626 0.088816606 -0.22921216 -0.031567078

Transformer_layer.encoder.layers.0.linear2.weight f4 [8, 2048]
00000000: 6b5f 06bc 21f0 13bd 80c6 bf3c 4c01 913c
00000010: 9860 1e3d 1e11 40bd 9b26 a4bb da09 27bd
00000020: 9708 4abd 1296 e13c 4859 b8bc 4264 463d
00000030: 3dba 2d3d 5ca2 623d 00ca 023d ef8c 073d
00000040: f4ef aebc 109e 023c b495 bb3c c97c 52bd
00000050: c5dd ba3c 1c58 20bd 0c5e afbc 4223 ba3b
00000060: 47f1 643a 1fae bd3c c05e 25bd d3ab 413d
00000070: cbd1 3d3d 0b81 f139 d49c c2bc b4c6 f8bc
00000080: beec cdbc 15b4 713d 0316 593c 8cd6 a23c
00000090: 2723 123c 5108 6e3d beb9 99bc f642 a5bc
000000a0: bcd3 eabc f315 863c 6854 ac3b ad27 a2bc
000000b0: 79fc 473c 07c6 0cbd 0e97 733d b008 303d
000000c0: e5ab 0ebd ee37 c1bc 9c1c 5b3d ff48 bebc
000000d0: 6281 1abd c4d8 c5bc e8f7 28bd 4784 d83c
000000e0: fae3 4c3d 329c fdbc 0146 88bc f8d7 7a3d
000000f0: e3df 423d 1125 babc 1d69 56bd 3817 0bbc
00000100: 00d0 79bc d4e0 3abc 28b6 a7bb bf44 1cbd
00000110: d62f 33bd 928f 2f3d eafb 323d a75d a9bc
00000120: 8b2e 39bb b1c4 0a3d fea2 a53c b7dc 233c
00000130: feb0 d53c 7bbc 88bd 3daa 4b3d 555e 903b
00000140: 293b 61bc c504 543d f08b 383d 67aa 7fbd
00000150: f3d4 de3c 48f9 94bc 81c1 7b3d f2bf 27bd
00000160: 9426 e63c cc38 0b3d 94fe 453d 911b 583c
00000170: f63b e1bc ac52 6a3b 575b 20bc 3fc6 663d
00000180: c284 03bb e6de fb3b 8ef3 87bc 8eb7 4b3d
00000190: b615 3cbd 3c98 15bd 8ad1 703c 36b1 30bd
000001a0: 9e54 22bd 0fd2 dbbc 12c7 d13b a263 23bd
000001b0: 561c e0bc a86b 5ebc ccae b2bc 5a5a 71bc
000001c0: 1b8b 20bc ea11 953c 8e02 4b3c 3ad6 263d
000001d0: 97da a2bb 7c9d 79bc 4d30 293d 9647 12bd
000001e0: 18f5 f5bc 0e3c ebbc df19 2fbd 5465 653d
000001f0: 566a 27bc 2f15 03bd 88e4 7c3d ecf3 afbc
00000200: c3e4 023b ac58 13bc 8711 4e3d bde0 2abd
00000210: 0468 863c f808 183c aa14 f53c a17c 75bb
00000220: e360 0c3d 008e 6e3c a3f9 4d3d e650 f4bc
00000230: db63 0a3c 2908 1f3d 393e 19bd f9f9 66bc
00000240: 19e2 55bc e8c8 7ebc 3069 603c be0e 01bd
00000250: c8bc 013c d03d 3539 8216 cdbc 3c38 b93c
00000260: 57a2 26bb 7f30 febc e40d b03c 12a7 8dbc
00000270: 3e50 aa3c c0c1 1d3c 8d28 703d 2ee5 67bd
00000280: 24a4 a33c 7dce f23b a697 f3bc 28fe a23c
00000290: 28bd 6c3c 8675 1abd 4070 4c3d 7074 263d
000002a0: 0473 dc3c e0e1 12bd 2040 3fbd 94d0 11bc
000002b0: 023d 2738 43b5 43bc 2125 563c 4ebf 0abd
000002c0: 856c a2bc c31b 2e3d d286 13bd 2b56 a9bc
000002d0: bee9 e2bc 223d 5d3c 0c6f bbbc df92 8abc
000002e0: 6e1d e23c 0505 283d 4a14 7dbc 5d5b e3bc
000002f0: 3560 fd3c 196d 633d 0886 2bbd e5be e03c
00000300: ad21 ff3b ee55 533c c9c1 ebb9 6778 d43c
00000310: cd96 013c 71ad efbb d4e2 393d 9aa9 2bbd
00000320: 659d 4f3d 3726 ecbc 6548 01bd c967 343d
00000330: 725a c93c 6032 633d 8ae6 00bd b6b9 c13c
00000340: 69c4 ad3c f976 743d 6bb4 223d b572 d63c
00000350: b7e0 cdbc 4ea3 5a3d 4da4 003d 1e4f d9bb
00000360: b912 6dbc 1cac fa3c 36d2 1fbd e6e6 473d
00000370: 3a82 0a3d 7928 cf3c 24b9 5d3c 3b42 0ebd
00000380: 23c0 703d 296f ba3c e748 bd3c cac5 503d
00000390: b85a 643d cd04 bc3c 4e24 1cbd 1807 9f3c
000003a0: a8bf 353d 250f 53bd aaec 3ebc 0f33 313d
000003b0: b5c2 1abd 12df 99bc 89ef 033d b89e cfbc
000003c0: 69d7 86bb baa0 16bd a9ec 69bc 001c 66b9
000003d0: f898 f1bb 72a8 9e3c 3cd1 16bd 61a2 5e3d
000003e0: db7f 3fbb de61 0dbd 153f b53b 6f89 f93c
000003f0: e524 523c 24f3 d1bc 08a0 96bc aee2 c5bc
-0.00820146 -0.036117677 0.023410082 0.017700814 0.038666338 -0.046891324 -0.005009485 -0.04078088
-0.0493246 0.02753738 -0.02250351 0.048435457 0.04241394 0.05533062 0.031930923 0.03309339
-0.021354653 0.007972255 0.022898532 -0.051388536 0.022810826 -0.039146528 -0.02140715 0.0056804726
0.0008733463 0.023154316 -0.040373564 0.047283005 0.046342652 0.00046063247 -0.023756422 -0.030368187
-0.025137302 0.05900963 0.013249877 0.019877695 0.008919514 0.0581134 -0.018765327 -0.020173531
-0.028665416 0.016367888 0.0052590854 -0.01979431 0.01220619 -0.03436854 0.05947023 0.042977035
-0.0348319 -0.02358624 0.05349408 -0.023228167 -0.037721045 -0.024151213 -0.041252047 0.026430262
0.050022103 -0.030958269 -0.016634943 0.06124112 0.047576796 -0.022722753 -0.052346338 -0.0084894225
-0.015247345 -0.011406142 -0.0051181503 -0.0381515 -0.04374679 0.04286153 0.043697275 -0.02067454
-0.0028256502 0.033878986 0.020219322 0.010001353 0.026085373 -0.06676575 0.0497229 0.0044057765
-0.013747015 0.05176236 0.04505533 -0.062418368 0.027201151 -0.018185273 0.061463837 -0.040954538
0.028094567 0.033989713 0.048338488 0.013190166 -0.027494412 0.0035754843 -0.009787402 0.056341406
-0.0020068143 0.0076864837 -0.016595628 0.0497356 -0.045919143 -0.036522135 0.0146983955 -0.04313775
-0.03963148 -0.026833562 0.006401905 -0.03988994 -0.027357262 -0.013575472 -0.021811865 -0.014731014
-0.00979879 0.018197019 0.012390746 0.040731646 -0.0049699056 -0.015235301 0.04130583 -0.0357128
-0.030024096 -0.02871516 -0.042749282 0.056004837 -0.010218224 -0.032002624 0.061741382 -0.021478616
0.0019972778 -0.008993309 0.050309684 -0.041718233 0.01640702 0.009279482 0.02991708 -0.0037458318
0.034272086 0.014560223 0.0502869 -0.029823732 0.008446659 0.03882614 -0.037412856 -0.014097684
-0.013054394 -0.0155508295 0.013696954 -0.0315082 0.007918544 0.00017284532 -0.025035147 0.022609822
-0.0025426352 -0.031028984 0.021490999 -0.01729158 0.020790216 0.009628713 0.058632422 -0.056615047
0.01997573 0.007409869 -0.029735398 0.019896582 0.014449395 -0.037709735 0.049911737 0.040638387
0.026910312 -0.035859942 -0.046692014 -0.008899827 3.987272e-05 -0.011945072 0.013070376 -0.03387385
-0.019827137 0.042506944 -0.036017247 -0.02067097 -0.027699348 0.013503345 -0.0228801 -0.016915737
0.027601924 0.041020412 -0.015446732 -0.027753526 0.030929664 0.055523966 -0.04187587 0.027434776
0.007785997 0.012898905 -0.00044967074 0.025936319 0.007909489 -0.007314377 0.045382336 -0.04190979
0.050687212 -0.028826816 -0.03156318 0.04404429 0.02457926 0.055467963 -0.03146986 0.023648124
0.02121182 0.059683774 0.03972284 0.026177743 -0.025131566 0.053378396 0.03140669 -0.006631746
-0.014469796 0.030599646 -0.039018832 0.048804186 0.0338156 0.025287854 0.0135329105 -0.03473113
0.058776986 0.022758083 0.023106052 0.050969876 0.05575058 0.022951508 -0.03812056 0.019412562
0.04437223 -0.051528115 -0.011653105 0.043261584 -0.037783343 -0.018783126 0.03221086 -0.025344238
-0.0041150344 -0.036774375 -0.014277616 -0.0002194494 -0.0073729716 0.01936743 -0.036820635 0.054354075
-0.0029220495 -0.03451716 0.0055312016 0.030461041 0.012826179 -0.025628634 -0.018386856 -0.02415594

Transformer_layer.encoder.layers.0.linear2.bias f4 [8]
00000000: 0e24 6d3c 7083 573c 2636 bc3c 7e29 8bbb
00000010: db56 1cbd 440f 4abd ff48 1bbc 2fc2 ac3c
0.014473928 0.013153896 0.022975039 -0.0042468896 -0.03816877 -0.049330965 -0.009477853 0.021088688

Transformer_layer.encoder.layers.0.norm1.weight f4 [8]
00000000: 1b16 823f fef9 803f db45 7b3f fe8b 7b3f
00000010: 962f 833f 4bef 7b3f 99e2 813f 3fcb 783f
1.0162996 1.0076292 0.98153466 0.98260486 1.0248897 0.9841201 1.0147277 0.9718513

Transformer_layer.encoder.layers.0.norm1.bias f4 [8]
00000000: 6d54 583c 7cb8 933b ae66 623b dfe5 eb3a
00000010: 7ebb c9bc 8818 98bc e29e 8e3c c14c 19bb
0.013203722 0.0045080762 0.0034546065 0.0017997584 -0.024625536 -0.018566385 0.017409746 -0.0023391696

Transformer_layer.encoder.layers.0.norm2.weight f4 [8]
00000000: a309 803f 5c88 7f3f 0b53 753f f325 743f
00000010: f4c4 833f 28bf 843f 012e 7b3f 3b73 7c3f
1.0002941 0.9981744 0.9582984 0.95370406 1.029448 1.0370836 0.9811707 0.9861333

Transformer_layer.encoder.layers.0.norm2.bias f4 [8]
00000000: ff49 933c 1854 1ebc e495 4fbb 409e a63b
00000010: c056 f0bc 6ad7 27bd 9803 313c b6fb 4e3c
0.01797962 -0.009663604 -0.0031675035 0.005084783 -0.02933824 -0.04097692 0.0108040795 0.012633255

Transformer_layer.encoder.norm.weight f4 [8]
00000000: 6238 7c3f 5b37 7b3f b111 763f 336e 743f
00000010: 5589 7e3f ad64 7b3f 3697 763f 7f91 783f
0.98523533 0.9813134 0.96120745 0.9548065 0.994283 0.98200494 0.9632448 0.9709701

Transformer_layer.encoder.norm.bias f4 [8]
00000000: 94a7 8b3b bebd f1bc 772c 69bc 0ac9 0b3b
00000010: 9228 e43b 4861 3f3b e85a 9fbb 7829 063b
0.00426192 -0.029509421 -0.014231793 0.0021329545 0.006962844 0.0029202271 -0.004863132 0.0020471495

Transformer_layer.decoder.layers.0.self_attn.in_proj_weight f4 [24, 8]
00000000: 55f5 5fbe 846b 833e 4f2c f83e c122 ad3e
00000010: 8e07 243d cc65 083f e5c7 5bbe 71f9 dbbe
00000020: dedc 9abe 731d a13e 31bd 843a 114d 55bd
00000030: 6018 06be 8412 7c3b 4e5b 96be 3ff6 dbbe
00000040: 6be0 ad3a 4b44 4d3e fee8 89be ca60 823e
00000050: 05ed b53e 01f8 b7be 944a 003e 4af4 333d
00000060: 3fa1 89be cb22 e53e f104 1d3c 033e d03e
00000070: dab3 a7be a6cb 97be 841e 5c3e 6c43 e8be
00000080: 874a 36be 3237 88bc 3b87 713e e702 b3bd
00000090: 6507 9cbe b0e9 fe3e 49b7 573e 8b1e 8abe
000000a0: c79e 2a3e e17e 00bf ca31 69bc 45bd 863e
000000b0: cdab 9abe 28e0 ee3e 8207 4ebd ab0d b6be
000000c0: fd43 e73e a73d 10bd c3f4 2b3e f41a 8abc
000000d0: d158 eebd 6b20 33be 1b3c 783c 5156 5c3e
000000e0: 8fee 7fbe ef7d 053c 0e0c 6dbe 4076 d63d
000000f0: 92da d03d efd1 67be 2bba f93e 4159 ccbe
00000100: 5ff3 c63e 2059 033e f5bb e53c 712e 76be
00000110: b9a9 f6be d98e c53e 1822 9f3d 0304 843e
00000120: 9c26 02bf f8fe 6fbe bad4 97be b5a6 45be
00000130: 5906 a13e 5201 83bd 5f5e 703c 2a6e f8bd
00000140: 55a4 b5bb 515e ab3d 103b eb3d 43d2 86be
00000150: 81d3 adbe 8771 4ebe d3e1 d73d 8fee a7be
00000160: a13b 083e 2783 dabd 4284 45be 6662 ffbe
00000170: 86e6 b93d d6b9 0d3f aabf e3bd b7ff bb3e
00000180: e68a 0d3e 3707 903e c61e 40bd 69e9 e63e
00000190: 5359 1ebd 378c 66be ad1a b3bd d2a5 883e
000001a0: a8e7 5a3e 89fa c0be 2120 eb3d a092 623e
000001b0: 4ad4 6abd ff4e 51be 96b2 be3e c445 d43e
000001c0: d9b0 5abe d734 82be b884 a83d 0363 b8be
000001d0: eed1 04bf 2082 9ebe 12ff ac3d 6f51 093e
000001e0: ec35 893e 1e72 053f 7cac 223e 7087 e23e
000001f0: 76d0 acbe 8f3b 4a3e 6b18 92be 5072 d5bd
00000200: 619e e6be 1191 93bc 09c4 64be c984 79be
00000210: def7 9a3e 814a 4cbd 9f68 4cbe f72c 6bbe
00000220: 5cd0 06bd 94f2 44be 77a6 a6be b1d1 e6bd
00000230: 42b4 6a3e e3cd 0bbe f1ff 093e 156a 15be
00000240: edd8 103e e677 b3bd bd2b cc3d 06ff 9d3e
00000250: f5cf 0c3e 1402 edbc 491b 953e 6b1d 393e
00000260: 7f6a 43be 2fc7 a23e 3cd6 2bbe f083 5e3d
00000270: 174a 863e 5464 a13d 9d14 9bbe 544f a03e
00000280: bc40 c6bd 08f8 273e 7c36 2c3d edfa 76bd
00000290: f194 febd ed6f ab3e 8253 c53e 0dd7 bc3d
000002a0: aced aa3d 62d3 69be 1f26 ef3d b02e a13e
000002b0: c628 f0bc 6846 993e 6bf4 8ebe bc8b 3dbe
000002c0: e5a7 0fbe 516b d4bc 83b5 92be 6b47 a23d
000002d0: 9d9a 8cbe 61f3 833e 5051 123e d245 173e
000002e0: a11f cebe bbe1 e5be 059f 25be 019a 82be
000002f0: d329 bc3e 7fc3 4abe 1c17 f73d b027 a83e
-0.2187093 0.25667965 0.48471305 0.33815578 0.040046267 0.5328033 -0.21462972 -0.42963746
-0.30246633 0.3146778 0.0010127184 -0.05207545 -0.13095236 0.0038463185 -0.29366535 -0.42961308
0.0013265734 0.20045583 -0.2693557 0.2546447 0.35532394 -0.359314 0.1252845 0.043934144
-0.26880834 0.44753107 0.009583698 0.4067231 -0.32754403 -0.2964756 0.21496016 -0.4536394
-0.17801867 -0.016627882 0.23586743 -0.08740788 -0.30474392 0.49787664 0.21066011 -0.26976427
0.16662131 -0.501936 -0.014233062 0.26316276 -0.302092 0.46655393 -0.05030013 -0.35557303
0.45169058 -0.035215046 0.16792588 -0.016858555 -0.11638034 -0.17492835 0.015151049 0.21517302
-0.24993347 0.008147701 -0.2314913 0.10471773 0.10197939 -0.22638677 0.48774847 -0.39911845
0.38857552 0.12826967 0.028043726 -0.24041153 -0.48176363 0.38585547 0.07770175 0.2578431
-0.50840163 -0.23437107 -0.29654485 -0.19301875 0.31450155 -0.06396736 0.014670937 -0.12130387
-0.0055432715 0.08367599 0.11485875 -0.26332292 -0.33950427 -0.20160495 0.105411194 -0.32799193
0.13303997 -0.106695466 -0.19288734 -0.4987976 0.09077172 0.5536169 -0.111205414 0.36718532
0.13822517 0.28130504 -0.046904348 0.45099953 -0.038659405 -0.22514425 -0.087453224 0.2668901
0.21377432 -0.37691143 0.114807375 0.22126245 -0.05733136 -0.20440291 0.37245625 0.41459477
-0.21356525 -0.2543094 0.08228439 -0.3601304 -0.5188283 -0.30958652 0.08447088 0.1340997
0.26798952 0.52127254 0.1588611 0.44243956 -0.33752793 0.19749282 -0.28534254 -0.10422194
-0.4504271 -0.018013509 -0.22340406 -0.2436706 0.30267233 -0.04987574 -0.19961785 -0.22966371
-0.03291355 -0.19233161 -0.32548878 -0.11270464 0.22920325 -0.13652758 0.1347654 -0.14591248
0.1414525 -0.08763103 0.0996928 0.3085863 0.13751204 -0.028931655 0.2912238 0.18077628
-0.19083594 0.3179259 -0.16780943 0.054325044 0.262284 0.07880464 -0.30289164 0.31310523
-0.09680316 0.1640321 0.042044148 -0.060297895 -0.12430752 0.3348383 0.38540274 0.09220705
0.083461136 -0.22834542 0.11677193 0.31480932 -0.029316317 0.29936528 -0.2792085 -0.18510336
-0.1402889 -0.025930079 -0.28654107 0.07923778 -0.2746171 0.2577162 0.14288831 0.14772728
-0.40258506 -0.4489878 -0.16173942 -0.2550812 0.3675066 -0.19801138 0.12064955 0.3284278

Transformer_layer.decoder.layers.0.self_attn.in_proj_bias f4 [24]
00000000: 8dd2 3abd a1dd e33c ed23 bbbc 3a79 84bd
00000010: 3217 3b3d 9df4 82bc 3d6e 2b3d 2052 4dbc
00000020: e2c6 b739 a84d 053a 32f4 c7b7 64fd a4b9
00000030: 9299 9338 a95a 43ba 4f90 303b 035c 093b
00000040: b447 023c 70db bf3c 9769 083c 3eca 5abc
00000050: af85 4abd c642 4ebc 58c5 30bc 5c4d fabc
-0.045610953 0.027815642 -0.02284428 -0.06468435 0.045676418 -0.015985781 0.04185318 -0.012531787
0.0003505266 0.0005085119 -2.3836361e-05 -0.00031469308 7.038111e-05 -0.0007452169 0.0026941483 0.0020959384
0.007951666 0.023420066 0.008325956 -0.013353882 -0.049443897 -0.012589162 -0.010789238 -0.030554466

Transformer_layer.decoder.layers.0.self_attn.out_proj.weight f4 [8, 8]
00000000: 639d fdbc bf63 733d 5ffa a1be ad1b 0d3f
00000010: d6ce 4d3e 2b22 cbbe 021c 003f 5819 7d3d
00000020: 3fbb d5be 8c35 f93a 12e4 0c3e 77eb 24be
00000030: 2b27 afbe 95ac c23d 2768 97be 1659 e4be
00000040: cafd d23e dab7 6dbe 47bd c13e f729 cebe
00000050: b828 ec3e 29f0 18be ed71 d53e cc8d 203f
00000060: a3b9 c83e 24bc 35be 3449 17bf 0f9d fbbe
00000070: 86d2 763d 768f 05be 5fb6 c1be 0ed9 2abf
00000080: 0e89 c9be 9728 e03e 8538 b4be 8282 383d
00000090: c9c4 88be 3d68 0c3f ee37 01bf da4f 393e
000000a0: 70a0 a7be 6883 a9bd 7bdb 1abf e259 bfbe
000000b0: ea65 b83d d734 a8bc eaad 10bf 45f7 83be
000000c0: dc0a 11bf 6cef 19bf b519 fe3e 2811 b03e
000000d0: 6e92 033d cd66 f03e ee5a e03e ba89 803e
000000e0: f02d d53c d209 89be c80c a3be 2c91 cb3e
000000f0: aac8 c6be 481a 7fbe 2524 d2bc 3021 acbe
-0.030958837 0.059421297 -0.3163633 0.55120355 0.20098433 -0.39674506 0.50042737 0.061791748
-0.4174442 0.0019013151 0.13758877 -0.16105448 -0.3420957 0.09505574 -0.2957165 -0.44599217
0.4120925 -0.23214665 0.3783972 -0.40266392 0.46124816 -0.14935364 0.4168848 0.62716365
0.3920413 -0.17747551 -0.59096074 -0.49143264 0.060259365 -0.13043007 -0.3783445 -0.6673745
-0.39362377 0.43780968 -0.3519937 0.045046337 -0.26712635 0.54846555 -0.50475967 0.18096867
-0.32739592 -0.08277017 -0.6049115 -0.37373263 0.090038136 -0.020533009 -0.5651537 -0.2577459
-0.56657195 -0.60130954 0.49628988 0.3438809 0.032122068 0.4695343 0.43819374 0.25105077
0.026022881 -0.26765305 -0.3184569 0.39759195 -0.3882497 -0.24912369 -0.025652 -0.3361907

Transformer_layer.decoder.layers.0.self_attn.out_proj.bias f4 [8]
00000000: f7aa 63bd 86e5 0c3d a5f4 053d b877 a1bd
00000010: 2956 813b e7c6 c1bc 1ec7 6fbd d485 a43d
-0.055582967 0.034398578 0.032704014 -0.07884163 0.0039470387 -0.023654414 -0.058539502 0.08033338

Transformer_layer.decoder.layers.0.multihead_attn.in_proj_weight f4 [24, 8]
00000000: 5624 e23e 7403 7a3e 8f99 f0be 305f 2cbe
00000010: f862 0c3e 26e0 f7be b09b 093e a705 9c3d
00000020: ee0b b7bd b983 d33d f03f 26be cda2 e53e
00000030: fd11 a63e 47c3 aa3e 49ae ea3c a0f9 a0be
00000040: 294b 423e 4b62 dfbd 153c b9be 8a29 9a3e
00000050: 2327 a3bd de47 5f3e 8b94 b73d 44a3 51be
00000060: 987f b5be 0cb1 b2bb 024a 3abe 51a1 27be
00000070: e1bc 96be 9692 6c3d 91c6 403e 84b6 6a3e
00000080: e3c6 a33e 076d dabd f081 7abd c492 f63d
00000090: 4a3f b23e 6b57 8cbd 4b53 8e3e 1751 78be
000000a0: 06f3 d63d d917 61be c01e bc3e a4a5 0cbe
000000b0: 1146 623e 4941 26be 1e30 813e a3ce 3a3e
000000c0: feba 883d fd15 b83d b598 9a3d ca14 c43e
000000d0: b4d5 9e3e 1f63 b03e 4f53 0b3e 7ce4 b33e
000000e0: 4855 a7be 7192 f63b 6d81 a9bd eef3 c43e
000000f0: 0717 8dbd 05a3 a73e 2e89 05bf 12ed 9cbe
00000100: f651 bebc a45c ad3e 0ae0 a23d a1b5 5a3e
00000110: 88fc 103f 1452 6dbe 6873 a9bd 5e5a ed3c
00000120: 9cb0 93be 8c04 2bbd 182c e23e 8891 96be
00000130: a19c 94be 495c 70be d77b ae3e 01a1 b8be
00000140: 769c 263d bdfe d53e b696 48be e77a 47be
00000150: baa5 1d3d 5a3e fb3e 11e3 053e a97b f7bd
00000160: 151a 773e 5849 36be c23b c83d 7bfb 543e
00000170: 3438 90be 989e 343e 4abf 013e bca4 943e
00000180: 3b25 013e 5572 f6bb ab07 73be 212e 9f3e
00000190: 0dfa 863e ae23 75be 0caa 6f3d 24ad 233e
000001a0: a9ea d3be 2936 c43e 4261 e23e 2807 6bbd
000001b0: d2cc 843e 9933 a5be 0a5d 4ebe 533a 1f3d
000001c0: 0605 29bc eb50 b2bd 8731 e63c 5531 b43d
000001d0: 4440 49be f06e 80be dfbb c13d 4027 aabe
000001e0: 0f8f a73e 7540 45be 0a08 a73d 2a6c 763d
000001f0: ba95 47bd c220 55be ad30 ab3e 344f 8ebe
00000200: 505e 5c3e be3d acbc dd82 573e 4471 a2be
00000210: 19ec 103d 8134 86be 4f5a 7e3d 928a 123e
00000220: fafb bdbe 64b3 7d3e d656 da3d ac24 f1bd
00000230: f837 91be 7329 a43e bde8 aa3e 3d2a 9abe
00000240: 28e7 c6be db94 7abe 387f b23e f501 2cbe
00000250: b54a 833b e897 ccbc c5e8 503e b270 5e3e
00000260: 3933 443e 7525 053e cb46 353e 9052 17bd
00000270: 71e4 92bd 57c0 4c3d c422 9b3d 3d72 dcbe
00000280: 5dc7 82be ef0a 633e 37eb 973e e8c4 96be
00000290: 7263 98b9 7cb3 9fbe 7e20 bd3e b7a8 1cbe
000002a0: 7d96 a6bc e504 cd3e e857 b73d cf19 a03d
000002b0: a8b0 c23d cbc2 a93d f43b c83d a574 5b3e
000002c0: 7e6d 8ebe f449 143d 2a09 ad3e f77d a4be
000002d0: 39d9 a23d c5f9 d5be 2cbd 17be c07c af3e
000002e0: c479 913e 1200 9a3c 93da c83e f0b8 04be
000002f0: 0f03 bd3e 6ee5 23be b144 40be 26b8 8fbe
0.44168347 0.2441538 -0.46992156 -0.16833186 0.13709629 -0.484132 0.13438296 0.076182656
-0.08937822 0.103278585 -0.16235328 0.4485077 0.324356 0.3335211 0.028647559 -0.3144045
0.18973984 -0.1090742 -0.3617865 0.30109817 -0.07966449 0.21804759 0.08963879 -0.20472437
-0.3544891 -0.0054532345 -0.18192294 -0.16370131 -0.29440978 0.057756983 0.18825747 0.22921187
0.31987676 -0.106653266 -0.061159074 0.12039712 0.3481391 -0.06852611 0.27797922 -0.24249683
0.10495572 -0.21981753 0.3674221 -0.13735062 0.2209704 -0.16235842 0.25232023 0.18242888
0.06676291 0.08988569 0.07548658 0.3829711 0.31022418 0.34450623 0.13605998 0.35135257
-0.32682252 0.0075247814 -0.08276639 0.38467354 -0.06889158 0.32741562 -0.52162445 -0.3064962
-0.023232441 0.33859742 0.07952888 0.21358348 0.5663533 -0.23175842 -0.08273965 0.028973754
-0.2884568 -0.041752383 0.44174266 -0.29407907 -0.29025748 -0.23472704 0.34078857 -0.36060336
0.040676557 0.41795912 -0.19588742 -0.19480477 0.038488127 0.49071008 0.130749 -0.12084133
0.24131043 -0.17801416 0.09777023 0.20799057 -0.2816788 0.17638624 0.12670627 0.29031932
0.12611859 -0.0075209537 -0.23733394 0.3108988 0.2636265 -0.23939392 0.05851178 0.15984017
-0.4138997 0.3832257 0.44214827 -0.05737987 0.25937515 -0.32265928 -0.20152679 0.03887398
-0.010316139 -0.0870684 0.028099788 0.08798472 -0.19653422 -0.2508464 0.09459662 -0.3323307
0.32726333 -0.1926287 0.0815583 0.060161747 -0.048726775 -0.20813277 0.33435574 -0.27794802
0.21520352 -0.021025535 0.21046014 -0.3172704 0.03538141 -0.26211932 0.062097844 0.14310673
-0.37106305 0.24775463 0.10661094 -0.11774573 -0.28363013 0.32062873 0.3338069 -0.3011035
-0.38848233 -0.24470846 0.34862685 -0.16797622 0.0040067085 -0.024974778 0.20401295 0.21722677
0.19160165 0.1300257 0.17702787 -0.036943972 -0.07172478 0.049988117 0.075749904 -0.43055907
-0.25542727 0.2217214 0.29671642 -0.29447103 -0.00029065792 -0.31191623 0.36938852 -0.15298735
-0.02033543 0.40042797 0.08952314 0.078174226 0.09506351 0.08289107 0.0977706 0.21431215
-0.2781791 0.03620334 0.33796054 -0.32127354 0.07951588 -0.41792122 -0.14818257 0.34274864
0.28413212 0.018798862 0.3922926 -0.12961173 0.36916396 -0.16005489 -0.18776204 -0.28070182

Transformer_layer.decoder.layers.0.multihead_attn.in_proj_bias f4 [24]
00000000: 4fd1 edbc 0fbd 45bc 042c 2fbb 49f2 5bbc
00000010: 067e e9bc 6cd9 95bd 94d2 703b 318f 073d
00000020: d44b bbb9 96ce 2439 d1e9 03b7 ed1a 67b9
00000030: f951 48b9 6535 6437 aaf3 50b8 b15c a737
00000040: 2052 8b3a c7a2 a1bc 57b8 a73b 3e6c 683b
00000050: 8d10 87ba 7957 00bd cad0 073c 3e79 be3b
-0.02903047 -0.012069001 -0.0026729116 -0.0134244645 -0.028502475 -0.073168606 0.0036746608 0.033095542
-0.00035723916 0.00015717218 -7.862648e-06 -0.00022039907 -0.00019104024 1.3602291e-05 -4.9817994e-05 1.9951114e-05
0.0010629334 -0.019730939 0.0051184106 0.0035464908 -0.0010304615 -0.03133342 0.008289525 0.005812793

Transformer_layer.decoder.layers.0.multihead_attn.out_proj.weight f4 [8, 8]
00000000: bea7 db3e 53e2 183e 9b80 bc3c 21e6 19be
00000010: 5f79 253e 5de9 41bd 6bce ecbe 6392 673e
00000020: 0092 3ebe 4e49 eebe 4404 a1be d037 87be
00000030: 9c3c c1be 40e5 233e 8547 16be d7c9 9c3e
00000040: 5e22 fa3e 6b09 0bbf 122d a53e e181 1d3f
00000050: 26cd 72be 01af bd3e 7a63 20bf 3368 303e
00000060: 1140 803e c4b8 183f 4363 e4be 1b91 adbe
00000070: e9ef b23c e3da 91be f6e1 133e 13ed bdbe
00000080: cedb 10bf 65f9 9ebe 2743 063f 8ffb c83e
00000090: 918f d2be 3309 e43a 9d96 c93e bb25 d4be
000000a0: 5cf1 4abd 324b 53be a22b 91be 3c3d 0e3f
000000b0: 3131 29be 3ae2 b8be 9147 263e 294b 163f
000000c0: 5e2b 8b3e a5aa 67be c83c f03e 68c5 7f3e
000000d0: 609f 09bf 5b80 b33e 0295 c1be 2e77 bc3b
000000e0: 9f8b 033e 5363 333e e823 35bd 6bf8 cfbe
000000f0: 62ac 93be d3b5 c1be d5b0 013f 2d2c 3f3c
0.42901415 0.14930086 0.023010543 -0.15029193 0.1615958 -0.047341693 -0.46251234 0.22614436
-0.18610382 -0.46540302 -0.31448567 -0.2640977 -0.37741554 0.1600542 -0.1467572 0.30622742
0.48854345 -0.54311246 0.32260948 0.61526304 -0.2371107 0.3704758 -0.6265179 0.17227249
0.2504888 0.5965693 -0.4460698 -0.3389977 0.021842914 -0.2848731 0.14441666 -0.37094936
-0.56585395 -0.31049648 0.52446216 0.39254424 -0.41125157 0.0017397761 0.3937272 -0.41435036
-0.049546584 -0.20634153 -0.28353602 0.55562186 -0.16522671 -0.36110097 0.16238238 0.58708435
0.27181524 -0.2262369 0.46921372 0.24977648 -0.5375881 0.35058865 -0.37808996 0.005751512
0.1284623 0.17518358 -0.044223696 -0.40619215 -0.28842455 -0.37834033 0.5066045 0.011668247

Transformer_layer.decoder.layers.0.multihead_attn.out_proj.bias f4 [8]
00000000: c6cc 9a39 d0cf b73c fb9c 8e3b 9fe3 e4bb
00000010: 0d38 be3c 99a6 84bc b50e 443a ed88 8b3c
0.00029525737 0.02243796 0.0043522096 -0.0069851424 0.023220086 -0.016192721 0.0007478998 0.017033065
