RFID_TRANS/process/result/student_weight.pth (torch, 297837 bytes, 40 tensors)

embedding_enc.weight f4 [8, 50]
000000 7a 08 1e bd 12 e2 47 3d f8 51 ec 3d 07 d0 17 3e
       -0.038582303 0.04879958 0.11539072 0.1482545
000010 8d 2e b7 3b a5 3f 53 3d 17 46 a9 3d 90 01 95 bd
       0.005590266 0.051574368 0.08265322 -0.07275689
000020 57 d2 de 3c 6a d9 12 3e db 93 2c 3d e4 d1 d4 3d
       0.027199907 0.1434075 0.042133193 0.10391596
000030 9d 56 88 bd d7 f8 00 3d 3d 90 54 3d 2d a3 23 3d
       -0.06657145 0.031487312 0.05189537 0.03995054
000040 26 19 27 3e ec 96 80 bd ec 3d a5 ba ed 6d dd 3c
       0.16318187 -0.06278786 -0.0012606955 0.027029956
000050 62 b9 70 bd df 96 17 3e 37 a7 dc bc 2f e4 0c bd
       -0.058770545 0.14803647 -0.026935203 -0.0343973
000060 1b 32 cc 3d 47 3d 47 3d 7b 30 b0 3d 78 76 89 3d
       0.09970494 0.048642423 0.08602997 0.06712049
000070 d8 38 36 3e 8d 5e 54 bd 60 e9 28 3e 78 b6 83 3d
       0.17795122 -0.051847983 0.16495275 0.064312875
000080 a9 cb 80 3d cd 26 08 3e 18 52 f4 3d ab 70 cc 3d
       0.06288845 0.13296051 0.11929721 0.09982427
000090 98 b5 d3 bd 50 03 35 3e 36 1d b6 bd 01 e0 0f 3e
       -0.10337371 0.17677045 -0.0889229 0.14050294
0000a0 f1 1d e9 3d 4d 51 cb 3d 4a f2 08 3d b3 c0 0b 3e
       0.11382664 0.09927616 0.03343419 0.13647728
0000b0 9a ae f3 3d e6 e4 a7 3d ee 04 f7 3d fe e4 27 3e
       0.11898537 0.08197956 0.12061487 0.16395947
0000c0 cc 8b a8 bc b9 2e 22 3e 66 7f c3 bd ee d2 00 3d
       -0.020574473 0.15838136 -0.09545784 0.03145116
0000d0 e8 18 95 3d 0c 86 bb bd 04 20 81 bd 70 93 03 be
       0.07280141 -0.09156427 -0.063049346 -0.12849212
0000e0 12 8a d5 3d 28 02 14 be a2 76 26 3d d9 30 ca 3d
       0.104267254 -0.14453948 0.04064048 0.09872598
0000f0 a5 c6 1b be cc 3b 83 3d 81 df 0e 3d c8 a0 21 be
       -0.15212496 0.0640789 0.03488112 -0.1578399
000100 69 c2 7b 3d 34 f2 0a be 96 7c 88 bd 38 9d 06 3d
       0.0614647 -0.13568956 -0.06664388 0.03286478
000110 f7 94 1d bb d0 ae 4c bd 7b 30 eb bd 5c 81 b2 bd
       -0.0024045089 -0.0499714 -0.11483856 -0.087160796
000120 62 9d a4 3d 60 4b b1 bc 7c db 0f 3d 51 67 03 be
       0.08037831 -0.021642387 0.035121426 -0.12832381
000130 11 ee bb 3a 7b 2f 8f 3d 57 08 aa bd 68 5e 1a bb
       0.0014337917 0.06991478 -0.08302372 -0.0023554806
000140 14 98 c5 bd e6 a3 84 3c 08 5e f6 bd 94 43 57 bd
       -0.09648147 0.016191434 -0.12029654 -0.052554682
000150 a5 59 8d bd 31 c2 2b 3d 88 e5 02 3e 66 8b 4d bd
       -0.06901864 0.041933242 0.12782872 -0.05018177
000160 3c 67 20 3d d8 db 03 be 80 b6 a5 3d 94 0f 79 bd
       0.039160952 -0.12876832 0.0809145 -0.060805872
000170 98 98 71 3d ab af 74 bd d7 09 7a bd a5 5c f4 bd
       0.058983415 -0.059737843 -0.06104454 -0.11931733
000180 0b 8e 03 be d8 97 04 3e 61 24 de bd d0 73 c0 3c
       -0.12847154 0.12948549 -0.108467825 0.023492724
000190 5a e5 90 bd 78 c8 a0 3d 6c e6 ff bd e1 78 26 bc
       -0.07074995 0.078507364 -0.12495121 -0.010160656
0001a0 f9 0e c5 bc 04 bf 9f bd c7 98 4a 3d e0 86 29 be
       -0.024054991 -0.07800105 0.049462106 -0.16555357
0001b0 64 97 17 be cd a8 ac bd 97 ad a7 bd 7b 23 d9 3d
       -0.14803845 -0.08430634 -0.081874065 0.106024705
0001c0 3d 20 a0 bd 4a f1 04 be 39 3f 5d bd 1b 0b 4f bd
       -0.07818649 -0.1298267 -0.054015372 -0.0505477
0001d0 42 e8 fa bd 20 93 90 bd 07 e1 4d bd bd 24 a0 3d
       -0.12251331 -0.07059312 -0.05026343 0.07819507
0001e0 cd af 10 be f3 47 df bb 43 a5 f6 bd 81 c1 83 3d
       -0.14129563 -0.006813997 -0.1204324 0.06433392
0001f0 a3 4c 17 3b 3d 78 87 bd 12 a2 a3 bc ae fb 96 bc
       0.002308645 -0.066147305 -0.019974742 -0.018430557
000200 3d 11 21 be 61 ae 2f 3b a8 d3 2d 3d b4 60 31 be
       -0.15729232 0.0026806819 0.04243818 -0.17322046
000210 00 41 23 be e4 e6 12 3d 51 0a 08 bd 86 60 2d be
       -0.15942764 0.035864726 -0.033212963 -0.16931352
000220 45 cd 9a 3d 04 7a aa bc 70 c4 e4 bc 53 87 aa 3d
       0.07558683 -0.020810135 -0.0279257 0.08326592
000230 ab a1 25 3c 6e dd 30 be 2c 41 b3 3d c2 88 ad ba
       0.010109345 -0.17271969 0.08752665 -0.001323961
000240 8d 22 ab bd c6 70 81 3d 61 82 21 be 5d 01 df bb
       -0.083561994 0.06320338 -0.15772392 -0.0068055824
000250 c8 c2 8d bd 21 e9 1d 3d db 52 be bd 50 45 86 3b
       -0.06921917 0.038552407 -0.09293147 0.004097618
000260 1e ff ae 3c 6e 9d a4 3d b9 20 3a 3d ac 74 ae bd
       0.021361884 0.0803784 0.045441363 -0.08518347
000270 df 5f e2 3b 85 cc be 3d 71 66 0c be 7d 63 1b be
       0.0069084014 0.09316353 -0.13710953 -0.1517467
000280 7d 79 bb bd a2 60 60 bc f7 26 2a 3d 8a 5d b7 bd
       -0.091540314 -0.013694914 0.041541066 -0.08953388
000290 dd 1a b6 3d d1 97 d0 bd b7 b5 d7 bd 47 7f 60 3d
       0.088918425 -0.10185207 -0.10532706 0.05480888
0002a0 8a a6 7a 3d 0a 5e c4 3c a4 cf 9e bd aa 57 02 be
       0.06119398 0.023970623 -0.07754448 -0.12728754
0002b0 11 e1 a4 bd 1c 26 15 bc ec e0 fc 3d 04 06 04 be
       -0.080507405 -0.009103324 0.12347588 -0.1289292
0002c0 8f 84 81 3d d6 91 bb bd 6b ae a6 bd 10 97 81 bd
       0.06324112 -0.091586754 -0.08138736 -0.06327641
0002d0 b6 74 8f 3d 18 9e cd bc 40 da 7a bd b2 ab 2b 3d
       0.07004683 -0.025099799 -0.061243296 0.04191179
0002e0 d3 f0 73 3d 68 c2 b3 bc 93 fd ff 3d 70 05 db bc
       0.05955584 -0.021943286 0.12499537 -0.026735991
0002f0 78 ca f7 3b e4 49 f5 3d 24 4d f6 3d 88 47 15 be
       0.007561978 0.11976984 0.12026432 -0.14578068
000300 d1 1c 75 3d ba 2d 31 3d cf 97 cf 3d 44 7c e6 bc
       0.059841935 0.0432565 0.10136377 -0.028135426
000310 d5 b7 19 bd 65 d9 c7 bb fa 47 8d 3d 50 a6 ca 3d
       -0.03752883 -0.0060989135 0.06898494 0.09895003
000320 59 77 c0 3d 23 b9 ad bc 92 21 6a bd e1 a8 95 bd
       0.09397764 -0.021206444 -0.05716092 -0.07307602
000330 27 2e 85 bd c9 9f 8b bd 96 3c f6 3d 55 b4 86 bd
       -0.065029435 -0.06817586 0.120232746 -0.06577364
000340 86 52 e8 3c dc 97 8a 3d 70 81 04 bd 12 41 b9 3d
       0.028359663 0.06767246 -0.032350004 0.09045614
000350 88 e4 f8 3c e9 3a c6 3c 08 9a 97 bd c6 ce 50 3d
       0.03038241 0.024198012 -0.07402426 0.050978445
000360 75 a2 eb bc 4a 63 65 bc ef ff d8 3c 66 29 7c bd
       -0.028763989 -0.014000723 0.026489226 -0.061562918
000370 6b ff 9f bd b7 de 9d 3c 7c 98 fc 3d 9e 53 18 3e
       -0.07812389 0.019271238 0.123337716 0.14875647
000380 74 ab ea 3c 96 b1 9a bd cf 4f 91 bd a1 b8 a7 bd
       0.028646208 -0.07553403 -0.070953004 -0.08189512
000390 d1 4f 82 3c 88 47 be bd e4 97 47 bd b7 51 4a bd
       0.0159072 -0.09290987 -0.04872884 -0.049394336
0003a0 04 2e 39 3e 72 d6 3e 3e 5f 4c 17 3d 4e 78 af bd
       0.1808396 0.18636492 0.036938068 -0.08567868
0003b0 72 ef ef bb 03 56 af bd 82 9d 2e bd a5 21 2c 3d
       -0.0073222453 -0.08561327 -0.04263068 0.042024273
0003c0 e9 b8 a5 3c f9 5e 31 3d b4 5a ea bc d1 73 f2 3d
       0.020229774 0.043303464 -0.028607704 0.118384965
0003d0 9b 83 2b 3d 75 e6 45 bd 97 f5 42 bc 5f 80 95 bc
       0.041873556 -0.048315484 -0.0118993735 -0.018249689
0003e0 ac ec 72 3c 84 f9 a6 bc 9f 1e e8 bc 59 f1 b5 bd
       0.014826935 -0.02038265 -0.028334914 -0.08883924
0003f0 f7 7d ce bd 7b 24 50 3d de f7 c3 3b 88 ad 02 3e
       -0.1008262 0.05081604 0.005980476 0.1276151

embedding_enc.bias f4 [8]
000000 74 04 fc b8 a9 f5 04 3e 06 7f d4 3d ed 82 09 3d
       -0.00012017126 0.12984337 0.1037579 0.033572126
000010 35 3f e7 3d 46 28 01 3d ce 51 cc 3d f2 4f 0c 3e
       0.11291353 0.03153255 0.099765405 0.13702372

embedding_dec.weight f4 [8, 2]
000000 08 55 31 3e 39 bc 10 be 41 fc 88 3e 5b 34 e1 bc
       0.17317593 -0.14134301 0.26754954 -0.027490785
000010 75 ce 72 3f 44 0e a6 bd d2 e8 56 3c ce d8 60 3e
       0.9484628 -0.0810819 0.013117032 0.21957704
000020 cf ca e9 3d b5 04 0a 3e c0 6a 9a bb 8b fe 4a 3d
       0.11415636 0.13478358 -0.0047124326 0.049559157
000030 d2 72 a1 3d e1 cf ac be 0e 2d af be f0 b6 5e 3f
       0.07883228 -0.3375235 -0.34214061 0.8699789

embedding_dec.bias f4 [8]
000000 9d 4e 93 bf bd c9 f1 3e 2b 7b 7d bf 51 52 bb be
       -1.1508366 0.47224227 -0.99016064 -0.3658624
000010 4b c1 b5 be 70 da 29 bf d6 00 9b 3f ad 17 8c be
       -0.35499033 -0.66348934 1.210963 -0.27361813

Transformer_layer.encoder.layers.0.self_attn.in_proj_weight f4 [24, 8]
000000 57 8b dd 3e fb 9e 96 be ec b3 da 3e ce 2a d6 be
       0.4327037 -0.29418167 0.42715394 -0.41829532
000010 ff d8 99 3c 01 91 c5 be 39 34 5e be 5f 95 8e 3c
       0.01878023 -0.38587192 -0.21699609 0.01740521
000020 68 df 1d 3e 25 17 b1 3e d6 c3 83 bd 20 d9 85 be
       0.15417254 0.3458797 -0.06433837 -0.26142216
000030 ec 8d 7c 3e b4 2c 79 be 6e 5b c7 be 12 c9 bb be
       0.24663514 -0.24333459 -0.38936943 -0.36676842
000040 6c 51 d8 bb eb e7 af 3e aa 19 9d be 72 d8 8d be
       -0.006601503 0.34356627 -0.30683643 -0.27704197
000050 aa 10 33 3e 7c d8 c7 bc 1b 08 a4 3e 71 fc d7 3d
       0.17486826 -0.02439522 0.32037434 0.10546196
000060 7c aa 76 be 20 d3 d4 3e 10 20 98 be bf 94 ca 3e
       -0.24088472 0.41567326 -0.29711962 0.3956661
000070 98 7d b8 be 36 5e b5 be e9 0b 86 3e fd 81 4c 3e
       -0.3603332 -0.3542344 0.26180962 0.19971462
000080 9c cf c9 3e f9 9c c0 3e 4f 8c dd be a5 3c 94 3e
       0.39416206 0.3761976 -0.4327111 0.28952518
000090 d0 28 2e be 81 2d 89 be 06 e7 4a 3e a0 a1 9c 3e
       -0.17007756 -0.2679253 0.19814691 0.3059206
0000a0 ea 72 15 3d 15 32 54 be 61 90 8f 3d 6b 0b b8 3e
       0.036486544 -0.2072223 0.0700996 0.3594621
0000b0 e6 87 7c 3e 0e 34 56 be 54 e4 4d be 74 50 11 3e
       0.24661216 -0.20918295 -0.20106632 0.14190847
0000c0 4d e1 a2 3e 31 38 dc be aa 60 c8 3e 36 9f c4 3e
       0.31812516 -0.4301162 0.3913625 0.38402718
0000d0 44 90 63 be 73 f2 72 3e 37 9f ce 3e b0 26 a5 be
       -0.22223002 0.237253 0.40355846 -0.3225608
0000e0 48 ef 85 3e 9f 7b 84 3e ad 1d 35 bd 51 de bd 3e
       0.2615912 0.25875565 -0.044217754 0.37083676
0000f0 bb 2e e8 bd ff fb 57 be 22 60 82 3e 67 69 96 3e
       -0.11337038 -0.21092223 0.2546397 0.2937729
000100 26 bb 4b 3d 8d c8 4f be 6b e1 a3 be 86 1a ad 3e
       0.049739026 -0.20291348 -0.32007918 0.33809298
000110 e4 6c 5e 3e bb 8a 15 3d f6 6c d6 3e 67 27 55 be
       0.21721226 0.036509257 0.41880006 -0.20815812
000120 ef e8 b7 bd 57 d7 94 be fb 18 86 bc 25 b4 bf bc
       -0.089799754 -0.2907054 -0.016369333 -0.02340133
000130 72 97 f5 bd cd c8 b8 3e 9c 08 55 be 33 49 1a 3d
       -0.119917765 0.360907 -0.20804065 0.037667464
000140 f1 ce 33 3e 41 81 fd 3d 98 da 89 3e 54 89 c8 3e
       0.1755941 0.12378169 0.26924586 0.39167273
000150 ec 2c c1 3e ff 8d 81 be 6b e5 ab 3c 08 b4 bd be
       0.37729585 -0.25303647 0.020983418 -0.37051415
000160 fd ef cb be c6 2b c4 bc 57 f8 a9 bd 26 76 8f 3e
       -0.39831534 -0.023946654 -0.0829932 0.28019828
000170 cd e0 a5 3e 92 c1 c0 3e 85 e4 83 bd 6e d8 ca 3e
       0.32398072 0.37647682 -0.06440071 0.39618248
000180 a6 03 69 3e 57 42 d5 3e ab bb db 3c 9a a5 1d 3e
       0.22755298 0.41652176 0.026822885 0.15395203
000190 2b 2e 34 3e 85 17 bf bb b9 20 61 3e a9 9f c3 be
       0.17595737 -0.005831661 0.21985139 -0.3820775
0001a0 c8 c0 c4 3e d4 25 2d be 76 72 0a 3d 6c 50 1d be
       0.3842833 -0.16908962 0.033800565 -0.1536271
0001b0 09 bb c6 be 88 00 2d be 54 30 30 3e 8c c5 35 3e
       -0.38814571 -0.16894734 0.17205936 0.1775114
0001c0 31 5b 7c be 6b ee 65 3d 73 00 83 be c6 9b 36 3e
       -0.24644162 0.056135576 -0.2558628 0.1783286
0001d0 8a d4 c5 be 3e b3 a0 3e 28 b3 82 bd ee f9 d8 be
       -0.38638717 0.3138675 -0.063818276 -0.4237818
0001e0 ba e1 dc 3e 58 b5 85 be a7 6f c1 3e ea a0 35 3e
       0.43140966 -0.26114917 0.37780496 0.17737165
0001f0 03 a9 8c bd b3 00 65 3c 84 a9 97 3e 5e c0 a6 3e
       -0.06868174 0.0139772175 0.29621518 0.3256864
000200 9e d5 30 3e e0 62 84 3e 0d 3a 55 3e 14 2d 76 3e
       0.17268988 0.25856686 0.20822926 0.24040633
000210 cd 18 c9 3e 55 6c 60 3d 56 8c 92 be 12 a4 84 be
       0.39276734 0.054790813 -0.28622693 -0.25906426
000220 2a 6d be be 19 bf 9b 3e b4 fe 2d 3e c7 ff 0c 3c
       -0.3719266 0.30419233 0.16991693 0.008605904
000230 7a cc 8b be 97 7d 02 3d c5 bb 8b be 7b 77 fe 3c
       -0.2730444 0.031858053 -0.27291694 0.031062832
000240 91 a1 bb be 13 58 d2 be a2 fd d5 3d c8 cc a6 3d
       -0.36646703 -0.4108282 0.10448767 0.08144528
000250 48 09 46 be 59 6b c4 be 2a 1f c6 3d 72 57 6a be
       -0.19339478 -0.3836315 0.09673913 -0.2288492
000260 0a e8 9b be bf 04 5f bd 93 19 05 3e b0 c9 da 3e
       -0.3045047 -0.054447886 0.12998037 0.42732
000270 27 f9 8d 3e f9 85 6a 3e 06 af 3a 3e 5d f9 0c 3e
       0.2772915 0.22902669 0.18230829 0.13767
000280 31 bc 72 be be 87 c9 3e 6d 68 5e 3e 32 61 12 3e
       -0.23704602 0.39361376 0.21719523 0.1429489
000290 35 e8 ac be 2e 56 3c bd d8 8f cb 3e 4a 41 8c be
       -0.3377091 -0.045980625 0.39758182 -0.27393562
0002a0 fb f6 ad 3d 43 82 84 3d 68 ff 99 3e 38 ec 8e be
       0.084943734 0.06470158 0.30077672 -0.27914596
0002b0 05 0f d7 3e c6 4c 0d be 69 db 2d 3e 89 28 86 3e
       0.42003646 -0.13798818 0.1697823 0.262028
0002c0 69 85 1b bd 68 ef 79 be 20 4b 62 3e a3 c5 a4 3e
       -0.037969027 -0.24407732 0.2209897 0.32182035
0002d0 15 c4 bb 3e 03 f7 d6 be 4b ee 1c be 8b 5f df be
       0.36673036 -0.4198533 -0.15325277 -0.4362758
0002e0 9a 8e b5 3e 47 c3 b5 3d 04 42 8f bd 53 97 4e 3e
       0.3546036 0.08875137 -0.06995013 0.20174913
0002f0 0d 9c 9b be ba 64 0d 3e 5e 01 99 bd 10 c1 93 be
       -0.30392495 0.13807955 -0.07470964 -0.28858232

Transformer_layer.encoder.layers.0.self_attn.in_proj_bias f4 [24]
000000 be 25 02 35 fc a4 18 b6 d5 70 ea b7 68 41 bb 39
       4.8483696e-07 -2.2745799e-06 -2.7947515e-05 0.0003571615
000010 47 f3 0b 35 6d 74 71 38 01 3d fd 35 e6 7f 1a b8
       5.213555e-07 5.7567308e-05 1.8867723e-06 -3.6835576e-05
000020 87 e5 c0 ae 47 26 94 b0 cf f8 aa 2d fb 9d ca 2f
       -8.7719214e-11 -1.0779296e-09 1.9437256e-11 3.6855838e-10
000030 62 48 e7 2e 95 a3 04 2d 36 19 f0 2f c4 62 90 2f
       1.05175216e-10 7.539654e-12 4.367366e-10 2.6263625e-10
000040 1a 25 0d 39 83 38 c2 39 0f eb cd 39 77 62 16 3a
       0.00013460629 0.00037044668 0.0003927578 0.00057367183
000050 fa 6e 3e b8 3c 08 9e 39 6e f6 09 ba d5 bf 0a b9
       -4.5402885e-05 0.00030142243 -0.0005262856 -0.00013232169

Transformer_layer.encoder.layers.0.self_attn.out_proj.weight f4 [8, 8]
000000 6f 5b 01 3f ac 44 e9 3d dc fa cc be f2 2a 6d be
       0.5053014 0.11390051 -0.4003514 -0.23160914
000010 a9 c3 13 3e eb d1 08 3f 1a e8 c1 be 61 b4 89 3d
       0.14430107 0.5344531 -0.37872392 0.06723858
000020 5f 10 df be 6f a9 b4 3e 8d b0 14 bf 2b 6c 68 3e
       -0.43567178 0.35285518 -0.58081895 0.22697513
000030 b6 73 98 be 23 97 63 3e a8 2e af be 65 61 0d 3f
       -0.2977578 0.22225623 -0.34215283 0.5522674
000040 27 36 cd bd 65 4e 8d 3e c2 0c a1 3e ae 61 8b bd
       -0.10020094 0.27598873 0.31455046 -0.0680574
000050 31 ef cc bd 97 60 8d 3e cd cc 03 bf 40 4b 15 bf
       -0.1000656 0.27612755 -0.51484376 -0.5831795
000060 35 78 e1 be dd 4e 13 bf d5 8e 0a be 63 94 ab bd
       -0.44037023 -0.5754221 -0.13531049 -0.08377912
000070 4a ed 9e 3e 55 04 14 bf 5f d3 0f bf c0 df 04 3f
       0.31040412 -0.5781911 -0.561819 0.51903915
000080 f2 b5 3f 3d af 0e a9 be 0d 0f d0 be fd 6a 93 be
       0.046804376 -0.33019015 -0.40636483 -0.28792563
000090 74 0f b8 bc 2d 9a b9 be 99 a9 98 3e b3 1e cb bd
       -0.022468306 -0.3625044 0.29816893 -0.09917965
0000a0 bc 26 56 be ba a3 06 bf b5 7e 90 3e 20 d9 ba 3e
       -0.20913213 -0.52593577 0.2822167 0.36493778
0000b0 b4 6b d2 be a8 ab bd be 2d 07 12 3e 4d ec 17 3e
       -0.41097796 -0.37045026 0.1426055 0.14836235
0000c0 26 5e 02 bf 21 99 03 3f 31 d3 94 be 7e 65 1f bf
       -0.5092491 0.5140553 -0.29067376 -0.6226424
0000d0 43 52 0e bf c7 4a bd 3e 50 a4 c7 bd a1 e1 b8 be
       -0.5559427 0.36971113 -0.09748137 -0.3610964
0000e0 5f e0 0f 3f 15 bb f9 3e 18 60 ae be 9b 8b 1a 3f
       0.5620174 0.48775545 -0.3405769 0.6036927
0000f0 22 e0 3d bd 0b c4 fb 3e 87 ec 15 bf d8 fe ec 3b
       -0.046356328 0.49173006 -0.5856404 0.007232528

Transformer_layer.encoder.layers.0.self_attn.out_proj.bias f4 [8]
000000 a8 e8 97 b9 24 c9 c7 38 4c 99 1d 3a bf 18 0a b9
       -0.00028974307 9.526525e-05 0.0006011918 -0.00013169924
000010 11 82 e0 b9 10 bd 2f 38 36 1b 99 b9 58 4e d2 39
       -0.00042821516 4.189933e-05 -0.00029202708 0.00040112692

Transformer_layer.encoder.layers.0.linear1.weight f4 [2048, 8]
000000 48 c9 2a bc 40 22 45 ba 3c 23 c5 bc 90 d8 89 3c
       -0.010423966 -0.0007520057 -0.024064653 0.016826898
000010 a8 6c e8 3b ba 95 54 bd ec f9 1e bd 1a 07 13 bd
       0.007093031 -0.051900603 -0.038812563 -0.035895444
000020 e0 21 26 3d 46 f1 4a 3d e0 89 9c bb 60 7e 0c bd
       0.04055965 0.049546503 -0.004777178 -0.034300208
000030 c0 3a b6 3c e0 7b 14 3d 16 a0 1d bd 86 cc 20 bd
       0.022244811 0.03625095 -0.038482748 -0.03925755
000040 81 7d 4a 3d 2c 45 4a 3d 6a f2 a2 3c 27 57 d8 bc
       0.049436096 0.049382374 0.019890983 -0.026408745
000050 11 2a 36 bd 9d 7b 04 bd 3b 6a 84 3c 2b 36 83 3c
       -0.04447371 -0.03234445 0.016163936 0.01601704
000060 79 f9 47 3d 75 7a ca bc 08 74 1d 3d 99 61 a3 3b
       0.0488219 -0.024716595 0.038440734 0.004986
000070 84 9a 95 ba a9 6a 54 3d 90 37 24 bc cc a2 53 3d
       -0.0011413847 0.05185953 -0.010023013 0.051668927
000080 00 bf 24 3d 38 8c 38 3d 88 34 da bb 85 df 57 bd
       0.040221214 0.045055598 -0.0066590942 -0.0527034
000090 92 eb 26 bd 9e a3 2f 3d 30 0e c6 bb 63 df 40 bd
       -0.040752 0.042880647 -0.0060441718 -0.04708804
0000a0 a0 1d 63 ba 84 25 d5 3b c0 0f 60 3a fa 89 34 3d
       -0.0008663777 0.0065047164 0.0008547269 0.044076897
0000b0 76 40 3e 3d 90 0a 4a 3d 1f 9d a6 3c b9 76 55 bd
       0.046448193 0.04932648 0.020338593 -0.052115176
0000c0 19 20 fe 3c 5b df 44 bd a6 f3 51 bd b3 df c9 3c
       0.031021165 -0.04806457 -0.051257752 0.0246428
0000d0 31 ad f8 bc 84 5c 12 3d c9 3b 41 bc 49 37 b1 bc
       -0.030356022 0.03573276 -0.011794039 -0.021632807
0000e0 f2 a6 56 3d 55 b7 3d bd fb d7 18 3c 02 3f 56 3d
       0.052405305 -0.046317417 0.0093288375 0.052306183
0000f0 ed 4d b9 bc 06 76 98 3c f7 03 07 3d 76 59 f1 3c
       -0.022620166 0.018610965 0.032962766 0.029461604
000100 c6 c1 b3 bc e7 93 1b bd f5 d4 1b 3d e9 34 68 bd
       -0.021942984 -0.037982848 0.03804489 -0.056691084
000110 63 91 50 3c 08 dd b7 bc 83 87 3c bd 32 df 53 3c
       0.012729975 -0.022444263 -0.04602767 0.012931632
000120 ea c3 c7 bc f9 eb bd 3c c3 2f 8f 3c 89 00 69 3d
       -0.024385411 0.02318381 0.01747883 0.056885276
000130 f8 a0 11 3d 25 de a8 bb d6 f2 12 3d 67 85 e2 3a
       0.035553902 -0.005153435 0.035876118 0.0017282189
000140 89 16 b3 bb e0 bd bd 3b f8 71 18 b9 39 91 0c bd
       -0.005465333 0.005790457 -0.00014538306 -0.034318183
000150 3c ea 58 bc ef 8c 17 3d f5 1b c6 bb 9c f4 86 3b
       -0.01323944 0.03699964 -0.006045813 0.004118515
000160 bf e2 9f 3b 6c e7 0e 3c dc f5 39 bd 10 7b 05 3d
       0.004879325 0.008722167 -0.045400485 0.032588065
000170 f0 d2 6e 3c ca 64 56 bd 0d fd 29 bd d6 af 75 bc
       0.014576659 -0.052342214 -0.041501094 -0.014995536
000180 60 f9 06 3d 1b 89 08 bd cd 5b b4 bc 9c 01 bf 3c
       0.032952666 -0.03333388 -0.02201643 0.023316197
000190 7c 13 e2 bc be 46 25 3c 0a 63 ef 3c a0 b7 d6 bc
       -0.027597181 0.010087667 0.02922203 -0.026210606
0001a0 c2 49 4b bd dc 64 c5 bb 40 a5 50 3d 3a 80 9f bb
       -0.049630888 -0.0060239863 0.050938845 -0.0048675807
0001b0 c8 dc a6 3c 54 fb d2 bb 58 7d a1 bb 1d e8 42 3d
       0.020368949 -0.006438652 -0.004928272 0.04758464
0001c0 b0 21 a1 3b 29 91 6b bc 79 c2 26 bd 61 2e 34 bd
       0.004917346 -0.014377871 -0.040712807 -0.043989543
0001d0 01 58 1b bd 1c 58 22 bd 6d eb 01 bd 1f 84 7b bb
       -0.037925724 -0.03963481 -0.03171866 -0.003837831
0001e0 0a 87 22 bd 86 85 5e bd cb 3a c5 bc 18 96 37 3d
       -0.039679565 -0.054326557 -0.024075886 0.044820875
0001f0 cc 83 42 3c a2 9b 5a 3d 03 f8 0f bd 00 d5 4f bc
       0.011872243 0.05337108 -0.03514863 -0.0126850605
000200 7f 58 cf ba 98 64 a8 bc 1e ef 5d bd 16 00 05 3d
       -0.001581922 -0.02055578 -0.054183118 0.032470785
000210 cf 4c 13 bd 5a e1 53 bd 08 fb 3b bc 42 56 c1 bc
       -0.035961922 -0.051728584 -0.011473425 -0.023600701
000220 35 1a be 3c 21 3b 9c bc 71 4f 50 bd 21 7c 30 3d
       0.023205856 -0.019071164 -0.05085701 0.04308713
000230 95 a8 f0 3c 2d 7e 02 3d eb ea be 3c f1 27 e9 bc
       0.029377261 0.03185861 0.023305377 -0.028461428
000240 48 fc 8a 3c 5e 04 33 bd 22 e4 aa bc b8 df 9f 3c
       0.016966 -0.043705337 -0.020860735 0.019515857
000250 a8 1b 0d bd cc 21 04 3d ee c1 b8 bc 44 15 ba bc
       -0.034450203 0.032258794 -0.02255341 -0.022715218
000260 a0 75 dc ba 7a 2c a8 bc 20 9b 63 bb 20 a0 b0 3c
       -0.0016819723 -0.02052902 -0.0034729913 0.021560729
000270 a0 09 b4 ba c6 5c 43 bd e4 0e bc 3c d8 34 7e 3c
       -0.0013735779 -0.047695898 0.02295632 0.015515529
000280 61 80 de 3c 81 8f a8 bb 4d b5 a5 3c b3 20 2e 3d
       0.027160825 -0.00514406 0.020228053 0.042511653
000290 20 13 ae 3c 69 3b 3b 3d c5 f5 18 bd 7c 0b 2b bc
       0.021249354 0.045710955 -0.03734376 -0.01043975
0002a0 f0 c1 b2 3b 74 d0 2f 3d 44 57 7d bc 90 8c ee 3c
       0.005455248 0.042923406 -0.0154627 0.02911976
0002b0 88 d7 06 bc 18 44 d8 3c 68 cf a6 3c 90 b5 a5 3c
       -0.008230098 0.026399657 0.02036257 0.020228177
0002c0 87 27 f5 3c e9 e4 24 bd 94 9a 65 bd c4 2f a3 bc
       0.029926075 -0.04025737 -0.05605562 -0.019920237
0002d0 fe 2d a6 bc 67 ef 76 3b 6c 27 1d bd 22 5c 09 bd
       -0.020285603 0.0037679316 -0.038367674 -0.03353513
0002e0 8e be 56 bd 94 7e 15 bd 5a a0 21 bd 8a fc 2e 3d
       -0.05242782 -0.036497667 -0.039459564 0.04272131
0002f0 af b5 08 3c 34 65 1f bd b0 09 c5 3c c2 ca 95 bc
       0.008344098 -0.038914874 0.02405247 -0.018285159
000300 d8 97 6b 3c a9 43 84 3c 41 49 59 bc f0 cc fd 3c
       0.014379464 0.016145544 -0.013262094 0.03098151
000310 a3 81 8b 3c b4 91 c2 bc 55 ae 16 bd 69 91 3a 3c
       0.017029589 -0.023751117 -0.03678735 0.011387208
000320 fc bc 32 b9 f5 c3 be bc 37 14 33 3d c3 bb 9e bb
       -0.00017045805 -0.023286799 0.04372045 -0.0048441603
000330 81 8b 02 3d f3 a6 30 bd 55 a8 98 3c c5 e6 06 bd
       0.031871323 -0.043127965 0.018634954 -0.032934923
000340 d0 bd db bb a8 b5 7b 3c 18 d5 2c bd 90 99 36 3d
       -0.006705977 0.015363134 -0.04219541 0.044580042
000350 60 fb 2f 3b ce 4e 4d 3d 78 37 1c bc 30 c8 d6 bc
       0.0026852712 0.050123982 -0.009534709 -0.026218504
000360 2e aa 37 3d 30 9f bd bc 77 30 92 bc b7 70 d1 3b
       0.04484003 -0.023147196 -0.017845375 0.0063916105
000370 d1 6f 07 3d 8c e7 ed 3c 2f 22 44 bd ac 30 16 3d
       0.03306562 0.029041074 -0.047884163 0.03666751
000380 50 d8 88 3b 8c 87 ed 3c 00 30 6c b8 50 ae 95 3b
       0.004176177 0.028995298 -5.6311488e-05 0.004567899
000390 a2 14 54 3d e2 9b b3 bc a5 54 42 bd 71 fc 4f bd
       0.05177749 -0.021924917 -0.047444005 -0.050777856
0003a0 e4 cb 2a 3d fc 71 f1 3c 4a 3f b7 bc 28 3a d9 bb
       0.04169835 0.029473297 -0.022369046 -0.006629247
0003b0 68 6b b0 bc 38 f1 b6 bb a4 64 30 bd 40 e7 7d bb
       -0.02153559 -0.0055829547 -0.04306473 -0.0038742572
0003c0 d0 fe 3f 3d d8 62 0e 3c c4 b3 98 3c fe cf 2f 3d
       0.046873868 0.008690558 0.018640406 0.042922966
0003d0 54 67 fd 3c 08 80 df bb ee fd 5b 3d da 43 07 3d
       0.03093306 -0.0068206824 0.053708963 0.033023693
0003e0 a5 b6 91 bc 06 69 1b bd e3 a4 66 bc 0e f1 61 3c
       -0.017787287 -0.037941955 -0.014077398 0.013790382
0003f0 25 db 54 bd 0e c5 0f 3d 8d 97 df bc 8f 5c 4f 3c
       -0.051966805 0.035100035 -0.027293945 0.012656345

Transformer_layer.encoder.layers.0.linear1.bias f4 [2048]
000000 8c ed 5a be 14 54 7b be cf e3 05 3e 64 56 66 3d
       -0.2137968 -0.24543792 0.13075183 0.056234732
000010 62 91 94 be d0 ec 24 3e 01 e3 b0 3d d1 bf 47 3e
       -0.29017168 0.16105962 0.086370476 0.19506766
000020 ae 21 b6 3e db 60 99 3e 4e 4c 35 3e 9b a9 cd bd
       0.3557257 0.29956707 0.17704889 -0.10042115
000030 65 62 55 3e ba 31 f1 3c e8 d7 9b 3d cf e4 a5 3e
       0.20838316 0.029442657 0.0760954 0.3240113
000040 16 dd 5f 3e 42 30 57 3d 33 8f 5d be f3 59 2e be
       0.21861681 0.052536257 -0.21636657 -0.170265
000050 ad 4e ce 3d 05 4c 01 be 5d d0 3c 3e 4f 87 46 bd
       0.100736 -0.12626655 0.1843886 -0.048468884
000060 cf 6a 9d 3e 53 e5 b0 bd 0e 92 99 be 7d 28 a2 3e
       0.3074555 -0.0863749 -0.29994243 0.31671515
000070 34 34 85 be 7c a3 09 be 73 33 83 be bb 78 76 3d
       -0.2601639 -0.1344127 -0.2562519 0.06017373
000080 ed 5b 0f be 8d 0c 9f be 72 8f 0c 3e 4a 56 9b be
       -0.1399991 -0.31064263 0.13726595 -0.3033927
000090 26 52 a8 3e 72 e1 13 3d d7 e8 ce bd c5 10 4e 3e
       0.32875174 0.036103673 -0.101030044 0.20123585
0000a0 04 e1 ab 3e e6 d4 aa 3e 14 b0 68 be 26 85 9a bb
       0.3357011 0.33365554 -0.22723418 -0.0047155796
0000b0 0c 6a 17 be 55 b0 53 be b0 52 87 3e b6 2b 95 be
       -0.14786547 -0.20672734 0.26430273 -0.2913491
0000c0 48 b9 4f 3e e9 0e b2 3d b1 45 29 b9 df 1c f4 bd
       0.20285523 0.0869425 -0.00016143058 -0.11919569
0000d0 72 3b 73 be 16 b2 97 3e a7 f6 6c be 0b 71 64 be
       -0.23753145 0.29628056 -0.23140965 -0.22308747
0000e0 7d eb 76 be d5 50 82 3e 6c 9c 91 be 69 51 13 3e
       -0.24113269 0.25452295 -0.28439653 0.14386524
0000f0 c9 eb 39 3e 1c ac 8b be 55 7d b4 3e 77 d5 90 be
       0.18156351 -0.27279747 0.3525187 -0.2828786
000100 7a 02 93 be 53 7b bb bd 80 97 40 3e 53 da 8a be
       -0.28712827 -0.091543816 0.18807793 -0.27119693
000110 aa d6 a0 bd 93 fb 15 be b8 19 9f be 5d 18 80 3d
       -0.07853444 -0.14646749 -0.3107431 0.06254647
000120 a1 2b 1a 3e 52 a6 1c 3e a8 9a 40 3e de 9a 7c be
       0.15055706 0.15297821 0.18808997 -0.24668452
000130 88 25 6f 3e a3 b3 10 3d 28 34 0f be 87 94 22 3d
       0.23354161 0.035327565 -0.1398474 0.039692428
000140 6e b8 5d 3e 04 b0 93 be 87 e8 d7 3d 6a 24 13 be
       0.21652386 -0.28845227 0.10542398 -0.1436936
000150 c9 94 81 3e 35 f6 a2 bd b8 1c 94 3e 29 cb 2d 3d
       0.25308827 -0.079571165 0.2892816 0.042430077
000160 b3 73 3f 3e 7b 7e a9 bd 54 81 52 3c 0e 1f 06 3e
       0.1869648 -0.08276077 0.012848217 0.13097784
000170 9a 20 8f 3c d3 5f 62 3d 62 d8 a7 3e 0b 77 73 be
       0.0174716 0.055267166 0.32782274 -0.2377588
000180 97 f1 3a ba 28 81 9d 3d b4 13 9f 3e 9c ca 1a be
       -0.00071313366 0.0769065 0.3106972 -0.15116352
000190 fa ed 9d bd 1a ab ab 3e ff ab 7f 3d a7 47 8b bc
       -0.07711406 0.33528978 0.062419888 -0.01700194
0001a0 dc de 26 be 6c 73 b0 3e 9a 0f ca bd 5e f1 16 3e
       -0.16295952 0.3446306 -0.09866257 0.14740512
0001b0 dc 66 47 bd 70 f7 9d be ad 49 c4 ba a8 f3 89 be
       -0.04868208 -0.30852842 -0.001497557 -0.26943707
0001c0 8a 1b b5 3e cb 07 21 be 9a 13 7a be 8a 7a 1d 3e
       0.35372573 -0.15725629 -0.2442154 0.15378776
0001d0 ca 91 a8 3e 75 fc 9d 3e ee e6 87 3d d5 6f 0c 3e
       0.32923728 0.30856672 0.06635843 0.13714536
0001e0 31 88 99 be 64 02 90 3e b1 f4 8c be 1e 30 87 3e
       -0.29986718 0.28126824 -0.27530435 0.26403898
0001f0 9d 6a 67 3e 61 51 5c 3e 62 13 0a be d2 b3 1e 3e
       0.22599263 0.21515419 -0.13483956 0.15498284
000200 a2 10 0c be 5a c3 a8 be b0 cd 10 be da 7d 65 3e
       -0.1367822 -0.3296154 -0.14140964 0.2241129
000210 0d 36 a4 be 74 c8 15 3d f5 c6 a2 3e 3b 24 11 be
       -0.32072487 0.03656812 0.31792417 -0.14173977
000220 11 3c 51 be 38 3e ac bd b1 d7 ff 3d 7a ce a8 be
       -0.2043307 -0.08410305 0.12492312 -0.3297003
000230 7c a4 92 3e b8 4c 8a 3e 0e ba 81 3e 80 0e 9b be
       0.28641117 0.27011657 0.2533726 -0.302845
000240 e5 85 53 be f2 e2 2b 3e 99 76 d7 3c d9 d5 e6 bd
       -0.20656545 0.16785792 0.026301669 -0.11271257
000250 43 61 a3 be 42 bb c3 b9 44 ae 8a 3c f0 69 65 3e
       -0.31910142 -0.00037332816 0.0169288 0.22403693
000260 f9 4f 28 be b7 7a a5 3d c4 6b 8a be fa 19 e9 bd
       -0.16436757 0.080800466 -0.27035344 -0.11381908
000270 07 73 c3 3c 82 8c d8 bd c0 e3 53 be ee ea 03 be
       0.02385856 -0.10573675 -0.20692348 -0.12882587
000280 56 ce 9b 3e 5a c3 9a be 9f 2c a7 3e b0 3a 41 3e
       0.3043086 -0.30227166 0.3265123 0.18870044
000290 72 f1 dc bd dd d8 0b 3e 2f 8b 8d 3e 76 13 1b 3e
       -0.107882395 0.13656946 0.2764525 0.15144143
0002a0 72 3e 92 bd 1e 50 69 3e 6a df aa be 2c 53 95 3e
       -0.07140817 0.22784469 -0.33373576 0.29165018
0002b0 f8 e3 9f be 81 64 60 be 63 46 83 3d 5c 95 c0 3d
       -0.31228614 -0.21913339 0.064099096 0.09403488
0002c0 b3 e1 3b 3e 69 4a 5a 3e 4f 41 38 bd 27 d7 95 3d
       0.18347816 0.21317448 -0.044984158 0.07316428
0002d0 0e 35 96 3e 52 ac a7 bd af 48 ab 3e 09 60 3b 3e
       0.29337353 -0.08187164 0.3345389 0.18298353
0002e0 25 65 38 be 84 0e 8b 3e a4 dd 57 be b0 1c 4b be
       -0.18007334 0.27159512 -0.21080643 -0.19835162
0002f0 ed c4 47 bd cb 9f 97 be 86 ca e3 bd 36 05 a1 3e
       -0.048771787 -0.296141 -0.11122613 0.31449288
000300 19 38 e2 bd a5 04 9d be e7 60 86 3e 4d 5b a5 be
       -0.11045856 -0.30667606 0.26245806 -0.3229622
000310 e0 90 82 be fc 3f de bc bc 35 30 be 2a 7d 21 be
       -0.25501156 -0.02713012 -0.17207998 -0.15770403
000320 0f 1e a7 3c 6d 24 2d be 43 20 0d be a5 15 a5 3e
       0.020400075 -0.16908427 -0.13781838 0.32243076
000330 92 6f d6 bd 54 be c4 bd 75 09 30 3e a2 f5 99 3e
       -0.10470499 -0.09606615 0.17191108 0.30070215
000340 28 f4 f1 3c cb dc 8d 3d 66 08 a5 bc a9 13 12 3e
       0.029535368 0.069268785 -0.020145606 0.14265312
000350 e9 7b 67 be 3d c5 1e bd df eb 82 3e 24 9a 96 be
       -0.22605862 -0.03876232 0.2557058 -0.29414475
000360 71 81 a1 ba 7e 6d 04 3d d1 fd 5e 3e 4a 9f fb 3d
       -0.0012321902 0.032330982 0.21776511 0.12286241
000370 47 22 1b be c4 d1 8b be a9 da e5 bd 08 3a 38 be
       -0.15149795 -0.27308476 -0.11223347 -0.17990887
000380 48 9c c7 3d 22 a0 76 bd 5a da 7a bc a3 0e cb bc
       0.09746605 -0.06021131 -0.015310848 -0.024787253
000390 52 ec 8d be 44 f1 4e 3c 28 05 9a be e7 ed 05 be
       -0.2771936 0.012630764 -0.3008206 -0.13079034
0003a0 c4 41 7c be 57 54 4e bd ec 4a 9d bc 97 41 68 3e
       -0.24634463 -0.0503734 -0.019200765 0.2268127
0003b0 d4 91 a3 bd f1 a2 5d be 19 bd 6d 3c fc bc 6c 3e
       -0.07986799 -0.21644188 0.014510416 0.23118967
0003c0 2b f5 ab be 95 b9 3a 3d f9 09 24 3e 35 f8 a2 bc
       -0.33585486 0.04558714 0.1601943 -0.019893745
0003d0 10 b8 90 3e ec 65 4a be a2 be 80 be 84 3c c2 bd
       0.2826543 -0.19765443 -0.2514544 -0.09484199
0003e0 dc 61 61 3e 31 01 5b 3e 9f df de bd 62 44 cc 3d
       0.22009987 0.21387173 -0.10882496 0.099739805
0003f0 3d 73 9a 3e 13 d3 41 3e 3b 98 0d be a4 52 7f be
       0.30166045 0.18928175 -0.13827603 -0.24933869

Transformer_layer.encoder.layers.0.linear2.weight f4 [8, 2048]
000000 50 81 35 bd de 46 4b 3d df ca 46 3c d7 b6 71 3b
       -0.044312775 0.04962813 0.012133329 0.0036882663
000010 30 85 4c bc 3e 7c 86 3c 85 63 28 bc a6 df e4 bc
       -0.012482926 0.016416665 -0.010277634 -0.027938675
000020 d8 e3 36 bd b8 18 0c bd 73 85 a5 3c 3c 82 07 bd
       -0.044650882 -0.03420326 0.020205235 -0.033083186
000030 19 ec ca bc 8b 40 c7 bc 48 a2 dc 3c 32 28 4f 3c
       -0.024770783 -0.024322769 0.02693285 0.012643861
000040 65 27 4e 3d 9f 48 0e bd f2 93 50 3d 0e cc 46 3d
       0.05033054 -0.034737226 0.05092234 0.048534445
000050 c1 25 d6 3c da e3 4e 3d d6 a8 14 3d 0c fc a7 bc
       0.02614105 0.050510265 0.036293827 -0.020505928
000060 5f 40 c3 3c d2 a3 19 3d d8 17 3e bd a5 fa 75 3b
       0.023834405 0.037509747 -0.046409458 0.003753343
000070 62 26 3e bd 74 b9 d5 3c 44 ea f6 3c c7 18 0e 3d
       -0.046423323 0.026089408 0.030141003 0.0346916
000080 a2 2e 07 3d e6 5e 4e bd 27 70 3f bd 44 80 3e 3d
       0.033003457 -0.05038347 -0.046737816 0.046509042
000090 d9 15 39 bd 01 e8 b5 3c 8e 5c 2a 3d 8b 55 b6 3c
       -0.04518685 0.022205355 0.041592173 0.022257587
0000a0 3e 03 3e 3d 56 ee 18 bd 68 4f 49 3c e8 63 6a 3b
       0.04638981 -0.03733667 0.012286998 0.0035765115
0000b0 64 ad 4a bc 74 b5 a1 3c 99 7f 2d bd 50 b0 88 3c
       -0.012370441 0.019739844 -0.042358015 0.016685635
0000c0 61 a7 26 3d 43 d0 01 3d 2d e3 4e 3d ac b1 01 bd
       0.04068697 0.031692754 0.05050962 -0.03166358
0000d0 08 5d bd bb f6 5e 22 bd 5f 9d 07 bc 10 45 7d 3c
       -0.0057789125 -0.039641343 -0.008277266 0.01545836
0000e0 98 cf 4a bc ce 2c ae ba bc 39 22 bc 79 95 40 bd
       -0.012378596 -0.0013288499 -0.00990146 -0.04701755
0000f0 fe 43 f9 3a a0 84 98 3c 93 15 10 3d 31 06 00 bd
       0.0019017456 0.018617928 0.035176825 -0.031255905
000100 62 8e 1a 3d 1f 1d 05 3d 2d f1 57 3c 6c 2f c1 3c
       0.037733443 0.032498475 0.013180059 0.023582183
000110 ca ca d7 bb 2f 54 f4 bc 0a 8c 16 bd 65 67 df bc
       -0.0065854536 -0.029825298 -0.036754645 -0.027270982
000120 e0 c3 33 3d b1 a1 4b bd db 01 bf bc 0a c7 f8 bc
       0.043887973 -0.049714748 -0.023316314 -0.030368347
000130 2b 43 10 3a cb fe e5 3b 64 10 6a bc 60 d1 22 bd
       0.0005503173 0.007018899 -0.014286134 -0.039750457
000140 c2 cd 32 bd 86 d0 e3 bc b2 e4 dc 3c 72 8d a9 3c
       -0.043653257 -0.027809393 0.02696452 0.02069733
000150 c6 d2 a6 3b 5e a6 9a bc 6f 42 3a bd 67 79 1d bb
       0.005091044 -0.018878158 -0.045473512 -0.002402866
000160 20 28 a8 bc 4d c5 41 bd d8 c1 da bc 49 27 8e bc
       -0.020526946 -0.0473073 -0.02670376 -0.017352717
000170 07 00 97 bb a0 54 85 bc 23 a0 31 3d e0 ae b8 3c
       -0.0046081576 -0.016275704 0.04336561 0.022544324
000180 5e 66 26 3d 04 4e 18 bc 6d fa 81 bc d9 51 63 3c
       0.04062497 -0.009295944 -0.015866483 0.0138744945
000190 26 69 c7 bb c2 19 71 bc 76 d7 81 3b 24 43 33 3d
       -0.0060855327 -0.014715614 0.0039624525 0.043765202
0001a0 c0 2a 4a bc 6d 32 b2 bc 23 83 e7 bc f9 83 1a bc
       -0.012339294 -0.02175256 -0.028260773 -0.009430879
0001b0 97 0b 8b bc 3e f0 51 3d e5 7c 49 3d b0 62 42 3c
       -0.0169733 0.051254503 0.049191374 0.011864349
0001c0 4e 4c 42 bd 2d b0 1f bd 60 53 41 bb bb ab 82 bc
       -0.04743605 -0.038986374 -0.0029499158 -0.015951028
0001d0 d1 6c 24 bd 19 ae 03 3d 98 53 35 3c cd 45 43 bd
       -0.040142838 0.032148454 0.011067294 -0.04767399
0001e0 c6 41 56 3d 80 bb 72 3c fe f7 4f 3d 1e 0a 6f bb
       0.05230882 0.014815211 0.050773613 -0.0036474536
0001f0 da 39 34 3a ca 2f 33 3d cc 59 0e bd 51 c6 55 3d
       0.00068750756 0.043746747 -0.034753606 0.052191082
000200 33 79 04 bd 31 ea eb bc c2 d8 03 bd ad 20 a1 3c
       -0.032342147 -0.028798195 -0.03218914 0.019668901
000210 b8 f7 76 3c b5 2c 8c 3c a7 90 e0 bc af 1a 69 3a
       0.015073709 0.017111162 -0.027412726 0.0008892221
000220 3c a5 fb 3c e1 8a 80 3c f9 ce c3 bb ec ac 06 bd
       0.030718438 0.015691223 -0.005975601 -0.032879755
000230 c5 e9 45 bd aa 1b 6f bc e6 94 37 bd 40 12 fd 3c
       -0.048318643 -0.014593998 -0.044819735 0.030892491
000240 a8 f0 b8 3c c8 4a 01 3c c2 79 24 bd 0f 22 a1 bc
       0.022575691 0.007891364 -0.04015518 -0.01966956
000250 a9 70 53 bd 37 22 b9 3c 37 84 5a bd 1a ae ec 3c
       -0.051621113 0.022599323 -0.053348746 0.028891612
000260 1e 67 05 bd 6e cd b9 3c 68 7b 2b bd 30 ba c0 3b
       -0.032569043 0.022680964 -0.041865736 0.0058815703
000270 fb d1 3b bd 2b a4 43 bd cc 54 e7 3c 15 d1 ca bc
       -0.04585455 -0.047763985 0.028238676 -0.024757901
000280 5f 86 f1 bb 7c 10 94 bc 59 8d 22 bc 7e 5f a1 3c
       -0.0073707546 -0.018074267 -0.009921395 0.019698855
000290 78 03 69 3c c2 a7 eb 3c 4f 1a 8a 3c e9 37 14 3d
       0.014222018 0.028766517 0.016858248 0.036186133
0002a0 2a cb d2 bc 89 f4 3f 3d 80 8a 14 3b 82 6d 5e bd
       -0.025731642 0.046864066 0.002266556 -0.054303654
0002b0 28 ab ae 3c 22 f9 43 3d d8 96 8c 3a bb 09 01 3d
       0.021321848 0.047845013 0.0010726107 0.03150342
0002c0 31 b6 8e bc 92 2e 83 b9 60 af 1e 3a e6 b4 d8 bc
       -0.01742086 -0.00025020965 0.00060533546 -0.026453447
0002d0 71 a1 97 3c 93 cc 03 bd f8 67 37 3d 02 c0 7c 3c
       0.018509598 -0.03217752 0.044776887 0.015426638
0002e0 f0 b0 8c 3c 6c 85 33 bd 58 b2 32 bc 14 5b 38 3d
       0.017174214 -0.043828413 -0.010906778 0.045008734
0002f0 4e 96 ec bb f0 7b 36 3c 87 6a 0d 3c 15 35 40 3d
       -0.007220066 0.011137947 0.008631355 0.046925623
000300 bd 3d 2a bd 7a d1 0a 3d 7e 0d 0d bc 52 1d e5 bc
       -0.041562784 0.03389118 -0.008609174 -0.027968083
000310 68 8f fe 3c b9 b0 55 3c fe 66 1a bd 6c 53 e6 3c
       0.03107424 0.013042622 -0.037695877 0.02811595
000320 f8 4b 3c bc d4 09 e9 3c cc ad 13 3c 25 53 dc 3c
       -0.011492722 0.02844707 0.009013604 0.026895115
000330 64 52 3a 3d b9 56 0d bd 8b 2c 14 bc ac 2b 0d 3c
       0.04548873 -0.034506533 -0.009043823 0.008616369
000340 b1 52 8e 3c 33 e9 c4 bc f0 ef 20 bb fb 16 20 bd
       0.017373415 -0.02403698 -0.0024557076 -0.039084416
000350 b4 42 58 3d 4c 0a 28 3b cb e8 49 bd 88 73 8c 3c
       0.052797988 0.0025640903 -0.049294274 0.017144933
000360 dc 1c 81 3c 24 cc f2 3c 23 34 60 bd bb 1c bb 3c
       0.015760832 0.029638357 -0.05473722 0.022840848
000370 12 25 48 bd 51 56 4e bd d0 07 69 3c 36 05 33 bd
       -0.048863478 -0.050375286 0.014223054 -0.04370614
000380 2f 20 50 bd ee f8 1b bd ae 38 70 3c 64 a3 ae 3c
       -0.050811943 -0.038079195 0.014661951 0.021318145
000390 e0 fd f9 bb 11 da 0e 3c b8 4c 13 3c b8 9b e5 bb
       -0.007629141 0.008718983 0.008990459 -0.0070070885
0003a0 8c ce 9e bc 9c 47 08 bd be bc 1d bd 4c 02 26 3d
       -0.019385599 -0.033271417 -0.038510077 0.040529534
0003b0 f0 10 0a 3d 8c d0 83 3c 36 84 a7 3c 54 9a aa bc
       0.03370756 0.016090654 0.020448785 -0.020825543
0003c0 4a 3b 84 bc 16 e1 2c 3c 6e 48 2f 3c b5 de b4 bc
       -0.016141552 0.010551712 0.010698421 -0.022078851
0003d0 72 3c 49 bc 60 60 7c 3c 9c 96 0e bd 7c 53 4c 3d
       -0.012282478 0.015403837 -0.0348116 0.049884304
0003e0 68 e3 90 3c 53 d6 13 bd f2 bf 1b 3d 6a b0 6c bb
       0.01768656 -0.036093067 0.03802485 -0.0036115893
0003f0 01 5a af bb 8c 52 4e 3b 50 a7 1f 3d 1f 2a dc bc
       -0.0053513055 0.0031482307 0.03897792 -0.026875554

Transformer_layer.encoder.layers.0.linear2.bias f4 [8]
000000 1b 2e 36 bc 4a 3e d4 3b 69 f1 3c 3d 5b 17 a5 3c
       -0.011119391 0.006477152 0.046128664 0.020152738
000010 1e 73 d0 bc 3e d0 88 bc b0 de 29 bd 67 32 13 3d
       -0.025445517 -0.01670086 -0.041472137 0.03593674

Transformer_layer.encoder.layers.0.norm1.weight f4 [8]
000000 39 db 81 3f 7b 94 80 3f 27 96 84 3f 43 50 77 3f
       1.0145026 1.0045313 1.0358323 0.96606845
000010 4c 24 79 3f 8d 63 7e 3f 0c c4 7c 3f a6 e4 81 3f
       0.9732101 0.9937065 0.98736644 1.0147903

Transformer_layer.encoder.layers.0.norm1.bias f4 [8]
000000 62 9a ab bc e3 73 1a 3c 57 23 2c 3d 11 cc ce ba
       -0.020947639 0.009427044 0.04202589 -0.0015777369
000010 3e 2d 1e bd a3 7e 95 39 c1 de df bc 1c c1 f8 3c
       -0.038617365 0.00028513846 -0.027327897 0.03036552

Transformer_layer.encoder.layers.0.norm2.weight f4 [8]
000000 a6 c6 7f 3f 64 0f 81 3f 72 64 88 3f 6a 1e 68 3f
       0.9991249 1.0082822 1.0655653 0.9067141
000010 60 44 83 3f a4 68 7c 3f 04 fe 7c 3f 50 bc 82 3f
       1.0255241 0.9859717 0.988251 1.0213718

Transformer_layer.encoder.layers.0.norm2.bias f4 [8]
000000 f9 76 6c bc ec 4c 92 3c a7 ad 76 3d b3 97 4a 3c
       -0.014432662 0.017858945 0.0602242 0.0123652695
000010 2b 05 83 bd 54 56 3d bc 25 dd 17 bd b9 e0 15 3d
       -0.0639747 -0.011556227 -0.037076134 0.036591265

Transformer_layer.encoder.norm.weight f4 [8]
000000 e1 ec 70 3f 34 a4 7c 3f a7 f2 59 3f 2b 79 69 3f
       0.9411145 0.98688054 0.85135883 0.9120051
000010 ed d1 7e 3f 92 02 7a 3f 2c 5c 79 3f bf 2c 5d 3f
       0.9953907 0.9766017 0.9740627 0.863964

Transformer_layer.encoder.norm.bias f4 [8]
000000 69 bb 40 3d 21 b5 8d bc 22 fd 67 bd ca 2e 99 3c
       0.04705373 -0.017298283 -0.05663789 0.018699069
000010 da 65 a6 3c 9a b5 1e bc 9a 59 4b bb 95 4c 81 bd
       0.020312238 -0.009686852 -0.0031028748 -0.06313435

Transformer_layer.decoder.layers.0.self_attn.in_proj_weight f4 [24, 8]
000000 ea c1 f0 bc df 89 9b be 60 f5 c7 3d 9c cb 5e be
       -0.02938934 -0.30378625 0.097635984 -0.21757358
000010 71 63 f7 3d 1e 8d fd 3d 5b 7e 8f 3e f1 d6 33 be
       0.12079514 0.123804316 0.2802609 -0.17562462
000020 0d 34 e2 3d 71 a9 65 be ab 56 98 3e dd 78 81 3e
       0.11045084 -0.22427918 0.29753622 0.25287524
000030 56 a3 0a 3e a0 d7 e5 3e e7 6e bc be d9 f5 b1 3d
       0.1353887 0.4489107 -0.36803362 0.0868947
000040 e4 37 5c bd 88 40 5e be e5 d5 c5 3e e2 fc 82 3b
       -0.05376424 -0.21704304 0.3863975 0.003997431
000050 1c 07 3c be 24 84 9e be 82 00 62 be 6e 64 98 3d
       -0.18362087 -0.3096019 -0.22070506 0.074410304
000060 5f 77 14 3d 5a 08 cf be fa e6 86 be 78 f1 c8 be
       0.036246654 -0.4043606 -0.26348096 -0.39246726
000070 20 3e 7b 3e 0e 93 8d be 3e b9 d9 bd 11 f4 0d 3e
       0.24535418 -0.27651256 -0.10631035 0.13862635
000080 7c cc 82 3e 99 10 58 be b0 d1 7c 3d 8d 8c cc 3e
       0.25546634 -0.21100082 0.06172341 0.39950982
000090 04 c4 c6 3e c5 42 83 be 2a d3 10 be 1f 61 87 be
       0.38821423 -0.2563688 -0.14143053 -0.26441285
0000a0 32 e9 e2 3e da 87 11 bd ec 77 88 be a7 39 89 be
       0.4431854 -0.03552995 -0.26653993 -0.26801798
0000b0 23 5c 86 3e 00 f8 57 3e c1 2d b9 be cc 3f 10 bd
       0.2624217 0.21090698 -0.3616772 -0.03521709
0000c0 64 5e a9 3d 95 96 f7 bd 8a 85 8f be 3a aa 02 be
       0.08269957 -0.12089268 -0.2803157 -0.12760249
0000d0 d8 8c bd be 7c b4 ae 3e 69 7f fe 3d 42 8d ea 3b
       -0.37021518 0.34122074 0.12426645 0.0071579525
0000e0 6e f2 56 3e ce 5c 7a bd 17 c5 04 3c ef 47 8c be
       0.20990917 -0.06112366 0.0081036305 -0.2739863
0000f0 90 39 80 3e 53 cd a8 be ab 80 63 3e 8c e9 7c 3e
       0.25043917 -0.3296915 0.22217052 0.24698466
000100 80 91 05 3e e8 37 a5 be 7c 5c 5e 3e 8a 2e 75 3e
       0.13043785 -0.32269216 0.21714967 0.23943534
000110 e4 28 72 3e dc 98 82 be ad a0 cf 3e 96 ee 17 be
       0.23648411 -0.25507247 0.40552273 -0.14837107
000120 bb 17 df be 88 c3 bb be 49 6e 1c bf 3d 93 02 3d
       -0.43572792 -0.36672616 -0.6110578 0.0318787
000130 51 ab d1 be df 3e 3a 3d 80 28 c2 3e 3f d6 aa 3d
       -0.40951017 0.045470115 0.37921524 0.083416454
000140 0f bc ac 3c af a4 49 3d 33 7d f4 be 10 44 c9 be
       0.021085767 0.04922932 -0.4775177 -0.3930974
000150 6c 4a 86 3e f8 d3 83 be dd 8d a4 3d be de e2 3b
       0.26228654 -0.25747657 0.08034871 0.0069235256
000160 9d bc 34 be 0b d7 ca be 96 a4 0e be 00 9b c0 3d
       -0.17650075 -0.3961719 -0.13929972 0.09404564
000170 4c ef 95 3e f7 d8 9f be d7 56 63 3e 4d 16 7f be
       0.29284132 -0.3122022 0.22201096 -0.24910851
000180 ba cd 02 3e 2a ba a3 3e 5b 96 9d be 6e e9 3f be
       0.12773791 0.3197797 -0.30778775 -0.1874139
000190 2d 04 21 3e 0a f2 96 3d 48 29 94 3e 11 c3 31 be
       0.15724249 0.07370384 0.28937745 -0.17359568
0001a0 32 5c ae 3e 9a d6 a3 be 01 83 4d be e0 c4 b3 be
       0.34054714 -0.31999665 -0.20069505 -0.3511114
0001b0 63 cc e0 3e 98 fe c0 be 2f 21 08 3b c0 c7 ba be
       0.43905935 -0.3769424 0.0020771732 -0.36480522
0001c0 53 84 a0 be 64 f3 8b 3e 51 01 c2 be 65 8b 95 be
       -0.31350955 0.2733413 -0.3789163 -0.29207912
0001d0 90 fd ae 3e 5d 11 82 be 4b 2d 97 3e 9a ad 32 3e
       0.34177828 -0.25403872 0.29526743 0.17449036
0001e0 17 21 6e 3c b4 75 08 3e 69 51 cc 3e d4 82 bf be
       0.014534256 0.1332615 0.3990586 -0.374045
0001f0 42 3c ca be dc b8 2a be 68 4e f7 3d f2 02 93 be
       -0.39499098 -0.16672081 0.12075502 -0.28713185
000200 47 7d b0 3e c1 49 b3 be 24 14 47 3e 04 5c 23 3e
       0.3447058 -0.35017207 0.19441277 0.1595307
000210 73 0c b2 3d 3e 55 9b bd 23 72 30 3e c4 8c ff 3d
       0.08693781 -0.07584618 0.1723104 0.12478021
000220 a1 37 33 3e 60 a9 bf be 3f a2 da 3e 4e bd 05 3e
       0.1750169 -0.3743391 0.4270191 0.13060495
000230 f5 8a f2 3e 80 36 9f bd b7 9f 32 bf 0e 33 ab be
       0.4737164 -0.07774067 -0.69774956 -0.3343739
000240 51 99 e6 bd 0a fc 8b be 7b f3 1a 3e 13 86 90 be
       -0.112597115 -0.27340728 0.15131943 -0.2822729
000250 bb 1e 36 be 9e 91 b7 bd 34 71 a5 be 12 b0 ae 3d
       -0.1778516 -0.08963321 -0.3231293 0.085296765
000260 97 95 f1 bd 12 9d 7c be 33 9e 47 be 28 89 4c 3d
       -0.1179611 -0.24669293 -0.19493942 0.04993549
000270 7d 03 0c 3d 28 11 1c be d3 c7 02 be 95 5d 8d 3e
       0.034183014 -0.1524092 -0.1277154 0.2761046
000280 14 11 ad 3d 6c d4 48 bc 0c a5 5f bc dd 4d 13 be
       0.08450523 -0.012257677 -0.01365019 -0.14385171
000290 70 72 bc 3e 0a c1 dc 3d 64 38 99 3d c5 f7 33 3e
       0.3680606 0.10779007 0.07481459 0.17574985
0002a0 50 cd d0 be ce e2 dc 3d c4 dd 1b be 29 4c dc be
       -0.4078164 0.10785447 -0.15221316 -0.43026856
0002b0 a7 25 38 be 9c cd c4 be 3c 52 34 be 7e 10 0f be
       -0.17983113 -0.38438118 -0.17609495 -0.13971135
0002c0 60 64 c2 3c 74 d4 01 3e 1b 90 8f 3d b8 bd 84 3e
       0.023729503 0.126787 0.07009908 0.25925994
0002d0 0b b9 99 3e 58 01 31 be e5 98 98 be fc d7 8b be
       0.3002399 -0.17285669 -0.2980415 -0.2731322
0002e0 5a 64 cd be ff 3f d8 bb 30 34 cc 3d 1b da c2 3c
       -0.40115625 -0.006599426 0.099708915 0.023785641
0002f0 4f 03 41 be 38 01 c0 3d 85 78 b3 b9 9b cd f7 3d
       -0.18848918 0.093752325 -0.00034231335 0.12099763

Transformer_layer.decoder.layers.0.self_attn.in_proj_bias f4 [24]
000000 94 15 02 3b ab 51 c6 be fb 99 00 bb 8a 09 bb 3c
       0.0019849287 -0.38734183 -0.001962303 0.022831697
000010 2f a5 ef 3b e0 91 54 3b 1f 1f 54 bc 4d 47 08 3b
       0.0073133926 0.003243558 -0.012946873 0.0020794452
000020 f5 19 5a 2f 6d d1 9c 2f 5d a6 a3 30 b9 aa 61 af
       1.9836206e-10 2.852504e-10 1.1907094e-09 -2.0524284e-10
000030 4f 63 ee af 8e dd b9 af ed ee 56 b0 9c 8d 36 2c
       -4.336251e-10 -3.3808728e-10 -7.819228e-10 2.5942365e-12
000040 9b 9f 86 3d 42 ff 51 3e 7e 01 bd 3d 9b 80 43 3d
       0.06573411 0.2050753 0.092288 0.04773007
000050 19 ae 03 3d ad be 06 bd 0d a7 68 3c 5c d4 94 bd
       0.032148454 -0.032896686 0.014199984 -0.07267067

Transformer_layer.decoder.layers.0.self_attn.out_proj.weight f4 [8, 8]
000000 a7 18 a1 3e bd 8d 60 be 96 8b 19 bf 2c 11 c7 be
       0.3146412 -0.21929069 -0.59978616 -0.3888029
000010 1d fc a2 be 0e 21 b1 3e f1 63 83 be be a9 03 3f
       -0.31832972 0.3459553 -0.25662187 0.5143088
000020 a4 24 77 3e a7 25 50 3f c9 2d 1a be 7d 29 09 be
       0.24135071 0.8130745 -0.15056528 -0.13394733
000030 4a a5 bd bc a3 3d e9 3e 22 44 12 3f 8c 1c 84 be
       -0.023150105 0.45554838 0.5713521 -0.2580303
000040 39 18 03 3d 40 f2 c6 bd ba ca cf 3c 08 ff 41 be
       0.032005522 -0.09714174 0.025365222 -0.18944943
000050 d5 67 d7 be 94 92 0c be 31 c9 9b 3e 56 e8 ce 3e
       -0.42071405 -0.1372779 0.30426934 0.40411633
000060 43 25 bc bb 1e 51 1c 3f 97 3d 9a be 75 77 9b 3d
       -0.0057417466 0.61061275 -0.30125114 0.07591144
000070 51 10 46 3e c7 13 ed 3e 06 10 ac bd 69 29 e6 3e
       0.19342162 0.4630415 -0.08401494 0.44953468
000080 70 57 98 be 10 95 2a bf 8a 85 d0 bc e2 90 55 bd
       -0.2975421 -0.666337 -0.025454301 -0.052140124
000090 a2 7d 9b be 6c e7 13 3f 48 03 35 be ff 4e c9 be
       -0.30369288 0.57774997 -0.17677033 -0.39318082
0000a0 00 bd cd 3e 60 42 e5 3e 64 74 18 3f 9d 00 8b be
       0.40183258 0.44777203 0.595526 -0.27148905
0000b0 f0 4a 28 be 6b b8 82 3e 15 ff fe be eb f4 e0 3e
       -0.16434836 0.25531325 -0.49803987 0.43936858
0000c0 a6 af cb 3e 08 6a be 3e e2 33 0c 3f 8f 3d bc 3e
       0.39782447 0.3719027 0.54766667 0.36765715
0000d0 d8 5c ee be ba d8 93 3e c9 45 7d be 3a e5 42 3e
       -0.4655521 0.28876287 -0.24733652 0.19032755
0000e0 87 6e e5 3c a2 51 e9 bd 02 04 12 be b6 85 4d 3e
       0.028006805 -0.11392523 -0.14259341 0.20070538
0000f0 87 0d 64 3e f6 10 a4 3e 8e 9b c4 3e 29 5d 37 be
       0.22270785 0.3204419 0.3839993 -0.17906632

Transformer_layer.decoder.layers.0.self_attn.out_proj.bias f4 [8]
000000 f1 df 21 be d8 11 30 3e ac 83 00 be 47 1c 3d bb
       -0.15808083 0.17194307 -0.12550229 -0.0028855966
000010 ad a5 21 be 58 5c 68 3c 24 08 03 3e 95 db 64 bd
       -0.15785857 0.014182173 0.12796074 -0.055873472
