RFID_TRANS/process/models/distillation_model.pth (torch, 67287 bytes, 6 tensors)

fc1.weight f4 [20, 784]
00000000: a6bd 81bc c2dd 07bd 5273 45bc 4659 50bd
00000010: c34f dd3c 094e 4a3c 95ba 003d 2390 af3d
00000020: e519 583d 9c95 853d eaa9 223e 2893 163e
00000030: 7751 4e3d a1ca 1b3e 6b11 213e cbed 863d
00000040: 78c0 8e3d 47b5 223e 5fd9 db3d 38cc c33d
00000050: 78f1 1b3d 9377 b2bc e871 3bbd 187a 3ebd
00000060: cc10 94bd 71aa 63bd ab29 523b 3d0e f8bc
00000070: 1042 1dbd 97de 313c 5eaf 3dbd 5f96 b3bc
00000080: fb0f fbbc 9924 f13c 9f30 283c 3096 263d
00000090: 3613 ebbc 6066 643d 639d 3f3e 0970 c43d
000000a0: 05e2 823b 1c83 163d a7fb c23c 06ff d4bc
000000b0: 2f44 0c3d 09e9 383e 7f62 f73d 150b ee3a
000000c0: 8e3e ffbc c095 36bb 0d53 f8ba 8a17 b9bd
000000d0: c228 c6bd 3a7a 8cbd 34f1 23bd 80cb 173c
000000e0: e244 943b ddde 5e3c fd58 f13b d81c 7fbd
000000f0: b36b 31bd 9e59 143d 7ef3 4b3d 4925 f13c
00000100: 1573 36bd 4b0e 89bb 4ebd e53c 8ad9 523d
00000110: 47ee e13c 02b9 23bd 842d 5cbd 0de7 6e3c
00000120: 7d13 8c3d fdfb 813b d5e1 d53c 52c2 3bbc
00000130: 7e41 e6bb 114e 293d 5a0e 7f3d aaf9 84ba
00000140: a55a debd 4708 dabd a16f 4bbc 2b13 27bd
00000150: 9ac7 20ba 467b 133d 73af 12bc 3faf 71bc
00000160: b563 3bbc a763 923d e81a 8c3d a8e9 02be
00000170: 8c70 03be c163 6bbc 336e 803d 2d9e c93d
00000180: c111 f03c c1a2 f13b 53d1 1e3d 916a 323c
00000190: 7ae5 6c3d b55f 103d 7b1e c73c 489c c2bd
000001a0: 53dc e4bd 9cae 473c bbe5 a23d 8b2f 553d
000001b0: 7366 acbd 1feb 0cbe 0956 30bd f87b 5fbd
000001c0: 03a2 36bc 822d f4bc 050f a2bc 3606 8ebd
000001d0: f571 103c 3fa4 4b3d 1199 89bd f8e1 b2bd
000001e0: 2716 8cbd d5ba 143d b509 993d a5e3 a33d
000001f0: df52 a83c 5c26 853d a007 883d 6553 bf3c
00000200: bc69 0e3d a807 e23c 4714 493d bf68 5dba
00000210: 04dc 37bd 4fd0 c6bd e668 233c 1d25 413d
00000220: 7557 47bd 0ff7 b4bd e5f6 40bd 2602 f2bc
00000230: 406c 2c3b ef61 f1b9 da8d 23bd c9e9 4dbc
00000240: d674 a3bc 8db1 8abc 2e2f 27bd d42f 3abd
00000250: 5e48 d7bc efdc 493d 3efc 8d3d 2f1d 813d
00000260: 1551 c13d 2cf0 393d ae3b e93c 8d1e 093d
00000270: f978 803c fbf0 803d b7a5 853d 1a59 823c
00000280: b25b 2fbd 110a 1cbd 044f b0bc 36b1 773d
00000290: 8510 85bb 9efc 96bd a523 96bd 8724 b5bd
000002a0: 43de 663c 2cd6 25bd f5b4 3abd a913 97bd
000002b0: d6f6 a53c 1547 833c 3f2a f5bc 9fa8 aebc
000002c0: a03b 183d 194f 543d 2023 003d 3925 7e3d
000002d0: abea 663d 0602 823d 27fc 433c 40df f5bb
000002e0: 0c70 6dbb de9b 373c 8659 583d 5c16 993c
000002f0: b2c6 0e3d 3e11 de3c e41a 2bbd c315 1e3c
00000300: 3aa4 0cbd e21c 72bd 1e04 10be 5b0a 83bd
00000310: 6445 43bd c9ea b8bd 271b 6fbd 9fb9 00bd
00000320: 71e3 06bb ff2d 9fbc 2157 52bd 3dfa f7bc
00000330: df7a d7bc e850 dd3d 3891 a53d 7c85 62bb
00000340: c795 3b3d fb03 513c 861b a03d 4e46 8c3c
00000350: 6acd 57bb d5e9 9bbc f46e 163d 6948 1c3d
00000360: 8f5c 5ebc 3957 17bb 5794 60bd d9f5 b33c
00000370: 4d0b 7ebd f56e 08be bccc c6bd a727 8fbb
00000380: 51c6 3ebd 3410 8dbd 4320 c4bd 5e39 1bbd
00000390: 644c ebbb a5f6 2bbd 3669 0bbd 6084 cb3b
000003a0: b8d0 08bb 0b9a fb3d c027 c83d 85a0 8e3d
000003b0: 41d1 6b3c 85f8 083d 0179 263c 60b4 3a3d
000003c0: 1157 14bd 00c6 abbb c2e3 433d da89 d1bb
000003d0: f551 f2bc a966 0ebd 4be1 65bd b888 70bd
000003e0: 1813 c9bd 048f 1abe f610 94bc 1125 9a3d
000003f0: 5408 f83b b53a 54bd 75f5 b8bd 0409 c2bd
-0.015837502 -0.03317047 -0.01205142 -0.050866388 0.027015572 0.012347707 0.03142794 0.08572414
0.05275907 0.06522676 0.1588513 0.14704573 0.05037066 0.15214016 0.157293 0.06588324
0.06970304 0.15889464 0.107348196 0.09560436 0.03807208 -0.021785533 -0.045762926 -0.046503156
-0.07229766 -0.055582467 0.0032068293 -0.030280227 -0.03839308 0.010856292 -0.04630982 -0.021922288
-0.030647269 0.029436396 0.010265498 0.040670574 -0.028695684 0.055761695 0.18712382 0.095916815
0.003994229 0.03674613 0.023801638 -0.02600051 0.034244712 0.18057646 0.120793335 0.0018161262
-0.031157758 -0.0027860254 -0.001894565 -0.09037693 -0.09675743 -0.0685925 -0.04002495 0.009264827
0.004524813 0.013602939 0.0073653446 -0.062283367 -0.0433156 0.036218278 0.04979276 0.029436724
-0.044543345 -0.004182612 0.02804437 0.051476993 0.02757944 -0.03997136 -0.053754345 0.014581454
0.068396546 0.003966807 0.026108662 -0.011459904 -0.0070268502 0.041334216 0.062269546 -0.0010145206
-0.10857133 -0.1064611 -0.012416751 -0.040789764 -0.00061332586 0.036006235 -0.008952963 -0.014751255
-0.011437346 0.071479134 0.068410695 -0.12784445 -0.12835902 -0.014367045 0.06271019 0.09844623
0.02930534 0.007374138 0.038773846 0.010889665 0.057836033 0.035247523 0.024306526 -0.095024645
-0.11174836 0.012187626 0.07953974 0.052047294 -0.08417978 -0.13761567 -0.0430508 -0.054561585
-0.011147025 -0.029806856 -0.019782552 -0.069347784 0.008816232 0.049717184 -0.06718648 -0.08734506
-0.06840163 0.03631099 0.074725546 0.08002404 0.020547329 0.06501457 0.06642079 0.023355195
0.034768805 0.027591541 0.049091604 -0.00084460893 -0.044887558 -0.097077005 0.00997374 0.047154535
-0.04866739 -0.08836185 -0.047110457 -0.02954204 0.002630964 -0.00046040068 -0.039930202 -0.012567946
-0.019953173 -0.016930366 -0.04081648 -0.04545577 -0.026279625 0.049282964 0.06932877 0.063043945
0.09439293 0.04539506 0.02847084 0.0334764 0.015682684 0.062959634 0.06525748 0.015911628
-0.042812057 -0.038095538 -0.021522053 0.060471736 -0.004060807 -0.07372402 -0.073310174 -0.08844858
0.014091077 -0.040487453 -0.04558273 -0.07376797 0.020259302 0.016025105 -0.029927371 -0.02132064
0.037166238 0.051833246 0.031283498 0.062047217 0.05637614 0.06348042 0.011961973 -0.00750342
-0.0036230115 0.011206595 0.05281975 0.01868742 0.03485746 0.027107831 -0.04177369 0.009648743
-0.034336306 -0.059109576 -0.1406407 -0.063984595 -0.047673598 -0.09029157 -0.058375504 -0.031427022
-0.0020582343 -0.019431112 -0.051352624 -0.03027069 -0.026303707 0.10806447 0.08084339 -0.0034564426
0.045797136 0.012757297 0.0781775 0.017123368 -0.0032928833 -0.019032398 0.036726907 0.038154993
-0.013571872 -0.002309276 -0.054828968 0.021967815 -0.062022496 -0.13323577 -0.09707019 -0.0043687406
-0.046575848 -0.06887856 -0.09576466 -0.037896506 -0.0071807373 -0.041983265 -0.034035884 0.0062108487
-0.002087636 0.12285241 0.09773207 0.069642104 0.014393152 0.03344013 0.0101606855 0.045582175
-0.036215845 -0.0052421093 0.04782463 -0.006394607 -0.029580096 -0.034765873 -0.05612306 -0.058724135
-0.09818095 -0.15093619 -0.018074494 0.07526601 0.007569352 -0.0518138 -0.09031192 -0.09474376

fc1.bias f4 [20]
00000000: f17d 8f3d 4dab 943c 3b90 8d3e 3b68 9f3d
00000010: 52ef 523d f664 873e 542e 03bc 286b e93d
00000020: 43d8 2a3d 8cfe 143d 6605 743d 0f0e ec3c
00000030: b2a4 2d3e c0c6 9ebd da8f 8b3e 753c 9ebd
00000040: f8c2 bfbd 057d 0b3e af37 a4bd 6854 ebb9
0.07006443 0.018148089 0.27649102 0.07783552 0.051497765 0.26444215 -0.008006651 0.113973916
0.04171015 0.036375567 0.05957546 0.028815297 0.16957358 -0.07752752 0.27258188 -0.07726375
-0.09363359 0.1362191 -0.08018433 -0.0004488558

fc2.weight f4 [20, 20]
00000000: 56f1 873e 75dd 4e3e 94cb cc3e e035 aa3d
00000010: e625 293e 398e 573e 5569 94be 6f1d b7bd
00000020: 63f3 c73d 8f48 1bbe cfbe 84be 46dd b13e
00000030: 6668 eb3d 3658 7c3e 83d4 23be 6a09 9e3e
00000040: 4fa7 8c3e a6bc 39be 4df1 75bd 1327 f2bc
00000050: 07b4 a53e 22eb 453e 18cb 2cbe 1b23 59be
00000060: c825 da3b ec12 853e 84fa 6e3e 2581 ad3e
00000070: 38f3 59be 4b44 90bc 4aa9 6e3e 8802 45be
00000080: 5a6c 88bd a2d6 113d cad8 8d3e 5031 b2bd
00000090: 328b dbbd 94b6 a9bd 8fb6 19bb 0d4b 79be
000000a0: 6966 8ebd 38a0 46be 2f84 043e 262e c73e
000000b0: bfd3 e03e e193 763e 04ad edbd 560e 78be
000000c0: 63eb 77be 13e4 f9bc 63dd cb3d b6eb b8bd
000000d0: 4d3f 01be 2874 793e d380 88b9 40fe 213e
000000e0: 7a27 a63e fcf2 cd3e 3194 ccbc 6168 e43e
000000f0: 02bb 05be f72c 73be 2a49 ec3e 4dd3 c4bd
00000100: 276d 203e 1012 2d3e 4645 183d 78a1 c83d
00000110: 2708 86be 101e 87be 6ca0 e73d 91b0 aa3d
00000120: dff2 0d3e f43f 9c3e 9d37 443e b367 9e3e
00000130: beef 71bd 224f 503e abdf 4bbe 1661 7f3e
00000140: 838c 0a3e 2724 82be cfb4 783e a3f7 43be
00000150: 93fc c7bc f1e4 d63c 2c67 0fbe dc6a 933e
00000160: 6f13 6abe 447b 523b 283f 1bbd 531c 4bbe
00000170: 7a93 1f3e 20dd a73e da74 1b3e 58ce 293e
00000180: c6c0 adbd 572a a53e bbee 0cbe aa73 96bc
00000190: b74d a53b b3b4 0ebe cf40 883e 2999 42be
000001a0: 6c88 943d 0e51 573e adb2 3abd 45d1 f5bd
000001b0: 9959 f93d 91c7 35be 6e61 823c b9dc 8bbe
000001c0: 1c17 bc3e 9a8e e4bc 8437 193e dafd 893d
000001d0: 7ca1 803e e378 a13c 1b32 033d 0004 06be
000001e0: c37e d5bc c411 8b3e b1cf ca3c 8d8a 943e
000001f0: d9dc c7be f84d 6dbe 8b65 403e 7ccc 40be
00000200: 8ef5 453e 0790 873e c275 20be 228a 773e
00000210: ffda 013e 01e4 49be 39ff 853e 1ce0 7a3e
00000220: 8491 603e d1c4 c1be 4882 ab3e 896a 853d
00000230: dd4b 683e f79d b53d b273 c3be 55fd 273c
00000240: ebcb b8be 5feb 81bd 7925 ecbc d117 0f3e
00000250: da02 3ebc 3dc6 b03e 564e a23e f30c 313e
00000260: f9f3 2cbe f2fa 0a3d de45 0a3e 13c8 3f3e
00000270: 7829 0cbd 25ba 0dbe d97d b93e 6977 71be
00000280: 51a2 0d3e ba46 c03d ec96 f53e 73f1 4b3c
00000290: 420c 343e 8160 873e a72c 77bd 710e 8e3e
000002a0: fa9a a7be e32a 93be 1412 1a3e ac42 69bd
000002b0: f783 b13e 2376 5b3d e470 593b 7b33 bdbd
000002c0: b785 75be d5f6 133e 11f5 4ebe cb2d ec3c
000002d0: dde1 64bb 8228 3a3e 1171 7e3e 04e0 d13e
000002e0: b20f 933e d0da c23e 069d 0bbd b326 44be
000002f0: b38e 363e 9c6d f23d e86b 8abe 23e1 123e
00000300: 8ad2 1bbd 9e8e 8b3e c085 2f3c 825e b83d
00000310: 471b 42be 9f32 86bc f6c9 03be e3a5 5d3e
00000320: b286 af3e ae1b 553e df29 adbd d760 9dbd
00000330: c7b8 423d 505a a03e 7899 4c3e 0568 2c3e
00000340: 26dc 7abe c730 0dbc 524f 8abd 201c cf3e
00000350: 634e 7dbd 8756 ad3d 090f 6d3e 29f5 67be
00000360: c181 5fbb faf4 293e af1a 3dbe dd46 293e
00000370: 8dd8 52be 07f5 00be 03cf dbbe d527 bd3e
00000380: 9347 73be 37eb 91bd cf9e 983e 933a c5bd
00000390: 62d2 1ebe a8b4 1abe 3cf4 b93d ce0a 12be
000003a0: a2b3 a7be 5dd4 2c3e eab9 9a3e ebaf bc3d
000003b0: b3e8 3d3d a40e 59bd b86b 733e f945 623e
000003c0: fa81 e03c 72d0 cb3d ba92 903d 3430 f93d
000003d0: e171 373e c38f 8e3d 853f f93d 65cd 3b3e
000003e0: 9e93 4fbe ac7c d6bd 2684 07be e3c4 93bc
000003f0: 13ac ecbd ef64 303e 06dd abbd 2120 3bbe
0.26551312 0.20201667 0.39999068 0.08311057 0.16518363 0.21050347 -0.28986612 -0.08941161
0.09763219 -0.15164398 -0.25926825 0.3473913 0.11494522 0.24643025 -0.15999036 0.30866557
0.27471396 -0.1813837 -0.060044575 -0.029559648 0.32363912 0.19327977 -0.16874349 -0.21204798
0.006657336 0.25991 0.23337752 0.33887592 -0.21284187 -0.01761069 0.23306766 -0.19239247
-0.066612914 0.03560508 0.2770446 -0.08700812 -0.10719909 -0.08286777 -0.002345476 -0.24345036
-0.06953127 -0.19397056 0.12941049 0.38902396 0.4391155 0.24079849 -0.11605266 -0.24224219
-0.24210887 -0.030504262 0.099543355 -0.09029333 -0.12621804 0.24360716 -0.00026035923 0.15819645
0.32451993 0.40224445 -0.024973007 0.44610885 -0.13059619 -0.23747621 0.4614957 -0.09610615
0.15666638 0.16901422 0.03717544 0.09796423 -0.26178095 -0.26390123 0.11309895 0.083344586
0.13862179 0.30517542 0.1916184 0.3093849 -0.059066527 0.20342687 -0.19909541 0.24939379
0.13530163 -0.25418207 0.24287723 -0.19137435 -0.024412429 0.026232215 -0.140042 0.28792465
-0.22858976 0.003211693 -0.037902027 -0.19835024 0.15583602 0.32785892 0.15181294 0.1658262
-0.08484034 0.32258865 -0.13762943 -0.0183657 0.0050446647 -0.13936119 0.26611945 -0.19003738
0.07252583 0.21027014 -0.045580555 -0.120028056 0.121752925 -0.1775191 0.015915599 -0.27316836
0.3673638 -0.027900029 0.14962584 0.067378715 0.25123203 0.019710964 0.032030206 -0.13087463
-0.026061421 0.27161992 0.024757238 0.29011956 -0.3903568 -0.23174274 0.18788736 -0.18828005
0.19331953 0.26477072 -0.15669921 0.24173787 0.12681197 -0.19715883 0.26171282 0.24499553
0.2193051 -0.37845472 0.33497834 0.065144606 0.2268519 0.0886802 -0.38174206 0.01025327
-0.36093077 -0.063437216 -0.028826462 0.13973929 -0.01159736 0.34526244 0.3170039 0.17290096
-0.16889943 0.033930726 0.13503215 0.18728666 -0.034219235 -0.1384054 0.36228827 -0.23580708
0.1383145 0.0938849 0.47966707 0.012447703 0.17582801 0.26440814 -0.06034532 0.27745393
-0.32735425 -0.28743657 0.15045959 -0.05694835 0.34670994 0.05357946 0.003317886 -0.09238335
-0.2397679 0.14449628 -0.20210673 0.02883043 -0.0034924664 0.18179515 0.24847819 0.40991223
0.28722912 0.38057566 -0.034085296 -0.19155388 0.17827873 0.118373126 -0.2703545 0.14343695
-0.038042583 0.27257246 0.010713041 0.09002401 -0.18955718 -0.01638156 -0.1287001 0.21645312
0.34282452 0.2081134 -0.08455252 -0.07684486 0.0475395 0.31318903 0.19980419 0.16836555
-0.24498042 -0.008617586 -0.067534104 0.40451145 -0.061842334 0.084637694 0.23150267 -0.22652115
-0.003410444 0.16597357 -0.1846721 0.16530938 -0.2059042 -0.1259347 -0.42931375 0.36944452
-0.23757772 -0.07124942 0.2980866 -0.09630313 -0.15509942 -0.15107977 0.09079787 -0.14261934
-0.32754236 0.16877885 0.30219966 0.09213241 0.046364497 -0.052992478 0.2377156 0.22097005
0.027405728 0.09951867 0.07059236 0.12167397 0.17914535 0.06961014 0.121703185 0.1834007
-0.20271155 -0.10472998 -0.13234004 -0.018038219 -0.11556258 0.17226003 -0.08391766 -0.18273975

fc2.bias f4 [20]
00000000: d8c9 fe3d 79bc 313e 14e5 86bc afa9 923e
00000010: ecbc 06be 4b3a 933e 5d61 af3d 4cfa cf3d
00000020: 769b ae3e de7b 1b3e 8bda 153e b6f5 db3b
00000030: 4c4a 07bc 3045 0bbe 6d12 30be 46ac 51be
00000040: 5a1f fc3d e394 0fbe fce4 f5bd 8ed7 ecbd
0.124408424 0.17357053 -0.016466655 0.28645083 -0.13158005 0.28755412 0.085634924 0.10155162
0.34102982 0.1518397 0.14634149 0.0067126406 -0.00825746 -0.13600612 -0.17194529 -0.20475873
0.12310667 -0.1402164 -0.12006566 -0.11564551

fc3.weight f4 [10, 20]
00000000: 55d7 b0be ecfa 4cbe 1fb7 4cbc 2a2c 6cbe
00000010: 50d2 a1bd 1d67 bf3a d0ba 253e 9fcb a13d
00000020: 9282 70be ef0c 97be acfd 51be 12e0 87be
00000030: 1ae8 803d ba11 2d3e 80cf 04be b79b c73d
00000040: 6e09 853e 7637 96be 1f99 2d3e 3d41 413e
00000050: 1162 cb3e ad14 5abe 2285 b3be 49cd 54be
00000060: a5e8 acbe 60f5 07be cd0e aa3e 5bda cb3d
00000070: fc77 a4be 6e66 fb3d 1170 7d3d 7703 04be
00000080: 54ff b3be c0a8 c9bb 3595 94be d60c cabe
00000090: bcc6 d8be 0612 c03e a883 9bbe e759 6fbe
000000a0: 549d 01bf 529e 9e3e ff6b f3bc bde8 84be
000000b0: eef0 03bf 568c e4bd 278f c4bd 6065 4f3d
000000c0: 07f8 d5bd 0a14 60be 1cbc 2a3e 5d11 973d
000000d0: 6015 8dbd 3ef7 8abd 38d8 c6bd 5521 0dbe
000000e0: 9830 503e 270d 193e 473f a3bc e0c1 9d3c
000000f0: 21ee c6bd 8995 32be 473e 033e 4d5c 36be
00000100: f246 08be 7d13 eebc dc80 5e3e 5005 e63a
00000110: 8386 ffbe b38a 333d c293 38be 67f8 973e
00000120: 8549 2ebe d893 9d3d 391a aebe 9adf 2cbe
00000130: c79f 5b3e 8be0 8abe 80bf 87be 874d 32be
00000140: a1d8 d4bd 6ea5 933d a502 d3bd 6258 c4bd
00000150: adb3 cb3d 2911 d7be 6f94 3ebe 4c76 873e
00000160: b5f3 d9be c685 04be 637e 98bd 0bef 943e
00000170: b204 13be 7497 48be 881f aebe 193c 6f3d
00000180: c397 fc3c 5650 073e a0a5 893d 81ce 8fbe
00000190: 9e68 2a3d bed4 bd3d 58a2 eb3d 5b30 513e
000001a0: 4155 d53d 6461 5a3e e904 8dbe 3f93 aebe
000001b0: 201a c53e 041d ce3d 79c1 c83c 0cd0 6ebe
000001c0: 1bc9 22bd 705a 7a3d 3b87 a5bd d5c5 8dbe
000001d0: 1626 593e 1c31 d73c 9360 6d3d a576 02be
000001e0: 268f 28be 822f c8bd 9b3c 0dbe 2920 683d
000001f0: d9b2 82be efff 563e b3d7 a23d 5c89 583c
00000200: 8da8 b9bd 8bbc c2be c18e 76be 826b da3d
00000210: 8b69 e8bc c4ec d3bd a164 fbbe 56ed 943e
00000220: db5a 543d 33c2 be3d b489 743d 7ad1 62bd
00000230: edad 703e d67b bcbe ba3c 2b3e 55a5 ce3d
00000240: 21ba febd 70a1 24be 012e b8be 6200 b8be
00000250: a892 973d cc9a 993e e7f9 9c3d 3790 60be
00000260: d980 78be 970d 01be d9f7 b2bd 084c a9be
00000270: 5ba2 b8be 7f26 533e 5bbd 8abd e080 913e
00000280: ec46 b3be d2c0 fbbd 79f7 903e f87f 3e3d
00000290: 97ff c43c 392b b4bd bbb2 4bbe 34fe 1dbe
000002a0: 8cee 96be e181 24be 3757 083e 5b0b a73e
000002b0: a12f 0ebd 0081 2e3a 19f7 09bf cf6b 543e
000002c0: dcac 74be d9a7 783e c738 d13c 2ec9 453e
000002d0: 3c2e 293e 8791 89be 1c85 353e 9b65 9e3d
000002e0: 8f77 183d 02fe 4d3e d086 92be fa1e b8be
000002f0: 59db 1e3d 973b 5e3d a897 b8be 077d 8bbe
00000300: c2c4 a9be a0c6 173e 2996 483e f37b a03d
00000310: 4d58 53be 1c0c 04be bb70 903e 339b 633e
-0.34539285 -0.20017594 -0.012494831 -0.23063722 -0.07901442 0.0014602874 0.16184545 0.07900166
-0.23487309 -0.29502055 -0.20506924 -0.2653814 0.0629427 0.16901293 -0.1296978 0.09746497
0.25983757 -0.29339188 0.16952942 0.18872543 0.39723256 -0.2129695 -0.3506251 -0.20781435
-0.33771244 -0.13277197 0.33214417 0.099537574 -0.3212279 0.12275396 0.061874453 -0.12891947
-0.35155737 -0.00615415 -0.29020086 -0.39462918 -0.42339122 0.3751375 -0.30373883 -0.23374139
-0.5063069 0.30980164 -0.029714582 -0.25958815 -0.51539505 -0.111595795 -0.09597617 0.050633788
-0.10447698 -0.21882644 0.1667332 0.07376359 -0.068888426 -0.06785439 -0.09709209 -0.13782246
0.20331037 0.14946423 -0.019927634 0.019257486 -0.09713388 -0.17439856 0.12816726 -0.17808647
-0.13308313 -0.029062027 0.21728843 0.0017549191 -0.49907312 0.043833446 -0.18025115 0.29681703
-0.17020233 0.076942146 -0.3400438 -0.16882172 0.21447669 -0.27124438 -0.2651329 -0.17412387
-0.10392881 0.072092876 -0.10303239 -0.0958717 0.0994638 -0.4200528 -0.1861131 0.2645744
-0.42568746 -0.12941656 -0.07445981 0.29088625 -0.1435726 -0.19589025 -0.3400843 0.058406923
0.030834084 0.1321424 0.067210436 -0.28087237 0.041603677 0.09269093 0.11505574 0.20428602
0.104166515 0.21326214 -0.2754281 -0.34096715 0.38496494 0.10064128 0.024506317 -0.23321551
-0.03974257 0.061121404 -0.08082434 -0.27689996 0.21205935 0.026268534 0.05795343 -0.12740572
-0.16460857 -0.097746864 -0.1379265 0.056671295 -0.25527075 0.20996068 0.079512976 0.013216343
-0.09065352 -0.38034472 -0.24077894 0.10665037 -0.02837064 -0.10347894 -0.4910021 0.29087323
0.05184446 0.09314384 0.059701636 -0.055375554 0.23503847 -0.3681323 0.16722384 0.10090128
-0.12437845 -0.16077209 -0.35972598 -0.35937792 0.07401019 0.30000913 0.076648526 -0.21930014
-0.24267901 -0.1260284 -0.087386794 -0.3306582 -0.36061367 0.20620154 -0.06774398 0.28418636
-0.35015047 -0.12292637 0.28313807 0.04650876 0.024047656 -0.087973066 -0.19892399 -0.15429002
-0.29478872 -0.1606517 0.1331452 0.3262585 -0.03471339 0.0006656796 -0.53892666 0.2074425
-0.23894066 0.24282779 0.025539769 0.19315025 0.16521543 -0.2686884 0.17726558 0.077342235
0.037223395 0.20116428 -0.2861848 -0.35961133 0.038783405 0.054256048 -0.36053205 -0.27243826
-0.33157927 0.14821863 0.19588532 0.078361414 -0.20639153 -0.12895244 0.28211007 0.22227173

fc3.bias f4 [10]
00000000: 18ca 933e d5aa 06be d2b4 a4bd 8e7f 133e
00000010: 2c88 1abe c81a 5e3d b41c 483e a7b6 85be
00000020: 0929 f73c c4ca 8cbe
0.28865123 -0.13151105 -0.08042301 0.14404127 -0.15091008 0.05422476 0.195422 -0.26115915
0.030170934 -0.27498448
