RFID_TRANS/process/models/student_model_scratch.pth (torch, 67287 bytes, 6 tensors)

fc1.weight f4 [20, 784]
000000 fc b2 48 3c 8a bf cb bc 5a df 1b bd 6b 67 30 bc
       0.012249704 -0.024871606 -0.0380548 -0.010766844
000010 2d 28 4a bd 9e 81 75 bc bc f6 61 bd 88 0b e8 bc
       -0.04935472 -0.014984516 -0.055166945 -0.028325811
000020 cb b8 69 bd 36 a1 28 bd 27 8c 37 bd 0e 4e 8c bd
       -0.057060998 -0.041169368 -0.044811394 -0.06850825
000030 8d 8a 1f bd 0a 1e 50 bd ba 33 2e bc d7 c9 40 bd
       -0.03895049 -0.050809897 -0.01063245 -0.04706749
000040 08 54 07 bd 7a db e5 bc bd 90 93 bb 36 1a a8 3c
       -0.033039123 -0.028058756 -0.004503338 0.02052031
000050 e8 2e d6 3c c5 d4 75 3d 39 3d 87 3d 25 5f ec 3c
       0.026145414 0.060017366 0.06603474 0.028853962
000060 d6 9e 97 3d 24 75 7e 3d 0c 1c 36 3d 7c d1 5e bc
       0.074033424 0.062123433 0.04446034 -0.01359975
000070 1a be 27 3c 14 ef 13 3d 92 03 e2 ba b3 25 e2 bc
       0.010238195 0.036116675 -0.0017243496 -0.027605867
000080 cc 54 f0 bc 12 e1 87 bd 4b 99 05 bd 6b e0 c0 bd
       -0.02933731 -0.06634726 -0.032616895 -0.09417804
000090 8a 1d 7d bd 36 2f 1b bd 98 d2 d1 bd e7 39 d3 bd
       -0.06179575 -0.03788682 -0.10245246 -0.10313778
0000a0 c0 4e a7 bd fa 1f 81 bd 16 a7 0e bd 73 b0 89 bd
       -0.08169317 -0.06304927 -0.034827314 -0.06723108
0000b0 37 ba 17 bd d5 7a 68 bc 82 63 b4 3b b3 e7 a8 bc
       -0.037042823 -0.014189442 0.0055050263 -0.020618295
0000c0 2c eb 8e 3c 62 ad 00 3d fb 54 85 3d a4 88 57 3d
       0.017446123 0.03141535 0.06510349 0.052620545
0000d0 48 07 e6 3d 97 15 27 3e 10 3b ed 3d 06 ff 8b 3d
       0.112318575 0.1631683 0.11583531 0.06835751
0000e0 4a 6b 04 bd c0 af ec bc f8 0e 39 3c 0e 61 73 bd
       -0.03232888 -0.028892398 0.011295073 -0.05941873
0000f0 e7 19 a4 bd c5 d6 67 bd cc ec 89 bd 6a 16 dc bd
       -0.08012753 -0.056601305 -0.067346185 -0.10746463
000100 48 08 ca bd 05 e0 30 bd b5 f3 a6 bd 98 09 df bd
       -0.09864861 -0.04318239 -0.08151952 -0.10890502
000110 17 00 bc bd 26 fd ab bd 84 2b ef bc 96 d4 5e bd
       -0.09179705 -0.083978936 -0.029195555 -0.054401956
000120 07 c8 60 bd 2a 86 6e 3c 62 c3 56 3b bb 8a a2 3c
       -0.05487826 0.014558354 0.0032770266 0.019841542
000130 a5 46 1b bc 74 d0 9b bc 0f 33 20 bd 59 a2 06 3d
       -0.009477292 -0.019020297 -0.039111193 0.03286967
000140 0d 7d d7 3d 45 2f 32 3e 0c f7 20 3e 26 27 c4 3d
       0.105218984 0.17400844 0.15719241 0.095777795
000150 2c dd 83 3c cf 4f 09 bc a0 44 a3 3b c6 ca 9d bc
       0.016096674 -0.008380844 0.004982546 -0.019261729
000160 b5 cc 81 bd 64 d1 9a bd fc 87 6b bd bd 21 a7 bd
       -0.06337873 -0.07559469 -0.05750273 -0.08160732
000170 41 a5 70 bd 1d 56 dc bd c1 fe a2 bd e4 87 e8 bd
       -0.05875135 -0.10758612 -0.07958747 -0.11354044
000180 1a 43 de bd b6 6f 36 bd 00 f5 e1 bc cd 8d c9 bc
       -0.10852642 -0.04454013 -0.027582645 -0.024603749
000190 d2 6b 92 3c be c1 74 bc bc 55 31 3c 37 18 21 3d
       0.017873678 -0.01493877 0.010823663 0.039329734
0001a0 60 85 89 bb 24 a8 6e 3c ee 41 60 3c 75 a8 f3 bc
       -0.0041968077 0.014566455 0.013687594 -0.029743413
0001b0 d7 4e 86 3d 7e f3 46 3e 4b 96 2d 3e 73 67 1c 3e
       0.06558006 0.19428822 0.16951863 0.15273838
0001c0 25 d7 92 bc 90 06 82 3c a2 26 b1 bc d1 7a a6 bd
       -0.017924855 0.01587227 -0.021624867 -0.08128894
0001d0 48 3b 92 bd c6 50 08 be 59 48 a4 bd f4 d0 01 be
       -0.07140213 -0.13312063 -0.08021612 -0.12677366
0001e0 b5 b6 db bd 4c 34 12 be d2 1c 06 be 11 93 21 be
       -0.10728208 -0.14277762 -0.13096932 -0.15778758
0001f0 34 54 ea bd 2a 35 90 bd bf 98 68 bd 0d 4e da bc
       -0.11441842 -0.0704139 -0.056786295 -0.026648546
000200 2c c5 5e 3d f6 e5 57 3d c9 ec a7 ba 55 9a 2c 3d
       0.054387257 0.052709542 -0.0012811656 0.04213937
000210 23 7f d5 3c 5c 49 05 3c 65 43 ed 3c 97 9a 05 bc
       0.0260616 0.008135166 0.0289628 -0.008154533
000220 92 03 0d 3d 1f 6d 11 3e 23 38 46 3e 94 6c 1c 3e
       0.034427233 0.14201783 0.19357352 0.15275794
000230 e9 04 33 bd 62 aa 3b bd fb 19 14 bd 2c d5 a1 bd
       -0.043705855 -0.045816787 -0.03615759 -0.079019874
000240 12 36 b2 bd b2 f5 b7 bd 56 39 b8 bd 53 b0 06 be
       -0.08701719 -0.089824095 -0.08995311 -0.131532
000250 a9 4c da bd a7 a5 12 be 10 57 ca bd e7 4a e0 bd
       -0.10659153 -0.14321004 -0.09879887 -0.109517865
000260 f0 4f e0 bd 78 1f 9a bd 87 be bf bb 14 89 68 3d
       -0.10952747 -0.075255334 -0.00585157 0.056771353
000270 b4 f6 f4 3c de 12 84 3d 0e cb 6d 3d b4 48 4b 3d
       0.029902793 0.06448911 0.058054976 0.049629882
000280 2d ed 9d 3d 29 c2 8f 3d d9 1f 41 3d b0 fa f2 3c
       0.07711253 0.07019455 0.047149513 0.029660553
000290 b1 2e 8b 3d ac 2a dc 3d 99 8e 42 3e 06 d6 25 3e
       0.06796015 0.107503265 0.18999709 0.16194925
0002a0 cb 38 eb bc 08 45 26 bd f4 48 8e bd 31 0a 07 be
       -0.028713604 -0.040593177 -0.069475085 -0.13187481
0002b0 bf 2d f0 bd e7 dc 0c be c5 55 20 be fc ab 1e be
       -0.117274754 -0.13756143 -0.15657718 -0.15495294
0002c0 27 c9 2a be 75 8d 32 be 5d a1 3e be 64 7d 13 be
       -0.16678296 -0.17436774 -0.18616243 -0.14403301
0002d0 55 0c 2d be b6 bf f7 bd 9d b6 70 bd 54 1b 8f 3d
       -0.16899236 -0.12097113 -0.058767904 0.06987634
0002e0 4a 4c 7c 3d c5 1e b7 3d 2d e9 ae 3d a4 63 91 3d
       0.061596192 0.08941416 0.085405685 0.07099083
0002f0 ff 66 d2 3d dc ac 76 3d 69 fa 31 3d 62 26 76 3d
       0.10273551 0.060223445 0.0434517 0.0600952
000300 81 91 d2 3d 7f aa 3d 3e d0 62 2e 3e a4 6e 18 3e
       0.10281659 0.1852207 0.17029881 0.14885956
000310 a7 fb ed bc 50 f6 d0 bc d8 53 bb bd 3c a0 2e be
       -0.029050661 -0.025508076 -0.09146851 -0.17053312
000320 e3 f0 1b be 8b 39 fb bd 80 19 0e be a8 99 2e be
       -0.1522861 -0.12266835 -0.13876915 -0.17050803
000330 25 90 30 be 1e eb 47 be ec 20 26 be 52 81 52 be
       -0.17242487 -0.19523284 -0.16223496 -0.20557144
000340 92 3c 3c be 00 5d ea bd 39 e1 d5 bc 24 71 43 3d
       -0.1838248 -0.114435196 -0.026108371 0.04771532
000350 5f 9e 9d 3d 32 73 7f 3d 6c 4c 95 3d 1c a0 81 3d
       0.076962225 0.06236572 0.07289967 0.063293666
000360 75 a9 b6 3d c1 73 e1 3d 93 1e e0 3d 33 93 c9 3d
       0.0891904 0.110084064 0.109433316 0.09842529
000370 91 64 09 3e a8 9d 54 3e 21 db 8c 3d 7e 82 c4 3b
       0.1341727 0.20763266 0.06877733 0.005997001
000380 7b ca a9 bd 95 59 b6 bd ae df e5 bd 6b a8 2f be
       -0.08290573 -0.08903805 -0.11224304 -0.1715409
000390 19 2f 35 be b7 13 1e be 92 97 39 be ce 23 5b be
       -0.17693748 -0.15437208 -0.18124226 -0.21400377
0003a0 da 14 5d be ca 6e 80 be c6 82 84 be 39 69 44 be
       -0.21589985 -0.25084525 -0.25881022 -0.19180764
0003b0 26 3c 2e be ce 1a d3 bd 59 78 4a bd 04 f7 7a 3c
       -0.17015132 -0.10307847 -0.04943118 0.015317682
0003c0 86 b8 b7 3d 0f 66 85 3d b1 29 8c 3d 9e 44 28 3d
       0.08970742 0.06513607 0.068438895 0.041081063
0003d0 07 0f 36 3d ec 7e 96 3d 97 16 fa 3d 3f 74 09 3e
       0.044447925 0.07348427 0.1221134 0.1342325
0003e0 45 65 18 3e ba d6 25 3e a8 d8 61 3b 60 de b4 bd
       0.14882381 0.16195193 0.0034461413 -0.08831477
0003f0 75 ca 21 bd dc 36 f6 bd b5 cb c5 bd 96 a5 14 be
       -0.03949972 -0.12022182 -0.09657995 -0.14516291

fc1.bias f4 [20]
000000 d0 e0 89 3c e1 c4 c7 3d 8a 4a 88 bc bb fb 11 3d
       0.016830832 0.097543485 -0.016637105 0.03564046
000010 5f d7 28 bd 5d 12 a2 3d 4c 70 94 3d 3f d1 80 3c
       -0.04122102 0.07913659 0.072479814 0.015724776
000020 21 48 63 3d af 08 22 3e 43 c2 31 3b 29 5a c7 3c
       0.05548871 0.15823625 0.0027123846 0.024334984
000030 7e 99 8a 3d b5 63 78 3e 15 3f 26 bd d7 d7 a6 3d
       0.067675576 0.24256785 -0.040587503 0.08146637
000040 fc 3b 10 3d bd 58 0b bd 71 07 b9 3c 29 87 0c 3d
       0.035213456 -0.034020174 0.022586556 0.034308586

fc2.weight f4 [20, 20]
000000 77 fb f3 bc 6f 5f 81 bd 6f 6d 0d 3d 78 ef 03 3f
       -0.029782994 -0.06317031 0.034528192 0.51537275
000010 ac 50 0e be eb 2f f9 3c 6e 29 49 3d 45 d3 5b 3e
       -0.13897961 0.030418357 0.049111776 0.21467312
000020 36 42 0d 3f 7c 88 da 3e 80 5d 48 bb 90 5b 17 bd
       0.55179155 0.42682254 -0.0030573308 -0.036952555
000030 c6 fa 1d bc e8 12 64 bd e5 52 ef bd 34 7c cd bd
       -0.009642309 -0.055682093 -0.11685733 -0.100334555
000040 19 be 8c bd 4c ee bc 3e 2d f0 1b be 09 15 0c be
       -0.06872196 0.36900556 -0.15228339 -0.136799
000050 82 a0 5b bd f1 03 98 bb 1f fd 34 3d 5c 1a 93 3e
       -0.05361987 -0.0046391417 0.044186708 0.28731048
000060 6a 75 89 b9 94 eb c8 b7 bf 63 9b 3e ff d5 e0 bd
       -0.00026218157 -2.3951558e-05 0.30349538 -0.109783165
000070 a4 f4 e7 3e 6f 4c c5 3c d6 1b d6 bd 2b 43 61 39
       0.45303833 0.024084298 -0.10454528 0.00021482694
000080 b5 cd 5f ba 26 20 2d 3e 39 07 13 bc 1f 61 19 3e
       -0.00085374276 0.16906795 -0.00897389 0.14978455
000090 81 c0 8f be bd 0e 82 bd 09 f0 39 be 37 c3 62 bb
       -0.28076556 -0.06350467 -0.18157972 -0.003460122
0000a0 78 b0 e0 bd 67 d3 f1 bd 66 77 5f 3d 4d 57 2e bc
       -0.10971159 -0.118079 0.054557227 -0.010640931
0000b0 34 58 80 3e d6 a4 c5 bb 33 40 35 be 64 b5 f7 3e
       0.25067294 -0.006031613 -0.17700271 0.48380578
0000c0 dd be 17 3e 27 c2 8d 3e b4 84 8f bc 63 d2 bd bb
       0.14818902 0.2768719 -0.017519332 -0.0057929023
0000d0 31 ce d0 bb 89 3c a0 bd 7c 5b ca 3d 9b d1 cd bd
       -0.006372236 -0.07824046 0.098807305 -0.10049745
0000e0 0f eb 8c 3d f4 18 0a 3f a9 81 d3 3e 09 fe c4 3d
       0.06880771 0.53944325 0.4130986 0.09618766
0000f0 fa 2b 18 3d af 5a 04 3d 68 e1 3b bd 9f 7e 75 3e
       0.037151314 0.032313045 -0.04586926 0.23974083
000100 24 9e e5 bd 58 a3 06 3f 43 40 2e be 1a 50 f5 bc
       -0.112118036 0.5259299 -0.17016701 -0.029945422
000110 cb 73 8a bc 18 ea 14 3d 78 f0 f0 3d 5c be 0f be
       -0.016900918 0.03635606 0.11764616 -0.1403746
000120 c2 22 fd 3e bf 39 11 bd 65 39 81 bd 3a bf 96 3c
       0.4944058 -0.03545546 -0.06309775 0.01840173
000130 6d f2 8c 3e 37 98 a8 3d ad 34 38 be e3 2c e5 bd
       0.27528706 0.08232158 -0.17988844 -0.11190202
000140 9e 3c 77 bc 81 12 96 bc 54 73 1c 3d 11 6a 59 3e
       -0.015090136 -0.01831937 0.038195923 0.21231867
000150 ef d8 1d be 11 e1 ff 3e 24 bc 2e 3e c9 98 19 bd
       -0.15414785 0.499764 0.17063957 -0.037499223
000160 b4 61 30 3e 7b df 20 3e d9 e5 45 bd 2b 38 2d 3f
       0.17224771 0.15710251 -0.048314903 0.6766383
000170 54 d0 d2 3e 3d ba 3c 3d 50 19 c0 3d 6a b2 8b 3b
       0.41174567 0.04607605 0.09379828 0.004263212
000180 de f9 24 be c8 c8 ae bd fa 5d 2c be c4 24 8a be
       -0.16110942 -0.0853439 -0.16832724 -0.26981175
000190 6c 75 e2 bd ea 08 53 be 8a e6 c6 bd 6b 83 a7 3d
       -0.11057553 -0.20608869 -0.097119406 0.08179363
0001a0 2d 64 2a 3e 3e 9e b4 3e c2 72 d9 bd 1d 17 d7 39
       0.16639777 0.3527698 -0.106175914 0.00041025216
0001b0 c7 a1 35 be 59 13 63 3d e7 4f 86 be e2 d0 f2 3e
       -0.17737494 0.055438373 -0.26232836 0.4742499
0001c0 90 72 bb 3e 07 ee 20 be a6 f6 4d be 4a e8 25 3d
       0.36610842 -0.157158 -0.2011362 0.04050473
0001d0 0b 88 84 be 08 af 0d bd 04 a6 86 3e a5 f7 8a 3e
       -0.25885043 -0.03459075 0.26298535 0.27142063
0001e0 54 4e 04 be de b2 06 be b4 d4 21 3b c5 29 af 3e
       -0.12920505 -0.1315417 0.0024693431 0.34211555
0001f0 45 93 67 3e 43 81 62 bc d9 3c 09 be 7e 37 b8 3e
       0.22614773 -0.013824764 -0.13402118 0.35979837
000200 fb d8 48 3e 7d 5c db 3e ff bd ab 3b de 6b 70 bc
       0.19614021 0.42844 0.005241155 -0.014674155
000210 8a 6f 55 bc 3c 48 84 bd aa e8 24 bd 2b cd 4f be
       -0.013027081 -0.0645909 -0.04026095 -0.20293109
000220 63 fc f2 3c a8 ef d9 3e 9c d3 d5 3d 6e af 96 3e
       0.029661363 0.42565656 0.10440752 0.29430717
000230 51 71 c5 3e a9 2f af 3e 73 79 90 3c 60 8f d9 bb
       0.38563016 0.3421605 0.017636037 -0.006639406
000240 77 a0 ed bd 45 6c 28 3e e0 e7 83 3e fe d2 30 3c
       -0.11602872 0.16447552 0.25762844 0.010792492
000250 7c a9 a0 3e 72 2c d7 3d 82 31 89 bc 3f 52 4c bc
       0.31379306 0.10506524 -0.01674724 -0.012470781
000260 ff 67 a8 3e f8 e6 85 3c 10 38 14 3e f1 46 72 3e
       0.32891843 0.016345486 0.14474511 0.23659874
000270 6e c0 5d bd 67 8c a7 ba 7d b9 f2 bd 7b 0b 18 be
       -0.054138593 -0.0012782932 -0.11851785 -0.1484813
000280 53 51 78 3e cf d1 a2 3e 70 4c 86 bd bf 2c 32 be
       0.24249773 0.31800696 -0.06557548 -0.17399882
000290 ab 0e 97 3e 22 f1 80 bd 16 e5 c1 3c 3f 3f 46 bd
       0.29503378 -0.062959924 0.023668807 -0.04840016
0002a0 43 ba 34 3c 08 29 5f 3d 27 5c dd 3d 11 64 36 be
       0.011030736 0.05448249 0.10808592 -0.1781161
0002b0 da cb 92 bd ff b4 1e bd 8a b8 df bd cc 2d a3 3e
       -0.07167788 -0.03874683 -0.1092387 0.31870878
0002c0 7e d0 3f bd d6 67 90 bd 93 68 9f 3e 67 53 91 3e
       -0.046829693 -0.07051055 0.3113447 0.28383943
0002d0 f2 d2 ad be d2 cc 88 be 00 fb 92 be 2e 86 e9 ba
       -0.3395 -0.26718765 -0.28707123 -0.0017816478
0002e0 1e 8f b5 3e 7d 7b 4a be e8 6e cd bd 0d b2 34 bd
       0.35460752 -0.1977367 -0.10030919 -0.044115115
0002f0 40 5b c6 be f8 94 55 bd 48 ed 39 be 86 9a d3 3d
       -0.38741493 -0.05214402 -0.18156922 0.103322074
000300 4b 76 ed 3d c5 d2 0c be b9 e6 13 3e 81 7f 2e be
       0.11594828 -0.13752277 0.14443482 -0.17040826
000310 6d a4 b7 bd 6a 15 e7 bc 92 40 a3 3e a2 1e b8 3e
       -0.089669086 -0.028208453 0.318852 0.3596087
000320 2e db c0 bc 2c e8 49 3e cc 1b 8e 3d a0 45 90 3d
       -0.023542013 0.19717473 0.069388956 0.0704453
000330 39 ba 40 be 50 6c 80 be 2e 58 59 be 72 6d bd bb
       -0.18821038 -0.25082636 -0.21225044 -0.005780869
000340 08 ed 52 be 15 05 2c be 01 25 9f 3e c9 4a d1 be
       -0.20598233 -0.16798814 0.3108292 -0.4087737
000350 aa 44 7c be c2 03 5d 3d 5e 59 1d 3e c7 01 0f be
       -0.24635568 0.05395866 0.15366122 -0.13965522
000360 28 ec 13 3f 39 e4 45 3e 82 0f c6 bd 08 b4 24 bc
       0.5778222 0.19325341 -0.09670927 -0.010052688
000370 83 0e 54 3e 38 4a 8c be c2 d6 9e bd 7c 88 6a 3e
       0.20708661 -0.27400374 -0.077558056 0.22903627
000380 98 ba 40 be f5 0a c0 3e ff 0d 77 be 6c 4d 30 bd
       -0.1882118 0.3750836 -0.24126433 -0.043042585
000390 bd e2 53 bc 88 af ba 3d d4 1e 9e bd 5c c1 cb 3e
       -0.012932477 0.09115511 -0.07720724 0.3979596
0003a0 83 d8 da 3e c2 bd 0e be e8 99 eb 3d f7 9f 4e bc
       0.4274331 -0.13939574 0.11503965 -0.012611381
0003b0 79 e5 2a be cd 0d 98 bd 4f 2b 1f be 9a ed 17 be
       -0.166891 -0.07424507 -0.15543865 -0.14836732
0003c0 ae bb 99 be 9a 85 ee bd 6d 2b d2 3b f5 a6 0a 3e
       -0.30026 -0.11646576 0.006413868 0.13540252
0003d0 b9 60 0d 3f d5 3c 62 bc c5 a8 23 be 02 d5 b1 3e
       0.5522571 -0.013808449 -0.15982349 0.34732825
0003e0 28 13 ad bd 1e 9b 6f 3e 99 e5 a7 bd fd 26 fd bc
       -0.084509194 0.23399016 -0.08198089 -0.03090238
0003f0 66 16 73 bc 58 8a 95 bd e7 37 0f 3b c3 33 43 be
       -0.014836883 -0.073017776 0.0021853389 -0.19062714

fc2.bias f4 [20]
000000 5a 65 0b 3e 48 2f 06 ba 85 55 bd 3d 2f e8 4d 3e
       0.13612881 -0.000511874 0.09244827 0.20108102
000010 60 44 9e bd a4 1f ac 3e 8c 05 65 3e c0 dd 03 be
       -0.07727885 0.3361789 0.22365397 -0.1287756
000020 45 43 6c bd 32 54 c9 3e 5a f1 4d bc e9 97 a1 3e
       -0.05768134 0.39322048 -0.01256975 0.3156121
000030 13 06 f4 3e a4 97 19 3d 25 b1 2e bc 40 19 05 b9
       0.47660884 0.03749813 -0.010662352 -0.00012693275
000040 13 7b 19 be b4 dd b9 3e 2d c5 a9 bc 53 06 95 3e
       -0.14988355 0.3630196 -0.020723904 0.29106387

fc3.weight f4 [10, 20]
000000 e3 98 30 3e 6d f7 2b 3d 39 ed 2f 3e 26 2d d8 3d
       0.17245822 0.04198401 0.17180337 0.105554864
000010 84 fe 13 3d c4 c0 60 bc 3c 2c 90 3d 4a 61 28 3c
       0.036131397 -0.013717834 0.07039687 0.010277102
000020 26 6d 84 be 59 81 a3 be fa 74 4c be 3b ca ce 3d
       -0.25864524 -0.31934622 -0.19966498 0.10097166
000030 18 82 fe 3d 20 70 02 bf a2 97 ee bd 79 d5 e9 be
       0.12427157 -0.5095234 -0.116500154 -0.4567068
000040 aa b0 7f 3d 1b 15 1c 3e e1 07 67 be 11 91 98 be
       0.06242434 0.15242426 -0.225616 -0.29798177
000050 26 8c 0c be e3 3b 69 bf fe c0 ba be cb c2 45 3e
       -0.13725337 -0.91107005 -0.36475366 0.19312589
000060 1d 74 08 3e a0 c9 35 3e a7 76 e3 be 3e d0 14 3d
       0.13325544 0.17752695 -0.44426462 0.036331408
000070 08 9b de be 4a 2d df 3d f2 47 2f bf 79 09 74 3e
       -0.43477654 0.1089731 -0.68469155 0.23831739
000080 20 63 f3 bd 2d 8c 1b bf 5b b7 30 bf a5 da 2b bf
       -0.11884141 -0.60760766 -0.6902978 -0.671305
000090 d0 78 0b bf 14 7a 95 3e 5a ed 04 bf 28 8d 5a be
       -0.5448122 0.291947 -0.5192467 -0.2134291
0000a0 1e f0 ce 3d 1a 09 81 be bc a0 34 3e db 2a e0 be
       0.101043925 -0.25202256 0.1763944 -0.43782696
0000b0 53 ca c3 be 12 f4 69 3d 5b 1b 81 3d 3e 9e e2 be
       -0.382403 0.05711753 0.06304046 -0.44261354
0000c0 68 9c c5 3d 96 fc 11 3e 42 a4 80 be 8a b8 98 be
       0.09648973 0.1425651 -0.2512532 -0.29828292
0000d0 e9 e8 28 3e 27 b0 21 bf a0 60 ca be 16 86 a3 be
       0.16495098 -0.6315941 -0.39526844 -0.31938237
0000e0 d6 0a 87 3d 18 71 01 be bb 50 8a be f8 f4 96 3d
       0.06593864 -0.12640798 -0.27014717 0.07370943
0000f0 28 a5 e7 3d 9e e4 00 be b4 73 62 3d 34 9b 09 3e
       0.11310798 -0.1258721 0.055286124 0.13438112
000100 89 e8 e3 3d 00 4c 0b 3e c9 03 b7 ba 7f 48 1c bd
       0.11128337 0.1360321 -0.001396292 -0.038155075
000110 d3 2d b5 be 8c 98 cd bd 8d 58 f8 be 96 af 4e 3e
       -0.35386524 -0.10038862 -0.4850506 0.20184168
000120 95 43 64 3d 67 5e 08 bf 40 53 a4 be d3 55 22 bf
       0.055728514 -0.53269047 -0.32094765 -0.6341221
000130 da b6 9b bd 70 e0 80 3e 33 8e e9 be d5 96 54 be
       -0.076032355 0.25171232 -0.45616302 -0.20760663
000140 43 26 01 bd 89 19 ec be 0f fe 2a 3e ee fa b9 be
       -0.03153063 -0.46113232 0.16698478 -0.36324257
000150 c4 9c f5 bd 51 07 91 3d fe 4f 49 3d eb df 18 bf
       -0.11992791 0.070814736 0.049148552 -0.5971667
000160 8f 76 d5 3d c9 cc 26 3e 7f 12 b2 be 0a 6a 1f be
       0.10423004 0.16289057 -0.34779736 -0.15567794
000170 77 9b 2b 3e a8 95 10 bf 4e 5c db be 1c c8 56 be
       0.16758524 -0.5647836 -0.4284386 -0.20974773
000180 89 bb 67 3d 64 ac 7e bc 1a b4 3f be 08 22 a3 3d
       0.05657533 -0.015544031 -0.18721047 0.07965475
000190 f9 d3 28 bf 84 ab e7 3d ba a8 dc be 2f e3 f6 bb
       -0.65948445 0.11312011 -0.43097478 -0.0075344066
0001a0 0d 30 36 be 92 5d 34 bf d4 e7 27 bf 56 5c 37 3d
       -0.17791767 -0.70455277 -0.65588117 0.044765793
0001b0 86 69 ca 3c bc 54 fc be c8 76 05 3e 09 c1 bc be
       0.02470852 -0.49283397 0.13033593 -0.36866024
0001c0 f7 de 0c bf 76 d5 43 3e e7 85 51 3e c4 3c 06 3e
       -0.5502772 0.19124398 0.20461236 0.13109118
0001d0 d5 17 f5 be 5a ba 83 be 4e c1 de 3d 52 8b be be
       -0.47869745 -0.25728112 0.10876714 -0.37215668
0001e0 16 ea 17 3e ef 42 34 bd 3c 4f 2d 3e d5 bb 3c bd
       0.1483539 -0.044009145 0.16924757 -0.046077568
0001f0 44 cc 9c bd d6 3b e7 3c 1a d1 70 3d 57 67 c0 bd
       -0.07656148 0.028226774 0.058793165 -0.093947105
000200 35 e6 85 3d 55 5d 03 3e f0 74 55 be 5b 43 4a bd
       0.06538049 0.12828572 -0.2084539 -0.04938064
000210 01 c0 1c 3e 07 15 0e bf c0 e8 87 be 18 43 b4 be
       0.15307619 -0.55500835 -0.26544762 -0.35207438
000220 b8 90 6d 3d 1a c9 ea bc 1a 7d 13 be a9 a7 80 3d
       0.057999343 -0.028660346 -0.14403191 0.06281979
000230 ef 77 d4 bd 0b aa 77 3e 37 ad 03 bf 60 2d a4 be
       -0.10374438 0.2418596 -0.5143618 -0.32065868
000240 d8 96 b6 3d 20 44 cc be 03 d0 39 bf 9e 45 be 3d
       0.0891549 -0.39895725 -0.72583026 0.09290622
000250 d8 9c 02 3d fc 8a 2b bf 47 8c ae bc 0b 37 3f be
       0.03188786 -0.6700895 -0.021307124 -0.18673341
000260 af 06 66 bf 15 8f 55 3e c4 67 59 3e a3 3f 0d 3e
       -0.8985395 0.20855363 0.2123099 0.13793807
000270 48 83 b2 be 24 7c 06 bf 9a c9 e8 3d b0 42 f5 be
       -0.34865785 -0.52533174 0.113665774 -0.4790244
000280 a6 37 ba 3d fd 49 c9 be 9d f3 3e 3e 13 b0 00 3d
       0.09092645 -0.3931426 0.18647619 0.031417917
000290 8f eb 0c bf ed 5f 02 bf cc 16 18 3d 61 44 e4 be
       -0.55046934 -0.5092762 0.037131116 -0.4458342
0002a0 82 6d fd be 04 0d c3 be ed cf 35 3e dd d9 f4 be
       -0.4949761 -0.38095868 0.17755099 -0.47822466
0002b0 19 2e 7c 3d 85 73 92 3d 22 8f 30 3e bb 1e b6 3d
       0.0615674 0.0715094 0.17242101 0.0889258
0002c0 14 a0 38 be 14 79 47 3e 2a 9d 37 3e 58 8e 85 be
       -0.18029815 0.19479781 0.17931047 -0.26085162
0002d0 c1 43 3a bf a6 3a 0f 3d a2 1a 1f bf 32 1e 89 3d
       -0.72759634 0.03496804 -0.62150013 0.066952124
0002e0 af 2b ca be 5e 15 1f bf f9 b8 40 bf 99 99 cd 3d
       -0.39486453 -0.6214198 -0.75282246 0.10039062
0002f0 fd 30 bd 3d aa 9c 13 bf c3 df 2b 3e 69 41 40 bd
       0.092378594 -0.57660925 0.16784577 -0.04693738
000300 b6 95 21 bf b5 5f 56 3e 96 14 60 3e 9c b6 14 3e
       -0.63119066 0.20934947 0.21882853 0.14522785
000310 63 6b c7 bd ac bf c4 be 34 a2 1a 3e 01 e0 8b be
       -0.09737279 -0.38427484 0.15100938 -0.2731934

fc3.bias f4 [10]
000000 68 89 82 be f2 52 3f 3e f0 fb 78 bd cb 1b 55 3e
       -0.25495458 0.18683985 -0.06078714 0.20811383
000010 4a ad 55 bd 78 b6 1b 3f eb 35 ca bd 35 3c c5 bd
       -0.052167214 0.608253 -0.09873565 -0.09630624
000020 5f 77 10 3e e0 2a e6 be
       0.14108036 -0.44954586
