RFID_TRANS/distillation/result/distillation_weight.pth (torch, 129965 bytes, 40 tensors)

embedding_enc.weight f4 [3, 50]
-0.1653286 -0.17814459 -0.17442378 -0.06246038 -0.01818131 -0.112774 0.04820892 -0.049189027
-0.16102132 0.013716396 -0.16327372 -0.08468184 0.10153928 -0.16228986 -0.09131784 -0.08319689
-0.17227784 -0.13801667 -0.12344891 -0.087421425 -0.013957528 0.029823244 -0.024608482 0.08545048
-0.08058168 -0.15220822 -0.17322728 -0.019051898 0.12920365 -0.028309723 -0.04440691 -0.03550737
-0.049819395 -0.081710935 -0.025451994 -0.02221635 -0.013057975 -0.10146754 0.089574285 -0.12612103
0.06618226 0.092535324 -0.09718005 -0.01320206 -0.1882226 -0.01134282 -0.085250504 -0.033547275
-0.0652675 0.00079044973 -0.11288674 -0.14999214 0.012210092 0.008219412 0.08986111 -0.036983345
-0.040077936 -0.08264081 0.069957756 0.12066452 -0.050582714 -0.14254062 -0.15313645 -0.038510237
-0.028007537 0.08248552 -0.07308545 0.034774374 0.09198261 -0.015828233 0.05939452 0.07653476
0.060548253 0.095355324 -0.11701101 0.0625655 0.1459679 -0.17328355 0.055308912 -0.14541039
-0.04573937 0.006910026 -0.13547252 -0.10142014 0.056491762 -0.013490102 -0.07334677 -0.026263064
0.08839457 0.03189898 0.0046826755 0.09215134 -0.05507936 -0.082629696 -0.07461145 0.070989236
-0.11401779 0.13055977 -0.08707401 0.10984579 -0.16490984 -0.00024767488 -0.12392986 0.03142336
-0.17542027 0.06832982 -0.0804646 0.090941705 -0.04724566 0.034007326 -0.045721617 0.0323931
-0.1893977 0.0061542215 0.08367515 0.11041451 0.009081226 -0.12838121 -0.029894246 -0.011810464
-0.182515 -0.13818687 -0.1833411 0.06394975 0.019505976 -0.008208791 -0.002549492 -0.15767035
-0.20105451 -0.0648303 0.00900396 -0.15998861 -0.0050099557 -0.006094643 0.047821417 0.09834984
0.11111192 0.0073137204 0.04185283 -0.12453981 -0.12048705 0.014720738 0.041221563 -0.093202345
-0.07124031 0.09311022 -0.11663318 0.07855219 -0.13735466 -0.07078298
00000000: e74b 29be 896b 36be 269c 32be 75d6 7fbd
00000010: f8f0 94bc 0ef6 e6bd b776 453d 6f7a 49bd
00000020: c6e2 24be bcba 603c 3a31 27be ac6d adbd
00000030: d3f3 cf3d 502f 26be d904 bbbd 2263 aabd
00000040: 9a69 30be 3e54 0dbe c8d2 fcbd 010a b3bd
00000050: 1eae 64bc e04f f43c ba97 c9bc a900 af3d
00000060: 0208 a5bd 79dc 1bbe 7e62 31be ba12 9cbc
00000070: f64d 043e cbe9 e7bc 05e4 35bd 2d70 11bd
00000080: 6c0f 4cbd 1058 a7bd b380 d0bc 10ff b5bc
00000090: 1ef1 55bc 37ce cfbd b972 b73d df25 01be
000000a0: 918a 873d 2983 bd3d 5606 c7bd 744d 58bc
000000b0: 6dbd 40be 3cd7 39bc d197 aebd de68 09bd
000000c0: f8aa 85bd 2f36 4f3a 2a31 e7bd 8a97 19be
000000d0: d60c 483c b6aa 063c 1a09 b83d d97b 17bd
000000e0: c328 24bd 963f a9bd 0346 8f3d f61e f73d
000000f0: d22f 4fbd 2bf6 11be cdcf 1cbe e9bc 1dbd
00000100: 1070 e5bc 2bee a83d d3ad 95bd 936f 0e3d
00000110: 6161 bc3d 36aa 81bc ab47 733d 42be 9c3d
00000120: 7201 783d a749 c33d 78a3 efbd 5722 803d
00000130: 9c78 153e 3e71 31be 998b 623d 76e6 14be
00000140: 3559 3bbd 806d e23b 4fb9 0abe 5db5 cfbd
00000150: e863 673d 9705 5dbc d536 96bd a325 d7bc
00000160: 3608 b53d 81a8 023d 2171 993b d7b9 bc3d
00000170: e59a 61bd c239 a9bd e3cd 98bd ce62 913d
00000180: 2982 e9bd 76b1 053e dc53 b2bd d4f6 e03d
00000190: 20de 28be 5cda 81b9 f0ce fdbd c8b5 003d
000001a0: 5fa1 33be 81f0 8b3d a0ca a4bd a53f ba3d
000001b0: aa84 41bd 444b 0b3d 9746 3bbd a1ae 043d
000001c0: 78f1 41be 5aa9 c93b e15d ab3d 0121 e23d
000001d0: 6cc9 143c 5d76 03be c7e4 f4bc ad80 41bc
000001e0: 36e5 3abe dc80 0dbe c5bd 3bbe 16f8 823d
000001f0: ffca 9f3c 2a7e 06bc 6115 27bb 5674 21be
00000200: 3ce1 4dbe c0c5 84bd 5885 133c 0ed4 23be
00000210: 8e2a a4bb 92b5 c7bb 64e0 433d a46b c93d
00000220: a58e e33d efa7 ef3b e06d 2b3d ba0e ffbd
00000230: eac1 f6bd 402f 713c f1d7 283d dfe0 bebd
00000240: 71e6 91bd 92b0 be3d 60dd eebd f8df a03d
00000250: b3a6 0cbe abf6 90bd

embedding_enc.bias f4 [3]
0.08191786 -0.08155616 0.07317588
00000000: 8dc4 a73d ea06 a7bd 3cdd 953d

embedding_dec.weight f4 [3, 2]
0.69687194 -0.48488325 0.27866003 -0.43870452 0.06640264 0.18465953
00000000: 3366 323f 9e42 f8be 87ac 8e3e e19d e0be
00000010: 1bfe 873d 6317 3d3e

embedding_dec.bias f4 [3]
-0.28677857 0.33559823 -0.47795355
00000000: a4d4 92be 88d3 ab3e 54b6 f4be

Transformer_layer.encoder.layers.0.self_attn.in_proj_weight f4 [9, 3]
-0.47301316 0.6358729 -0.08733995 -0.22909738 -0.5550677 0.38921714 0.6406013 -0.10645839
0.35242763 -0.27182424 -0.5993365 -0.47128797 -0.04228093 -0.066218875 0.27371433 -0.16709672
0.6632468 0.42817545 -0.123794064 -0.6180812 0.19269748 0.5528915 -0.38488662 -0.7993422
-0.6794229 0.62210345 0.057370428
00000000: c82e f2be 91c8 223f 4adf b2bd 8198 6abe
00000010: eb18 0ebf 7847 c73e 72fe 233f db06 dabd
00000020: 6571 b43e 8c2c 8bbe 1e6e 19bf a84c f1be
00000030: c52e 2dbd c39d 87bd 4924 8c3e 671b 2bbe
00000040: 8bca 293f d039 db3e be87 fdbd 923a 1ebf
00000050: 7d52 453e 4c8a 0d3f dc0f c5be b1a1 4cbf
00000060: a9ee 2dbf 2c42 1f3f 41fd 6a3d

Transformer_layer.encoder.layers.0.self_attn.in_proj_bias f4 [9]
-0.033632368 0.031002952 -0.043033805 -0.0006392343 0.0006860029 0.00033913128 -0.0033708522 -0.008669397
0.0018510816
00000000: 18c2 09bd e7f9 fd3c 3744 30bd 4a92 27ba
00000010: e0d4 333a 6ecd b139 84e9 5cbb 160a 0ebc
00000020: fe9f f23a

Transformer_layer.encoder.layers.0.self_attn.out_proj.weight f4 [3, 3]
-0.5727681 0.083241984 0.13625681 0.5686956 0.40816098 -0.35564587 0.601634 0.8261461
-0.89480144
00000000: eea0 12bf c67a aa3d e886 0b3e 0996 113f
00000010: 7afa d03e 3717 b6be b004 1a3f 507e 533f
00000020: b511 65bf

Transformer_layer.encoder.layers.0.self_attn.out_proj.bias f4 [3]
0.01594971 -0.059402537 -0.0042876294
00000000: f7a8 823c 1350 73bd 3e7f 8cbb

Transformer_layer.encoder.layers.0.linear1.weight f4 [2048, 3]
0.0032493547 0.030956287 0.033477325 -0.008250035 0.050198983 -0.041018795 0.021815274 0.036247972
-0.047369506 0.049496252 0.021925962 -0.026417302 0.035800695 0.008477363 0.025645776 -0.024357362
0.017244574 0.00947414 -0.011929307 0.025872651 -0.0064506754 0.018922847 0.051406745 0.018190045
0.030364184 0.03422889 -0.02989412 0.055270214 -0.049146615 0.026898744 0.011303496 -0.042549677
0.005315911 0.016872508 -0.11017644 0.12006798 -0.01746871 0.04890346 0.051229287 -0.0011359858
-0.034599714 0.047281817 -0.0007985075 0.09874381 -0.072962426 -0.045010418 0.027977083 0.026171219
-0.04999073 0.007051076 -0.058759086 0.03286679 0.003016478 0.029824864 0.012082774 -0.024137406
-0.006838225 -0.008631553 0.06706484 -0.07236478 -0.05245536 -0.028047003 -0.00309835 0.021367911
-0.03211788 0.009353247 0.05409602 -0.0044398173 -0.043196235 0.008125492 -0.01202337 0.026100859
0.05003428 0.0030499883 0.02340087 0.053962167 0.043468066 -0.015520643 -0.024767201 0.016375054
0.017127793 -0.014622291 0.008797501 -0.020669583 0.058058154 -0.027226187 0.096478574 -0.04787423
-0.04158452 -0.03031359 -0.032033484 0.06466196 -0.011816514 0.016883468 0.032623786 -0.012987947
0.05405048 -0.050017115 0.051572103 -0.023458853 0.021575047 -0.053418502 -0.038290698 -0.030164303
-0.049344756 0.019818205 0.0004252866 0.03316788 0.030376066 0.01234692 0.040731844 -0.043253727
0.052879248 -0.049864434 0.025057498 -0.041440867 0.04366489 0.0109239705 -0.07372426 0.13696975
0.04706489 0.031193826 -0.011813223 0.044576522 -0.103623696 0.048508763 -0.020395093 0.02766307
-0.017759569 0.0120699685 0.03617212 -0.045132313 0.008351322 0.041462984 0.011091556 -0.03499465
0.011285659 0.011754068 0.038539942 -0.043444797 0.02869508 -0.015607879 -0.033880338 -0.026086066
-0.0066612246 0.014084637 0.023846213 -0.047602158 0.0033076697 -0.001081423 0.027988309 -0.003547706
0.07296012 -0.027071374 0.010989223 -0.040660642 0.005627044 0.0049563576 0.017034091 -0.044512324
-0.017905027 0.022320243 0.0072356537 0.024630103 -0.017204542 0.041124422 -0.0018706061 0.02780616
-0.053681724 -0.034274623 -0.050892476 0.057199895 -0.12549852 0.072793856 0.04731494 -0.033330813
0.04170922 -0.0073196013 -0.052197848 -0.006436294 0.006231867 0.017901432 -0.031192042 -0.02065276
-0.0030029826 -0.016052522 -0.0014014466 -0.056597847 0.036310773 0.007892653 -0.05137603 -0.023019005
-0.031150127 0.05815117 -0.023801623 0.007851866 -0.10884497 0.05879369 -0.0029982068 0.041429583
0.01649009 -0.0066970536 0.028650489 -0.07975089 -0.04052333 -0.020168915 0.03211419 0.007061161
0.027117107 -0.01674695 0.02439196 0.031131636 -0.0061999448 -0.02283657 0.014987472 0.009781945
-0.05716882 0.016931385 0.038261633 -0.0014135092 -0.04158119 0.03788499 0.016439918 0.024241408
0.023257181 -0.04424833 -0.039779548 0.031110112 0.011333782 -0.04139638 -0.026094751 0.03604911
-0.013370158 0.035242736 0.04323751 -0.027471218 -0.0022389553 -0.02035219 -0.041449036 -0.041985575
-0.0055585387 -0.10400793 -0.007530294 0.0035187788 0.0015224032 -0.043480366 0.015871035 -0.0043667904
-0.02065798 -0.020650811 -0.0442189 -0.036144767 0.03695804 -0.1048176 0.050168596 -0.01506234
00000000: 20f3 543b 0a98 fd3c 851f 093d 282b 07bc
00000010: 739d 4d3d 5303 28bd f2b5 b23c c178 143d
00000020: 8706 42bd 95bc 4a3d 139e b33c 1969 d8bc
00000030: c0a3 123d a3e4 0a3c 1717 d23c 1789 c7bc
00000040: 7e44 8d3c 6c39 1b3c 2473 43bc e2f2 d33c
00000050: 3060 d3bb 1604 9b3c e18f 523d 4a03 953c
00000060: 4fbe f83c 9833 0c3d 83e4 f4bc 0563 623d
00000070: f64d 49bd c15a dc3c 4c32 393c 9248 2ebd
00000080: 1831 ae3b 3738 8a3c 2fa4 e1bd 33e6 f53d
00000090: 8a1a 8fbc ff4e 483d cdd5 513d 5ce5 94ba
000000a0: 6eb8 0dbd 94aa 413d ee52 51ba 323a ca3d
000000b0: 536d 95bd d85c 38bd 3230 e53c 0665 d63c
000000c0: 14c3 4cbd b60c e73b 5ead 70bd 549f 063d
000000d0: 1ab0 453b 4653 f43c d4f6 453c cfbb c5bc
000000e0: 3013 e0bb 5b6b 0dbc 4a59 893d fc33 94bd
000000f0: 6edb 56bd d4c2 e5bc b00d 4bbb c20b af3c
00000100: 0a8e 03bd 5c3e 193c ca93 5d3d e37b 91bb
00000110: 89ee 30bd c920 053c abfd 44bc 78d1 d53c
00000120: bff0 4c3d 50e2 473b 2eb3 bf3c 6f07 5d3d
00000130: 920b 323d 4c4a 7ebc 96e4 cabc fa24 863c
00000140: 964f 8c3c 5592 6fbc 6523 103c 4253 a9bc
00000150: 63ce 6d3d 7409 dfbc 8f96 c53d c517 44bd
00000160: 8854 2abd 3554 f8bc 8b35 03bd 7d6d 843d
00000170: 0d9a 41bc 334f 8a3c 85a0 053d 66cb 54bc
00000180: 0964 5d3d bfde 4cbd 453d 533d c82c c0bc
00000190: 27be b03c 5ccd 5abd b5d6 1cbd 211b f7bc
000001a0: ba1d 4abd ca59 a23c 00f9 de39 0bdb 073d
000001b0: 3ad7 f83c bc4a 4a3c 6fd6 263d d22a 31bd
000001c0: e997 583d a63e 4cbd 6245 cd3c e6bd 29bd
000001d0: f5d9 323d 74fa 323c bffc 96bd cc41 0c3e
000001e0: 1dc7 403d 328a ff3c 408c 41bc df95 363d
000001f0: a938 d4bd 20b1 463d 9c13 a7bc aa9d e23c
00000200: 847c 91bc 1ec1 453c 3829 143d a9dc 38bd
00000210: fcd3 083c 17d5 293d 5cb9 353c 8d56 0fbd
00000220: 7ce7 383c 2294 403c 0fdc 1d3d 2cf3 31bd
00000230: f211 eb3c 30b8 7fbc 1cc6 0abd 72b2 d5bc
00000240: 6746 dabb 40c3 663c 2259 c33c 7bfa 42bd
00000250: 7dc5 583b 89be 8dba bd47 e53c a180 68bb
00000260: 1e6c 953d c9c4 ddbc 240c 343c c68b 26bd
00000270: 1163 b83b f168 a23b 148b 8b3c 8e52 36bd
00000280: 90ad 92bc f1d8 b63c 1019 ed3b 12c5 c93c
00000290: 8af0 8cbc 1572 283d 202f f5ba bec9 e33c
000002a0: 5ee1 5bbd 8c63 0cbd a174 50bd 704a 6a3d
000002b0: af82 00be f214 953d 4fcd 413d e485 08bd
000002c0: 49d7 2a3d 44d9 efbb 69cd 55bd 8ce7 d2bb
000002d0: b034 cc3b 06a6 923c 7486 ffbc fa2f a9bc
000002e0: b0cd 44bb 9480 83bc bfb0 b7ba 25d3 67bd
000002f0: 9bba 143d 3050 013c ac6f 52bd 5a92 bcbc
00000300: 8d2e ffbc ec2f 6e3d 9ffb c2bc 1da5 003c
00000310: 1dea debd a7d1 703d 907d 44bb 11b2 293d
00000320: 3a16 873c f572 dbbb 6eb4 ea3c 6f54 a3bd
00000330: cbfb 25bd 4839 a5bc 2b8a 033d 5061 e73b
00000340: b224 de3c e630 89bc a6d1 c73c c607 ff3c
00000350: e828 cbbb c213 bbbc 048e 753c 7344 203c
00000360: da29 6abd b0b3 8a3c 3bb8 1c3d 8045 b9ba
00000370: 0a51 2abd 4b2d 1b3d 02ad 863c eb95 c63c
00000380: d885 be3c bd3d 35bd e1ef 22bd a2da fe3c
00000390: 54b1 393c 408f 29bd a9c4 d5bc 3ba8 133d
000003a0: 820e 5bbc b05a 103d d119 313d 520b e1bc
000003b0: 70bb 12bb a3b9 a6bc 77c6 29bd 11f9 2bbd
000003c0: 6724 b6bb 1c02 d5bd afc0 f6bb 509b 663b
000003d0: 608b c73a 7818 32bd f903 823c 4b17 8fbb
000003e0: ed3a a9bc e42b a9bc e11e 35bd 890c 14bd
000003f0: 5061 173d 9caa d6bd 967d 4d3d 08c8 76bc

Transformer_layer.encoder.layers.0.linear1.bias f4 [2048]
-0.44198966 -0.408715 -0.4654108 0.34016424 0.30121374 -0.060107946 -0.44839972 -0.08733502
-0.078988776 0.047139503 -0.11177242 0.3829197 -0.3574043 0.5447725 0.17491171 -0.47006175
0.15410554 0.48718327 -0.49043423 0.32191178 -0.06460601 -0.14817989 0.28959614 0.13223124
-0.06239873 0.011116189 -0.23665598 -0.044850353 0.47627604 -0.32945913 0.081662215 0.17541213
-0.18007231 0.2958103 0.018563922 -0.3594875 -0.045761406 0.15668608 0.37444568 0.08872548
-0.33266062 0.058058295 -0.35696042 0.10884316 -0.023541927 -0.08077098 -0.4457093 -0.3157387
0.15783508 0.43445063 0.1175923 -0.327 0.30746055 0.1269172 -0.4731551 -0.2835148
-0.23159063 0.60004175 -0.41138554 0.14677893 -0.14257509 -0.5086 0.55044425 -0.13447419
0.45546567 0.3071449 -0.31886756 0.20470458 -0.13094315 -0.3132369 -0.20233986 0.21270443
0.23445281 -0.30642053 0.174144 -0.48040932 -0.22455981 0.08915152 -0.40851647 0.17576846
0.32937035 -0.44923168 0.42734766 0.31646383 0.0430759 -0.122733295 -0.057501733 0.46354923
-0.009485768 0.0932384 0.22973381 -0.057771917 0.5728498 -0.18983942 -0.43426615 -0.4717579
0.13205871 -0.4287901 -0.4538912 -0.37355322 -0.24029094 -0.5176045 -0.16924435 0.4335784
-0.045152854 -0.04987872 -0.20226464 -0.4238907 0.23470093 0.2995892 0.11784476 -0.36691737
0.2358448 -0.12421265 0.44621012 -0.5128375 0.3739122 -0.40857977 0.07982581 -0.3017837
-0.13360533 0.39717773 0.476905 -0.3524766 0.14799123 0.37460676 0.12115659 0.058754604
-0.2953857 -0.45730823 -0.28487328 -0.03363968 -0.057811797 0.4019824 -0.030700326 -0.052870274
0.35023767 0.03007384 0.028080877 -0.5203272 0.24740516 0.2851091 -0.39033818 0.43952724
-0.015205006 -0.2122015 0.5067398 0.46467438 0.4696112 0.25282484 -0.3967225 0.31776378
0.24317546 0.086885154 0.55143803 0.45276326 0.22896989 0.41997308 0.40866712 -0.16426194
-0.037195936 0.47245762 -0.0391538 -0.004002034 0.5288504 -0.47932622 -0.1115323 0.2709544
-0.43269515 0.14030251 0.22307004 0.26366585 0.122679725 -0.22120643 0.084704235 -0.24095207
0.29073137 0.21056877 -0.09821559 0.37581596 0.67146224 -0.057132423 0.035977196 -0.3166257
-0.36781353 0.08889818 -0.18451694 -0.06565821 -0.3720127 -0.28922924 0.30949968 -0.50876874
0.22653843 -0.45499212 -0.21431473 -0.13275954 0.1659669 -0.5471036 -0.1284324 0.117103994
-0.19512129 0.5306559 0.6018457 -0.28112757 0.005198546 -0.27692345 -0.21571735 0.48001733
0.02392565 -0.2607639 0.10920903 -0.24135607 0.2098592 0.09047142 -0.060486913 -0.36550617
-0.51125973 0.41455573 -0.46963185 -0.5590047 -0.4775136 -0.23646188 0.14678736 0.4209439
-0.14672884 -0.4489286 0.077122256 0.0236119 -0.25383332 0.42151383 -0.055001616 -0.20101607
0.45635036 -0.44303754 0.035350777 -0.48344398 -0.04740208 -0.32385743 0.36906433 0.48302552
-0.39266202 -0.06788077 0.2926915 -0.15148646 -0.22642636 0.5802556 0.47821903 0.4244325
-0.35655582 0.5673627 -0.03704995 0.51694894 -0.022832558 -0.51146257 -0.12724578 0.6234406
00000000: 784c e2be 1843 d1be 534a eebe 022a ae3e
00000010: b038 9a3e c033 76bd a694 e5be b4dc b2bd
00000020: dec4 a1bd 5a15 413d f0e8 e4bd 0d0e c43e
00000030: b2fd b6be 3676 0b3f 0e1c 333e efab f0be
00000040: d8cd 1d3e 1670 f93e 321a fbbe 9fd1 a43e
00000050: 2850 84bd 78bc 17be f245 943e a067 073e
00000060: d095 7fbd ad20 363c f255 72be 01b5 37bd
00000070: 74da f33e deae a8be 853e a73d 3d9f 333e
00000080: e064 38be 7374 973e 5e13 983c bf0e b8be
00000090: 5070 3bbd 5172 203e 58b7 bf3e b4b5 b53d
000000a0: 7e52 aabe 89ce 6d3d 84c3 b6be 2ae9 de3d
000000b0: 00db c0bc 416b a5bd 0234 e4be 81a8 a1be
000000c0: 859f 213e 5070 de3e 3bd4 f03d 8b6c a7be
000000d0: 786b 9d3e 95f6 013e 6341 f2be da28 91be
000000e0: 1826 6dbe 569c 193f 20a1 d2be 374d 163e
000000f0: 34ff 11be 9c33 02bf eae9 0c3f 9ab3 09be
00000100: cc32 e93e 1942 9d3e 9c42 a3be 149e 513e
00000110: f615 06be 9660 a0be 2e32 4fbe 31cf 593e
00000120: 6614 703e 27e3 9cbe ce52 323e 36f8 f5be
00000130: 02f3 65be 1295 b63d 1229 d1be a6fc 333e
00000140: 3ba3 a83e b201 e6be 50cd da3e 8c07 a23e
00000150: 5b70 303d 985b fbbd f086 6bbd 5356 ed3e
00000160: 326a 1bbc c6f3 be3d 573f 6b3e 3fa2 6cbd
00000170: 49a6 123f 4465 42be 2258 debe 408a f1be
00000180: 663a 073e 608a dbbe 6d64 e8be 5e42 bfbe
00000190: d40e 76be ba81 04bf 644e 2dbe fdfd dd3e
000001a0: 33f2 38bd a14d 4cbd 761e 4fbe 3408 d9be
000001b0: 7155 703e c163 993e 9858 f13d 98dc bbbe
000001c0: 4d81 713e 3463 febd a775 e43e 5249 03bf
000001d0: 6b71 bf3e 5e31 d1be b77b a33d 6583 9abe
000001e0: d6cf 08be e15a cb3e e42c f43e d077 b4be
000001f0: 038b 173e 75cc bf3e f220 f83d aba8 703d
00000200: cb3c 97be 4e24 eabe e9da 91be c3c9 09bd
00000210: 10cc 6cbd a3d0 cd3e 407f fbbc 808e 58bd
00000220: 5a52 b33e 6a5d f63c de09 e63c 2a34 05bf
00000230: c757 7d3e d2f9 913e 68da c7be b709 e13e
00000240: 6b1e 79bc 5a4b 59be b3b9 013f cde9 ed3e
00000250: e170 f03e 4272 813e 361f cbbe efb1 a23e
00000260: fd02 793e d8f0 b13d 0b2b 0d3f 96d0 e73e
00000270: 1577 6a3e b606 d73e d13c d13e 4834 28be
00000280: c45a 18bd f7e5 f13e bc5f 20bd 7f23 83bb
00000290: bd62 073f 3f6a f5be 0c6b e4bd 89ba 8a3e
000002a0: 388a ddbe 76ab 0f3e 796c 643e 36ff 863e
000002b0: 823f fb3d f083 62be 6a79 ad3d 24bc 76be
000002c0: beda 943e 579f 573e 4125 c9bd f36a c03e
000002d0: f3e4 2b3f b003 6abd d35c 133d c41c a2be
000002e0: 0e52 bcbe 4010 b63d 02f2 3cbe d077 86bd
000002f0: 7378 bebe db15 94be be76 9e3e ab3e 02bf
00000300: b1f9 673e baf4 e8be 5275 5bbe 1ef2 07be
00000310: 3af3 293e fb0e 0cbf c883 03be 38d4 ef3d
00000320: e0cd 47be 11d9 073f 8f12 1a3f f4ef 8fbe
00000330: 9158 aa3b e9c8 8dbe 02e5 5cbe d5c4 f53e
00000340: baff c33c d982 85be fca8 df3d 0c26 77be
00000350: 55e5 563e 1449 b93d 20c1 77bd a023 bbbe
00000360: ebe1 02bf a640 d43e 9673 f0be ef1a 0fbf
00000370: aa7c f4be 1023 72be 6d4f 163e f585 d73e
00000380: 1640 16be f8d9 e5be 46f2 9d3d be6d c13c
00000390: 71f6 81be a9d0 d73e 6049 61bd 28d7 4dbe
000003a0: c1a6 e93e d1d5 e2be facb 103d f885 f7be
000003b0: af28 42bd a4d0 a5be 00f6 bc3e 1f4f f73e
000003c0: ff0a c9be 1305 8bbd a9db 953e 441f 1bbe
000003d0: 50dc 67be a28b 143f 20d9 f43e 374f d93e
000003e0: 7c8e b6be af3e 113f b0c1 17bd c456 043f
000003f0: 580b bbbc 36ef 02bf b84c 02be ce99 1f3f

Transformer_layer.encoder.layers.0.linear2.weight f4 [3, 2048]
0.00038758293 -0.015874702 -0.00038177893 -0.01528467 0.047530975 0.048296783 -0.010425348 0.04149085
0.0036982957 -0.02017088 -0.049777776 0.03317878 -0.050685067 0.07243512 -0.02351147 -0.028763603
-0.014254026 0.014035837 0.038079467 -0.0067021674 0.038394105 0.03901842 -0.0036407681 0.0039072568
0.0010148585 -0.012829688 0.053184103 -0.02075692 0.056093127 0.038273934 -0.018458905 -0.0125009995
0.030830536 -0.0065250713 -0.0013450041 -0.0432526 -0.013364442 0.012072282 0.035684794 0.080535404
-0.037132785 -0.016423892 0.03944054 -0.037444964 0.000111002475 0.0139397625 0.006891772 0.031959053
-0.023941278 0.055557534 -0.02897005 -0.0056007616 -0.0039017715 0.061803162 -0.010688029 0.04049204
0.04888482 0.019372553 0.000116508454 0.06795422 0.004664015 -0.046376217 0.059108417 -0.051090933
0.069016814 0.03833312 -0.023313709 -0.03462134 0.041031983 0.046642426 -0.04716373 -0.016636759
0.056825574 0.003945738 0.037176073 -0.011678584 0.012051348 -0.024971899 0.049404126 0.01413698
0.01022763 -0.05015276 0.0160935 0.0021412354 0.0433295 -0.024889255 -0.036371823 0.017058631
0.038461708 0.042604625 0.082838126 -0.04679882 -0.009719276 0.024377313 -0.052496154 -0.042582914
0.053753868 -0.033718277 -0.03151697 0.050163005 0.036683697 0.0027555674 -0.016014494 0.046558216
-0.005731718 -0.027511744 -0.00453043 0.03550614 0.006053044 0.046773512 0.060275942 -0.029926106
0.019283336 0.011796597 -0.021694358 -0.040813643 0.032856695 -0.023262689 0.04114279 -0.012828287
-0.009285349 -0.025084948 -0.0025011385 0.01875538 -0.019016212 0.03785269 0.018141882 -0.003077775
0.012745548 -0.040977318 -0.007831581 0.04507043 0.045996297 -0.015242123 0.032900255 0.011313584
-0.02184609 -0.02535292 0.0260471 -0.039154224 0.04227375 0.04076939 0.042676087 0.056392387
0.038390126 -0.0027700663 -0.02690935 -0.022038443 0.022418322 -0.035178605 0.018747222 0.029680228
0.037385363 -0.003441483 -0.00040044112 -0.025991013 0.0749118 0.048451096 0.06554708 -0.038946867
-0.016063448 0.009585348 0.03364442 0.044070017 0.067694284 -0.03039199 0.01319297 0.013766497
0.022713777 0.039846435 -0.0031731338 -0.011905726 0.025269208 -0.01430897 -0.055594794 0.0021459796
0.021904493 -0.01381454 0.033804405 0.008960688 0.06265948 0.012675006 -0.025158335 -0.011116728
-0.033532463 0.048524473 0.023001935 -0.029118793 -0.036411606 0.028642464 0.015766965 0.017208006
0.0022359048 -0.023953253 -0.0041534044 -0.0018324144 0.035317004 0.05358981 0.008302342 -0.030088732
-0.005354747 -0.027195955 0.037784223 0.005346764 -0.031706072 -0.050353236 -0.04884518 0.05224796
0.047682244 -0.05318058 0.041213885 0.03141125 0.0708536 -0.030079935 0.025571208 -0.041593075
-0.015827846 0.008496917 -0.049578376 -0.05262264 0.041855704 -0.039765336 0.014873593 0.04379657
0.0016948469 0.02824058 0.027473433 -0.061394244 -0.00236997 -0.02836702 -0.008999642 0.052564714
-0.022681966 0.04548197 0.02604082 0.02328885 -0.0053284722 -0.029199569 0.03647963 0.0060414826
0.034230623 0.030763749 0.049662646 -0.050886568 0.05277897 0.013018936 0.025504673 0.039537568
0.0056681037 0.018055774 -0.03489853 0.026506664 -0.033223867 -0.041140456 -0.033351943 -0.0009653192
00000000: 8034 cb39 aa0b 82bc 8029 c8b9 8d6c 7abc
00000010: d7af 423d d9d2 453d 14cf 2abc 4ff2 293d
00000020: 1b5f 723b 673d a5bc c8e3 4bbd 79e6 073d
00000030: 259b 4fbd dd58 943d 209b c0bc a6a1 ebbc
00000040: b889 69bc 91f6 653c 37f9 1b3d db9d dbbb
00000050: 2343 1d3d c7d1 1f3d f499 6ebb 7208 803b
00000060: 0005 853a 9d33 52bc 93d7 593d 6b0a aabc
00000070: e8c1 653d 21c5 1c3d 2137 97bc fed0 4cbc
00000080: 5290 fc3c 44d0 d5bb d94a b0ba a329 31bd
00000090: 88f6 5abc d2ca 453c 382a 123d bfef a43d
000000a0: 8c18 18bd 668b 86bc 678c 213d e45f 19bd
000000b0: 00ca e838 9a63 643c 60d4 e13b 7fe7 023d
000000c0: 8020 c4bc 4c90 633d 9952 edbc 9886 b7bb
000000d0: ddb4 7fbb 5025 7d3d d81c 2fbc fbda 253d
000000e0: 733b 483d 30b3 9e3c 0056 f438 952b 8b3d
000000f0: 98d4 983b fdf4 3dbd ab1b 723d ba44 51bd
00000100: b058 8d3d 3103 1d3d 64fc bebc 1bcf 0dbd
00000110: 2711 283d 210c 3f3d c12e 41bd d049 88bc
00000120: efc1 683d 404b 813b f045 183d 8857 3fbc
00000130: 0473 453c de91 ccbc fb5b 4a3d cb9e 673c
00000140: ca91 273c fb6c 4dbd 84d6 833c f853 0c3b
00000150: 467a 313d 8de4 cbbc 9ffa 14bd 8bbe 8b3c
00000160: 068a 1d3d 3082 2e3d 09a7 a93d 1fb0 3fbd
00000170: 993d 1fbc eeb2 c73c 3506 57bd 6c6b 2ebd
00000180: 042d 5c3d 2d1c 0abd f017 01bd b977 4d3d
00000190: a541 163d c096 343b d430 83bc d4b3 3e3d
000001a0: 23d1 bbbb 4f60 e1bc 0074 94bb e36e 113d
000001b0: 9d58 c63b 9595 3f3d e8e3 763d 9827 f5bc
000001c0: 16f8 9d3c 8446 413c 5eb8 b1bc 352c 27bd
000001d0: be94 063d 6591 bebc 5885 283d bc2d 52bc
000001e0: 9421 18bc f37e cdbc 24ea 23bb e2a4 993c
000001f0: e3c7 9bbc 6c0b 1b3d 499e 943c 7fb4 49bb
00000200: b4d2 503c d5d7 27bd 0850 00bc c59b 383d
00000210: 9d66 3c3d 19ba 79bc 6bc2 063d 9c5c 393c
00000220: 92f6 b2bc edb0 cfbc ba60 d53c 2e60 20bd
00000230: 3d27 2d3d cefd 263d 1fcd 2e3d b4fb 663d
00000240: f73e 1d3d 008a 35bb ff70 dcbc f789 b4bc
00000250: a1a6 b73c 7117 10bd c693 993c f323 f33c
00000260: 6521 193d 818a 61bb 4cf2 d1b9 1beb d4bc
00000270: 5c6b 993d a874 463d 8c3d 863d c086 1fbd
00000280: 7e97 83bc dd0b 1d3c bbce 093d c382 343d
00000290: 4da3 8a3d 9ff8 f8bc 5427 583c e08c 613c
000002a0: 3e12 ba3c 0436 233d 5af4 4fbb 3c10 43bc
000002b0: 5f01 cf3c 2c70 6abc 5eb7 63bd 90a3 0c3b
000002c0: 0d71 b33c 6156 62bc 7d76 0a3d d9cf 123c
000002d0: 9d53 803d d4aa 4f3c da18 cebc f022 36bc
000002e0: 5659 09bd 99c1 463d 8e6e bc3c 898a eebc
000002f0: 5624 15bd 9aa3 ea3c b929 813c cef7 8c3c
00000300: 4288 123b 9d39 c4bc 4819 88bb a02d f0ba
00000310: 90a8 103d fd80 5b3d 8c06 083c a57c f6bc
00000320: e076 afbb 0dca debc a1c3 1a3d e833 af3b
00000330: 3ade 01bd 323f 4ebd e211 48bd f501 563d
00000340: 754e 433d e1d3 59bd e4cf 283d 15a9 003d
00000350: b11b 913d 326a f6bc b67a d13c 805d 2abd
00000360: 66a9 81bc a736 0b3c b212 4bbd d68a 57bd
00000370: e370 2b3d fae0 22bd 5fb0 733c 0864 333d
00000380: a025 de3a ca58 e73c f70f e13c 8878 7bbd
00000390: 8051 1bbb f461 e8bc 3c73 13bc 194e 573d
000003a0: 88cf b9bc 4d4b 3a3d 8f53 d53c 42c8 be3c
000003b0: 779a aebb ef33 efbc aa6b 153d a1f7 c53b
000003c0: 6935 0c3d 4204 fc3c 0f6b 4b3d 6f6e 50bd
000003d0: c32e 583d 604d 553c 2def d03c 25f2 213d
000003e0: 80bb b93b b4e9 933c c3f1 0ebd 8124 d93c
000003f0: c015 08bd e582 28bd 0c9c 08bd 7a0d 7dba

Transformer_layer.encoder.layers.0.linear2.bias f4 [3]
0.033518262 -0.00936386 -0.112216674
00000000: 724a 093d e06a 19bc dbd1 e5bd

Transformer_layer.encoder.layers.0.norm1.weight f4 [3]
0.9602324 0.9903127 0.8915677
00000000: cad1 753f 2285 7d3f c83d 643f

Transformer_layer.encoder.layers.0.norm1.bias f4 [3]
0.03446904 -0.00022240325 -0.07282967
00000000: 682f 0d3d eb34 69b9 b927 95bd

Transformer_layer.encoder.layers.0.norm2.weight f4 [3]
1.0293226 0.88731676 1.1559198
00000000: d8c0 833f 3127 633f 2ef5 933f

Transformer_layer.encoder.layers.0.norm2.bias f4 [3]
0.0424094 -0.011031451 -0.12961194
00000000: 7bb5 2d3d 42bd 34bc feb8 04be

Transformer_layer.encoder.norm.weight f4 [3]
0.96764034 0.8493168 0.8660419
00000000: 47b7 773f d36c 593f ecb4 5d3f

Transformer_layer.encoder.norm.bias f4 [3]
-0.035925962 -0.083897606 0.04066965
00000000: 1a27 13bd 82d2 abbd 3895 263d

Transformer_layer.decoder.layers.0.self_attn.in_proj_weight f4 [9, 3]
0.3442826 -0.15567525 -0.67676556 -0.023183294 0.52853686 0.78883076 0.5592635 -0.75475305
0.04942267 -0.30577078 -0.12264217 -0.19032557 0.20646116 0.6211361 -0.2048875 0.19981098
-0.047617633 0.09965639 -0.1882662 0.04524093 -0.31224632 0.43880856 -0.3787838 0.5914019
0.05504363 0.5110086 0.5139701
00000000: cf45 b03e 5569 1fbe 8240 2dbf e4ea bdbc
00000010: 314e 073f d0f0 493f e52b 0f3f 7f37 41bf
00000020: 6d6f 4a3d fd8d 9cbe d12b fbbd b5e4 42be
00000030: 8e6a 533e c702 1f3f 07ce 51be 409b 4c3e
00000040: b50a 43bd a618 cc3d dbc8 40be 8e4e 393d
00000050: c0de 9fbe 84ab e03e f3ef c1be 1d66 173f
00000060: 6e75 613d 76d1 023f 8b93 033f

Transformer_layer.decoder.layers.0.self_attn.in_proj_bias f4 [9]
0.08365918 -0.07900813 -0.06491437 0.00089924264 0.00091813476 0.0025937653 0.011911214 -0.014160928
-0.042690992
00000000: 8155 ab3d 04cf a1bd d3f1 84bd 27bb 6b3a
00000010: fbae 703a 29fc 293b 4127 433c 3d03 68bc
00000020: c0dc 2ebd

Transformer_layer.decoder.layers.0.self_attn.out_proj.weight f4 [3, 3]
-0.26214194 -0.27327058 -0.48514265 0.70271975 0.3790594 -0.5680623 0.20058334 0.0023588855
-0.09576588
00000000: 7837 86be 1fea 8bbe 9e64 f8be 71e5 333f
00000010: 1314 c23e 886c 11bf b865 4d3e 8897 1a3b
00000020: e720 c4bd

Transformer_layer.decoder.layers.0.self_attn.out_proj.bias f4 [3]
-0.00020565762 0.02857198 -0.08936942
00000000: cca5 57b9 c90f ea3c 5107 b7bd

Transformer_layer.decoder.layers.0.multihead_attn.in_proj_weight f4 [9, 3]
-0.4894774 0.4493354 0.4229838 0.62732023 -0.7430328 0.4390074 0.13133904 0.7277613
-0.5812042 0.5521948 0.10024766 0.47681478 -0.18331455 0.59488904 0.23512052 0.59861326
0.4530608 -0.33020383 0.5064009 0.15293658 0.5945952 0.26540643 -0.13999781 0.5068206
0.31930137 0.06770448 0.22077793
00000000: c89c fabe 4a0f e63e 5591 d83e 0f98 203f
00000010: 6637 3ebf 94c5 e03e be7d 063e 914e 3a3f
00000020: ccc9 14bf a35c 0d3f a54e cd3d 1121 f43e
00000030: cfb6 3bbe a64a 183f 6fc3 703e b83e 193f
00000040: 96f7 e73e 7a10 a9be 7da3 013f 689b 1c3e
00000050: 6437 183f 5ae3 873e 965b 0fbe ffbe 013f
00000060: 787b a33e a5a8 8a3d 9c13 623e

Transformer_layer.decoder.layers.0.multihead_attn.in_proj_bias f4 [9]
-0.04887754 0.06322972 0.0056091826 0.0033617697 0.006647049 -0.002394582 -0.06740193 0.085048124
-0.07366811
00000000: d133 48bd 957e 813d 3ccd b73b 2351 5c3b
00000010: 7dcf d93b 6bee 1cbb 060a 8abd b62d ae3d
00000020: 4edf 96bd

Transformer_layer.decoder.layers.0.multihead_attn.out_proj.weight f4 [3, 3]
-0.110652775 0.5146968 -0.8287873 0.52648056 -0.56016487 -0.5108332 0.096104346 0.36744472
0.47873566
00000000: ec9d e2bd 2bc3 033f 682b 54bf 6ec7 063f
00000010: f766 0fbf f7c5 02bf 5bd2 c43d b721 bc3e
00000020: d71c f53e

Transformer_layer.decoder.layers.0.multihead_attn.out_proj.bias f4 [3]
0.14135662 -0.041512728 -0.01574679
00000000: cabf 103e 4009 2abd 6aff 80bc

Transformer_layer.decoder.layers.0.linear1.weight f4 [2048, 3]
-0.024305917 0.007796741 -0.013898229 -0.03628789 0.059207913 -0.017573344 -0.039606847 0.000251827
0.0010343398 -0.03006289 -0.013190169 -0.02428208 -0.014720857 0.028494556 0.02167024 0.121873796
-0.11359512 -0.0017571837 -0.071452215 0.051484838 0.005099458 0.009683414 0.04559752 0.01019869
-0.06941431 0.0072030365 -0.033168815 -0.06618399 0.08178768 -0.01954727 -0.050315544 -0.00762574
-0.012115922 0.046265747 -0.021244079 0.03745557 -0.075420275 0.025102584 -0.033094466 -0.018428039
-0.0014697015 0.016688462 0.04097658 0.051160302 0.048128624 -0.03037944 0.07179531 0.015507269
-0.023409983 0.05395653 -0.006729414 0.026149224 -0.025406964 0.011170398 0.009878392 0.13505752
-0.07882742 -0.026118891 -0.001327127 -0.04764105 -0.00076176756 -0.02066489 -0.009513327 -0.062329277
0.030388603 0.00730913 0.024735767 -0.0374604 0.043858174 -0.020945609 0.033207443 0.048875544
-0.039101537 0.006836735 -0.0312809 -0.046472244 -0.0030486304 -0.045934215 -0.011465366 -0.03996475
0.105266005 -0.035009082 -0.04752797 -0.019000828 -0.024336604 0.0072950553 0.06601377 -0.012044107
-0.013918409 -0.014444687 -0.11388398 0.12335221 0.04893848 0.0016605743 0.049148396 0.015875567
-0.124897204 0.04020476 -0.023929473 -0.081393376 0.059005354 0.024122268 -0.102201335 0.08097123
0.05273975 -0.01007392 0.0026286016 -0.009906065 0.021618057 -0.003719572 -0.03799341 0.017414238
0.01542655 0.036502283 -0.054347385 0.06974121 0.042668328 0.0018753821 0.010449427 0.03807154
0.038087737 -0.0025685467 -0.01112026 -0.112023704 0.03881812 0.024534434 -0.04006468 0.047916293
-0.028439127 -0.0004246123 0.010099117 -0.00854858 -0.04279984 0.044591498 -0.04110781 0.035289843
-0.05103488 0.047765244 -0.06559332 -0.00958315 -0.029149732 0.00017964467 -0.020531714 -0.017346371
-0.022767965 0.0050290227 0.021757644 0.029120471 -0.013447817 -0.0072109066 0.033324335 -0.02859299
0.020217296 0.0997079 -0.14518426 -0.07093303 0.050246987 0.019900974 -0.016569778 0.016082894
-0.01527708 0.021567736 0.02651461 0.084960826 0.013393642 0.040799774 0.026719805 0.033922605
-0.015228287 0.042661306 -0.0055603413 0.028444804 0.03627454 0.03779578 0.00768169 -0.021284819
0.0010931715 0.0199222 -0.047135442 0.028074104 -0.064354725 0.05986067 0.031102967 -0.013104747
0.023364423 0.0029363153 -0.05825348 -0.007708546 -0.03902942 0.0042867586 -0.010790739 0.0022146478
-0.017842233 0.016454186 0.036849227 0.009879598 0.027118543 0.010334945 -0.024134608 -0.014080083
-0.03288639 0.115225896 -0.12449749 -0.06720837 -0.07297303 0.22506382 -0.05214722 -0.07419877
0.099497266 -0.0014231843 -0.07516805 0.06667902 -0.0006469835 -0.06015233 0.08499191 -0.020863736
0.033189848 0.11637539 -0.11424642 0.029996399 -0.021124389 0.032834772 -0.04607886 0.029435517
-0.023518072 -0.0153278895 -0.010510472 0.033103697 0.027210739 -0.019183567 -0.002165165 0.029193971
0.029432792 -0.010167055 -0.07445346 0.07742487 0.07959449 -0.014542747 0.04126637 0.01913273
0.021646965 -0.038915366 -0.03091276 0.0070430413 -0.04019675 0.052396525 -0.0037972853 0.0155030005
-0.048847467 -0.004401156 -0.0023091459 0.044735648 0.02996179 0.03356314 0.037680853 -0.1649322
00000000: 341d c7bc ce7b ff3b 66b5 63bc 9ca2 14bd
00000010: ff83 723d f9f5 8fbc ca3a 22bd a607 8439
00000020: af92 873a 7346 f6bc 941b 58bc 36eb c6bc
00000030: c02f 71bc 6a6d e93c ca85 b13c f898 f93d
00000040: 8fa4 e8bd 4d51 e6ba 8a55 92bd c4e1 523d
00000050: 5b19 a73b 2fa7 1e3c 77c4 3a3d 6818 273c
00000060: 1729 8ebd 7307 ec3b 06dc 07bd 798b 87bd
00000070: 4d80 a73d 9921 a0bc ac17 4ebd 58e1 f9bb
00000080: dc81 46bc 2781 3d3d 1008 aebc 036b 193d
00000090: f275 9abd efa3 cd3c 108e 07bd 66f6 96bc
000000a0: 00a3 c0ba 3eb6 883c 0fd7 273d 778d 513d
000000b0: 8522 453d 4ede f8bc 6b09 933d 3312 7e3c
000000c0: 4bc6 bfbc 8601 5d3d 6b82 dcbb e636 d63c
000000d0: 4422 d0bc 0c04 373c fbd8 213c 854c 0a3e
000000e0: 4570 a1bd 49f7 d5bc fef2 adba 4323 43bd
000000f0: 5bb1 47ba 6a49 a9bc c9dd 1bbc fc4c 7fbd
00000100: 85f1 f83c 6d81 ef3b aaa2 ca3c 1470 19bd
00000110: a1a4 333d 2096 abbc 8704 083d b931 483d
00000120: ef28 20bd b106 e03b 6720 00bd ae59 3ebd
00000130: 88cb 47bb 8425 3cbd 3bd9 3bbc 14b2 23bd
00000140: b495 d73d af65 0fbd b0ac 42bd a0a7 9bbc
00000150: 8f5d c7bc 5c0b ef3b 3a32 873d a554 45bc
00000160: 0a0a 64bc 69a9 6cbc 013c e9bd 15a0 fc3d
00000170: b773 483d a1a7 d93a d44f 493d 7a0d 823c
00000180: 1bca ffbd bfad 243d be07 c4bc 92b1 a6bd
00000190: 99af 713d 109c c53c ef4e d1bd 3fd4 a53d
000001a0: a305 583d 150d 25bc 9e44 2c3b 0c4d 22bc
000001b0: 5a18 b13c 10c4 73bb fa9e 1bbd 4ea8 8e3c
000001c0: a4bf 7c3c 6b83 153d 5d9b 5ebd 7bd4 8e3d
000001d0: fcc4 2e3d 62cf f53a 1334 2b3c e7f0 1b3d
000001e0: e301 1c3d 1055 28bb c031 36bc af6c e5bd
000001f0: c0ff 1e3d 70fc c83c dd1a 24bd e043 443d
00000200: 2cf9 e8bc 809e deb9 c476 253c 580f 0cbc
00000210: e34e 2fbd 93a5 363d aa60 28bd 158c 103d
00000220: f309 51bd 7da5 433d ca55 86bd a502 1dbc
00000230: 6bcb eebc 005f 3c39 2032 a8bc fa19 8ebc
00000240: e283 babc 80ca a43b 163d b23c 0e8e ee3c
00000250: 3c54 5cbc 7849 ecbb 197f 083d d93b eabc
00000260: be9e a53c a833 cc3d 2fab 14be 5645 91bd
00000270: c9cf 4d3d 5e07 a33c 58bd 87bc 46c0 833c
00000280: b84c 7abc d2ae b03c 2b35 d93c f1ff ad3d
00000290: 0271 5b3c aa1d 273d 7ee3 da3c 6ef2 0a3d
000002a0: 1180 79bc 9fbd 2e3d 8633 b6bb 1405 e93c
000002b0: 9d94 143d bfcf 1a3d b0b6 fb3b 805d aebc
000002c0: c048 8f3a e233 a33c 1811 41bd aafb e53c
000002d0: 69cc 83bd 7630 753d a6cb fe3c 4bb5 56bc
000002e0: bf66 bf3c 326f 403b 339b 6ebd f897 fcbb
000002f0: 50dd 1fbd f077 8c3b a4cb 30bc a023 113b
00000300: e029 92bc eeca 863c 37ef 163d 0ade 213c
00000310: b527 de3c e753 293c f1b5 c5bc 26b0 66bc
00000320: e1b3 06bd 8efb eb3d 8af8 febd 8ba4 89bd
00000330: e272 95bd 2177 663e 5398 55bd 86f5 97bd
00000340: 39c5 cb3d 248a baba b5f1 99bd 038f 883d
00000350: 549a 29ba 4a62 76bd 3d10 ae3d 6dea aabc
00000360: 14f2 073d 3856 ee3d 07fa e9bd 02bb f53c
00000370: 0e0d adbc c17d 063d 30bd 3cbd c122 f13c
00000380: f9a8 c0bc d421 7bbc 1d34 2cbc be97 073d
00000390: 0ee9 de3c db26 9dbc 71e5 0dbb 3228 ef3c
000003a0: 0a1d f13c b893 26bc 0e7b 98bd ee90 9e3d
000003b0: 7002 a33d b444 6ebc ed06 293d 3ebc 9c3c
000003c0: fa54 b13c b865 1fbd c23c fdbc 50c9 e63b
000003d0: 59a5 24bd bd9d 563d e0db 78bb 4c00 7e3c
000003e0: 4814 48bd 9337 90bb 0a55 17bb ba3c 373d
000003f0: 6e72 f53c 8179 093d 3d57 1a3d fde3 28be

Transformer_layer.decoder.layers.0.linear1.bias f4 [2048]
0.12858467 0.12454516 0.32655206 0.082336545 -0.14376011 -0.120947376 0.27636078 0.105915755
0.12232847 0.3647686 -0.15286863 -0.5615172 0.14779164 -0.4380792 -0.07957068 0.21294309
0.10383932 -0.5198538 0.057633676 0.1580025 -0.004525259 0.0835247 -0.4412316 -0.41986722
0.23558171 0.1006719 0.11145138 -0.2059918 0.40099204 0.20659316 0.16256021 0.12899983
0.30493936 0.49614492 0.32923743 0.23113045 -0.4238004 -0.34908658 0.33498263 -0.06620595
-0.2222828 -0.011095823 0.28151178 -0.3158043 -0.17353168 -0.41592276 0.100146696 -0.41989505
-0.19917485 -0.29254085 -0.48811206 -0.06968601 -0.5627395 -0.5264393 0.06319938 -0.037130184
0.2148323 0.43661958 -0.11450556 -0.37230942 0.31328276 0.43483317 0.18140987 -0.5615482
0.4043656 0.2619444 0.1058516 -0.045850005 -0.031476546 0.2758917 0.06942294 0.08392731
-0.03584381 -0.2492218 0.045187525 0.19441126 -0.08705342 -0.09580979 0.39405283 -0.22462246
-0.34292692 -0.23012918 -0.560419 0.26949424 -0.5184813 -0.15751958 0.41338235 -0.39957842
0.09202484 0.040448956 -0.29215935 -0.49532643 -0.09790108 0.063496776 0.40324318 0.27319708
-0.12929183 0.22981095 -0.52673495 0.34668455 0.448284 -0.35237548 0.002698216 0.40922865
-0.3531883 -0.03623861 0.015748706 -0.16549027 -0.06129842 0.47954687 -0.15723881 0.37242582
-0.0420645 0.09975231 -0.57581854 -0.37939155 -0.2866878 -0.20815408 -0.50251186 -0.13337857
0.16592947 0.31917584 0.17927702 0.12634115 -0.18576026 -0.50465477 -0.17981711 -0.46297023
-0.08601178 -0.030963507 -0.25764287 0.07467618 0.089176916 0.047893185 -0.36796343 0.15712698
-0.3447132 0.09310623 -0.5390062 -0.49784777 0.089794435 -0.473647 -0.07324833 -0.04045304
0.14367646 0.052779846 0.24998043 -0.5038328 0.39249232 -0.073759735 -0.03183798 0.109350964
-0.034908578 -0.45450312 -0.43634617 0.38741457 0.07891362 0.066240825 -0.1700834 0.4827211
-0.4917934 -0.20573062 -0.55975646 -0.55732715 0.3511569 0.024155917 -0.50323594 0.052455407
-0.04196412 -0.066028595 0.03740447 0.18493335 -0.07053294 -0.3466729 0.13315561 -0.11354775
-0.20753768 0.056830846 -0.4240238 -0.32580912 0.21733637 -0.22912267 -0.06456274 -0.4899363
-0.53486973 0.22006048 0.16910838 -0.3718558 0.08580238 -0.426642 0.42632973 -0.2097598
-0.42722213 0.46452868 -0.007994512 0.313614 0.14097178 0.49739224 -0.12642694 -0.2103486
0.27692628 -0.3380681 0.12794986 -0.32831883 -0.053224605 -0.302095 -0.28360868 -0.53396595
0.1881733 -0.54859275 -0.16639732 0.14090726 -0.4960003 -0.04593487 -0.11183795 -0.47441998
-0.09478456 -0.10721171 0.018634658 -0.32127598 -0.20839456 -0.55740875 0.07242834 -0.5104366
-0.027183315 0.0954446 0.08037912 -0.5586006 0.35593095 -0.51663566 -0.1475577 -0.016367452
-0.3958251 0.27044943 -0.57296365 0.3737245 0.3372854 -0.19994515 -0.41559923 0.12413346
-0.47818452 0.19109084 -0.26239315 0.017351637 -0.48826438 0.44676337 0.31620085 -0.29531693
-0.06387374 -0.08522317 0.4631171 -0.06525779 0.25450587 0.3514831 -0.07157484 -0.39899546
00000000: b3ab 033e 8811 ff3d d531 a73e 10a0 a83d
00000010: da35 13be 42b3 f7bd 297f 8d3e 5cea d83d
00000020: 5987 fa3d f3c2 ba3e 9889 1cbe 97bf 0fbf
00000030: b156 173e eb4b e0be f4f5 a2bd c10d 5a3e
00000040: b6a9 d43d 2315 05bf 4a11 6c3d 68cb 213e
00000050: a048 94bb ff0e ab3d 1ce9 e1be d6f8 d6be
00000060: 553c 713e 122d ce3d 9f40 e43d 84ef 52be
00000070: d44e cd3e 288d 533e 2f76 263e 8818 043e
00000080: 0321 9c3e b506 fe3e cf91 a83e 76ad 6c3e
00000090: 5efc d8be 7abb b2be d882 ab3e fc96 87bd
000000a0: 1a9e 63be 41cb 35bc 5022 903e 1ab1 a1be
000000b0: 4ab2 31be d4f3 d4be b619 cd3d 7cfc d6be
000000c0: 7ef4 4bbe eac7 95be d3e9 f9be 8ab7 8ebd
000000d0: b20f 10bf bac4 06bf ad6e 813d d215 18bd
000000e0: 00fd 5b3e 9a8c df3e e481 eabd 579f bebe
000000f0: 9966 a03e 74a2 de3e 82c3 393e 9fc1 0fbf
00000100: 0209 cf3e 941d 863e b9c8 d83d 37cd 3bbd
00000110: 8ded 00bd ad41 8d3e 9d2d 8e3d 15e2 ab3d
00000120: f5d0 12bd 0034 7fbe 8e16 393d bf13 473e
00000130: 1049 b2bd ec37 c4bd 4bc1 c93e 6e03 66be
00000140: 1e94 afbe fca6 6bbe 9f77 0fbf 26fb 893e
00000150: 31bb 04bf d04c 21be daa6 d33e 8b95 ccbe
00000160: 8577 bc3d cead 253d e995 95be 6d9b fdbe
00000170: 5d80 c8bd 990a 823d e475 ce3e 7de0 8b3e
00000180: 1465 04be 9053 6b3e 1ad8 06bf a380 b13e
00000190: 7b85 e53e 8f6a b4be 8dd4 303b 6b86 d13e
000001a0: 19d5 b4be f06e 14bd 6e03 813c 4876 29be
000001b0: 0d14 7bbd 2b87 f53e 3603 21be 99ae be3e
000001c0: d34b 2cbd f04a cc3d d868 13bf 9c3f c2be
000001d0: bec8 92be 5826 55be 9ea4 00bf 6494 08be
000001e0: 6ae9 293e 046b a33e 6594 373e 935f 013e
000001f0: f037 3ebe 0e31 01bf fa21 38be 6f0a edbe
00000200: f226 b0bd 2ea7 fdbc c4e9 83be d3ef 983d
00000210: 63a2 b63d a52b 443d b465 bcbe e5e5 203e
00000220: 407e b0be 7bae be3d 4ffc 09bf e7e5 febe
00000230: 25e6 b73d dc81 f2be 3803 96bd 16b2 25bd
00000240: ec1f 133e ae2f 583d dffa 7f3e 30fb 00bf
00000250: c1f4 c83e 580f 97bd 8b68 02bd 66f3 df3d
00000260: 4cfc 0ebd a2b4 e8be c468 dfbe 345b c63e
00000270: 779d a13d 45a9 873d 582a 2ebe 3827 f73e
00000280: 58cc fbbe 0cab 52be 334c 0fbf feac 0ebf
00000290: d6ca b33e a1e2 c53c 12d4 00bf 7bdb 563d
000002a0: 92e2 2bbd 003a 87bd 6e35 193d 2b5f 3d3e
000002b0: 9373 90bd 1c7f b1be f259 083e b98b e8bd
000002c0: c284 54be 76c7 683d a619 d9be 74d0 a6be
000002d0: 6d8d 5e3e 229f 6abe 7839 84bd eed8 fabe
000002e0: 39ed 08bf 8957 613e bf2a 2d3e e263 bebe
000002f0: 29b9 af3d d270 dabe e447 da3e 46cb 56be
00000300: dcbc dabe b4d6 ed3e 6afb 02bc 0492 a03e
00000310: e85a 103e 32aa fe3e 1076 01be a065 57be
00000320: 48c9 8d3e 4317 adbe 4a05 033e 6819 a8be
00000330: 0b02 5abd 32ac 9abe 2835 91be feb1 08bf
00000340: 80b0 403e 9370 0cbf 0f64 2abe fe49 103e
00000350: c0f3 fdbe 3426 3cbd 4c0b e5bd 2de7 f2be
00000360: 681e c2bd d091 dbbd b6a7 983c 497e a4be
00000370: 6265 55be 57b2 0ebf 4f55 943d f9ab 02bf
00000380: 8baf debc 7578 c33d cf9d a43d 7300 0fbf
00000390: 953c b63e 3c42 04bf 5e19 17be 0915 86bc
000003a0: 96a9 cabe 5978 8a3e bfad 12bf d158 bf3e
000003b0: acb0 ac3e 6cbe 4cbe 6cc9 d4be af39 fe3d
000003c0: 9ad4 f4be 51ad 433e 6558 86be 0525 8e3c
000003d0: cafd f9be 2bbe e43e 14e5 a13e c833 97be
000003e0: 3cd0 82bd 7c89 aebd af1d ed3e e0a5 85bd
000003f0: 984e 823e 98f5 b33e d495 92bd 2249 ccbe

Transformer_layer.decoder.layers.0.linear2.weight f4 [3, 2048]
-0.009169298 -0.027906898 0.0008093389 -0.0050212564 -0.042701315 0.22975469 -0.009032264 0.021995218
-0.02327194 0.029563038 0.0061347857 -0.03470148 0.026442192 -0.019994576 0.024730895 -0.016820535
0.0009394318 -0.033168007 -0.024330689 0.0416871 0.007657277 0.023049433 0.046958353 0.0434584
0.019352535 0.005446482 -0.022836447 0.03052209 -0.018753054 0.03004487 0.005779362 -0.0011809045
0.017035458 -0.028825782 0.024831345 0.009758295 -0.03441349 0.049318586 -0.004408548 -0.026957698
-0.004319735 0.06081023 -0.033259325 0.000585448 -0.024020439 0.044915 0.020242369 0.0060110018
0.009844292 -0.036182854 0.0106459595 0.19282098 0.045511875 0.033974428 0.0067465575 -0.03765469
0.02211857 -0.037468474 -0.02987515 -0.054032568 -0.008981932 -0.032033797 0.0072801467 0.017573196
0.02613094 -0.014725233 -0.008338851 0.16786748 -0.05313977 0.0026344876 0.053337608 -0.03157764
-0.114164226 -0.0046463646 0.021525644 -0.023087492 -0.031702217 0.028873127 -0.020380864 -0.015889615
0.04806724 0.039202224 -0.048552435 -0.018641163 -0.035858467 -0.062169492 0.0161223 0.032020394
-0.03225023 0.007714793 0.04967374 0.03704146 0.037730876 0.01170908 -0.009390446 -0.016487963
0.016290132 0.0038473825 0.0004206784 -0.025296317 0.021676501 -0.029401755 0.07201613 0.012532479
0.034446735 -0.006430093 -0.0005602863 -0.033937924 -0.12398693 -0.023692356 -0.23719178 0.03620671
0.0922843 0.035524197 0.028174806 0.05397548 0.008616384 0.04312164 0.022611309 -0.08186669
-0.008247383 -0.01544238 -0.024155537 0.0045103687 -0.021261163 0.0059702992 -0.0012541227 0.01158658
-0.1270519 -0.015058686 0.05208883 0.018907031 -0.022544224 -0.06227626 0.04011326 0.02054345
0.034202907 0.0005940566 -0.026432628 0.02695487 0.0055600014 -0.009761825 0.027819324 -0.023547571
-0.018095776 0.015071083 -0.0044979737 -0.002144739 -0.003708223 0.022197876 0.033395763 0.01352535
-0.019511735 0.000367485 -0.050360896 -0.022509854 -0.0038121077 -0.007309954 0.04794464 0.010889274
0.008943323 -0.011494413 -0.03768304 -0.02794366 -0.001193028 -0.028984588 -0.040427137 0.0058142627
-0.19740622 0.04843652 0.016712572 0.011265477 -0.038994193 -0.031043435 0.0053326543 -0.03977517
-0.051133167 -0.03272652 0.024241533 0.03615206 -0.025752231 -0.023063611 -0.017416172 -0.036377568
0.0035031103 0.017839877 0.015936045 -0.013310153 0.034633193 0.030220319 0.026653124 0.026689712
0.04703721 0.015372188 0.004314305 -0.015144779 -0.014690863 0.023258373 0.0054827766 -0.010741387
0.03339246 0.010683995 -0.0014426812 0.0531185 0.021630356 -0.029128483 -0.045008026 -0.00021013618
0.010877924 -0.044375937 0.39522138 -0.018585484 0.024317827 0.074583024 -0.017773882 -0.03772451
0.042948876 0.014482629 0.005812578 -0.0067316853 -0.013006765 0.042076048 -0.007850391 -0.053409174
0.074174166 0.009780506 -0.014765176 0.022111718 -0.004808856 -0.0003086701 -0.019774247 0.10487495
-0.044253044 -0.021124588 0.017617162 -0.0018238627 -0.0001829293 0.0045477226 0.040448803 -0.013415359
0.015056644 0.012778249 0.016661938 -0.06580395 -0.031755872 0.027653053 0.00066275534 0.028987546
-0.0016771749 -0.10078087 0.019213738 0.009248991 0.0122568 0.010601577 -0.017101297 -0.051325217
00000000: d33a 16bc 029d e4bc d029 543a 5a89 a4bb
00000010: 93e7 2ebd d044 6b3e 10fc 13bc 512f b43c
00000020: cca4 bebc 2f2e f23c 5006 c93b 2423 0ebd
00000030: 4c9d d83c aacb a3bc 7298 ca3c 38cb 89bc
00000040: 3344 763a 2ddb 07bd 2751 c7bc 18c0 2a3d
00000050: e5e9 fa3b 2ad2 bc3c 6757 403d 6f01 323d
00000060: 3589 9e3c 6778 b23b 8013 bbbc 7609 fa3c
00000070: 01a0 99bc a920 f63c cd60 bd3b 94c8 9aba
00000080: f28d 8b3c 0c24 ecbc 1b6b cb3c 41e1 1f3c
00000090: 29f5 0cbd 4902 4a3d 9575 90bb 64d6 dcbc
000000a0: 908c 8dbb 2614 793d ee3a 08bd c078 193a
000000b0: 83c6 c4bc cbf8 373d 53d3 a53c f0f7 c43b
000000c0: f449 213c 7934 14bd 646c 2e3c dd72 453e
000000d0: a96a 3a3d c528 0b3d 3a12 dd3b ce3b 1abd
000000e0: 0132 b53c 8b78 19bd bbbc f4bc 4151 5dbd
000000f0: f428 13bc df35 03bd 4c8e ee3b aaf5 8f3c
00000100: 8e10 d63c 1b42 71bc ad9f 08bc 74e5 2b3e
00000110: 16a9 59bd 5ea7 2c3b 8978 5a3d 8e57 01bd
00000120: efce e9bd 8840 98bb 8c56 b03c fb21 bdbc
00000130: 2fda 01bd 5687 ec3c c5f5 a6bc f02a 82bc
00000140: 27e2 443d 8392 203d ebde 46bd 5ab5 98bc
00000150: 54e0 12bd 70a5 7ebd ea12 843c d127 033d
00000160: d118 04bd 60cc fc3b b176 4b3d c9b8 173d
00000170: b18b 1a3d 71d7 3f3c 63da 19bc c411 87bc
00000180: e272 853c 5e24 7c3b 808e dc39 393a cfbc
00000190: eb92 b13c f3db f0bc 317d 933d 0755 4d3c
000001a0: 0518 0d3d 88b3 d2bb 2de0 12ba 7e02 0bbd
000001b0: dcec fdbd 7916 c2bc 67e2 72be 7d4d 143d
000001c0: 8dff bc3d d281 113d dace e63c 6515 5d3d
000001d0: bc2b 0d3c 51a0 303d 5a3b b93c b9a9 a7bd
000001e0: 0820 07bc 0902 7dbc d5e1 c5bc b7cb 933b
000001f0: e42b aebc 80a2 c33b 6061 a4ba a4d5 3d3c
00000200: e519 02be b5b8 76bc 195b 553d ebe2 9a3c
00000210: aaae b8bc 6415 7fbd cd4d 243d bd4a a83c
00000220: 5918 0c3d 77ba 1b3a 3d89 d8bc 76d0 dc3c
00000230: ac30 b63b 10f0 1fbc 5ae5 e33c d6e6 c0bc
00000240: 983d 94bc b4ec 763c bd63 93bb c08e 0cbb
00000250: a905 73bb 52d8 b53c ffc9 083d 6e99 5d3c
00000260: 13d7 9fbc 00ab c039 3a47 4ebd 9666 b8bc
00000270: 8ed4 79bb 5788 efbb 9961 443d ed68 323c
00000280: 0487 123c 1053 3cbc 8859 1abd 1aea e4bc
00000290: 605f 9cba 1671 edbc ed96 25bd 9285 be3b
000002a0: db24 4abe 5f65 463d cee8 883c d692 383c
000002b0: 60b8 1fbd cd4e febc 8cbd ae3b 4aeb 22bd
000002c0: 0371 51bd 3e0c 06bd 2e96 c63c 2f14 143d
000002d0: 58f6 d2bc e6ef bcbc 5cac 8ebc a500 15bd
000002e0: 7094 653b ef24 923c 4f8c 823c d412 5abc
000002f0: 89db 0d3d 9a90 f73c a757 da3c 62a4 da3c
00000300: 17aa 403d a1db 7b3c 035f 8d3b cf21 78bc
00000310: f2b1 70bc 5888 be3c dda8 b33b a4fc 2fbc
00000320: 88c6 083d ec0b 2f3c 5918 bdba c992 593d
00000330: 2532 b13c db9e eebc 565a 38bd 0058 5cb9
00000340: 5239 323c 8bc3 35bd 755a ca3e 9640 98bc
00000350: 2e36 c73c fcbe 983d 889a 91bc 0485 1abd
00000360: 29eb 2f3d 8c48 6d3c 7077 be3b 7895 dcbb
00000370: 541a 55bc ef57 2c3d ed9e 00bc 94c3 5abd
00000380: a0e8 973d 6a3e 203c a3e9 71bc a223 b53c
00000390: 9c93 9dbb 00d5 a1b9 9afd a1bc aec8 d63d
000003a0: ae42 35bd 790d adbc de51 903c ad0e efba
000003b0: b6d0 3fb9 1005 953b a5ad 253d 18cc 5bbc
000003c0: 24b0 763c dc5b 513c 9e7e 883c 39c4 86bd
000003d0: 7212 02bd a888 e23c c2bc 2d3a 4a77 ed3c
000003e0: a7d4 dbba 3366 cebd 2166 9d3c 1489 173c
000003f0: bfd0 483c 3db2 2d3c 0518 8cbc 643a 52bd

Transformer_layer.decoder.layers.0.linear2.bias f4 [3]
0.012883228 -0.023274908 0.016654465
00000000: 2d14 533c 05ab bebc f26e 883c

Transformer_layer.decoder.layers.0.norm1.weight f4 [3]
0.6183469 1.2217907 1.0783852
00000000: fc4b 1e3f a363 9c3f 8708 8a3f

Transformer_layer.decoder.layers.0.norm1.bias f4 [3]
0.40026885 -0.16690215 -0.17227998
00000000: 0af0 cc3e 66e8 2abe 2a6a 30be

Transformer_layer.decoder.layers.0.norm2.weight f4 [3]
0.90162694 1.3452113 1.1486529
00000000: 06d1 663f e22f ac3f 0f07 933f

Transformer_layer.decoder.layers.0.norm2.bias f4 [3]
0.36478055 -0.11298068 -0.2480713
00000000: 84c4 ba3e 6a62 e7bd 6706 7ebe

Transformer_layer.decoder.layers.0.norm3.weight f4 [3]
0.44690382 1.3123484 1.0248885
00000000: 94d0 e43e 08fb a73f 8c2f 833f

Transformer_layer.decoder.layers.0.norm3.bias f4 [3]
0.17237833 0.119221725 -0.30538166
00000000: f283 303e 852a f43d fc5a 9cbe

Transformer_layer.decoder.norm.weight f4 [3]
1.5404848 1.113723 1.2901125
00000000: 9b2e c53f 7a8e 8e3f 6822 a53f

Transformer_layer.decoder.norm.bias f4 [3]
0.83789545 -0.9825785 -0.08097994
00000000: 5180 563f 448a 7bbf d0d8 a5bd

FC_layer.weight f4 [2, 3]
1.1669288 -0.16723685 -0.41171023 0.2684592 -0.8238872 0.2333671
00000000: ec5d 953f 2340 2bbe afcb d2be 7c73 893e
00000010: 46ea 52bf c9f7 6e3e

FC_layer.bias f4 [2]
0.20478448 1.0776564
00000000: 06b3 513e a5f0 893f
