RFID_TRANS/distillation/result/student_weight.pth (torch, 129965 bytes, 40 tensors)

embedding_enc.weight f4 [3, 50]
00000000: 9340 003e f80b b63d f3c6 25bd 8eda 15be
00000010: 753b ee3c b834 ba3d 6217 02be a4b5 6b3d
00000020: 73fa 88bb ed6e 19bd cbb4 933d 60f6 863c
00000030: f298 523d 96a3 003e 10d5 c53d e513 903d
00000040: 6aaf 063e ab6f a33b 9b2e 033e d0bb d13d
00000050: 46ad 7c3d f41e b23a 80f8 753c 3239 1ebd
00000060: 5963 4f3d 39bb 023e 4ced b53c 84c5 afbc
00000070: 5189 15be 30e7 d83d 188f ac3d 8911 1ebe
00000080: 7d12 803d 8ec4 02be a7ba 033e ba25 f53c
00000090: b8c7 f7bd 8fa5 043e 4942 863b 4fc5 d5bd
000000a0: a2d8 01be 1456 cebd 2216 f83d 165b b73c
000000b0: 69df a1bd af3f aa3d 2c05 f2bd 6da2 433d
000000c0: 0a66 6bbd 0d14 88bd 292a 1f3e 8040 513d
000000d0: 9158 483d 8c23 be3d 3b6a f9bd f07d 9f3d
000000e0: 9132 1e3d c015 b8bc 355d b93d 66a8 fb3c
000000f0: 9cf5 6c3d da7f 823c 708d 6cbd 0b49 e03d
00000100: 6dce c5bd 29e3 9dbd 19dd a63d 5528 883d
00000110: f0ad 4cbd 8e8a 523d 1af6 143b 8d07 d53b
00000120: 206c 333d 413c b3bd 8472 81bc 2237 8a3c
00000130: bfce e13d 6f64 883d ab73 1d3e a9f6 f9bd
00000140: 50b2 41bd 1b14 ca3d b30c f7bd 9141 953d
00000150: 3fab 6a3c 5a32 d3bd adc1 03be f83c 0e3e
00000160: 63c3 993d 2676 083e a6f8 c03d 9976 123e
00000170: 4950 a4bd d015 04bd 341e 35bd d1fc 0c3e
00000180: d5b2 053d 07f7 d0bc 1fa0 ba3d a898 b33d
00000190: 616d 98bd 68f1 623d afc4 74bd 885c 903d
000001a0: b1d1 2ebc eade cdbd b3a4 c63d 5f62 03be
000001b0: b306 0a3e c28b 6c3d 96a9 e4bd 128d b3bd
000001c0: e53b 073e 1e58 763d f9a1 fa3d b97b d7bc
000001d0: 573c ea3d 053e 3d3c 6c5a 04be 0338 993c
000001e0: e5a9 353b a5be 073e 221e 4cbd afd1 c1bd
000001f0: 804b ec3d 1d27 8c3d 9592 e6bd 635b bcbd
00000200: 5020 09be 944c 2eba 8cac 323d 224f 613d
00000210: 748d 993d 5ac6 aebd 714e 8cbd da34 a13d
00000220: 09ae d03d a172 bb3d 9aea b73d 6092 9cbd
00000230: 079a 243d 15b2 e2bc f795 c33d ec92 84bd
00000240: 5125 813d 3e6a a5bd 309c e33c 4579 b73c
00000250: acea a23d 3667 043e
0.12524633 0.088890016 -0.040472936 -0.14634153 0.029081086 0.090920866 -0.12704232 0.057546273
-0.0041802465 -0.037459303 0.07212218 0.016474903 0.05141539 0.12562403 0.09659779 0.070350446
0.13152853 0.004987677 0.12810747 0.102409005 0.061688684 0.0013589547 0.01501286 -0.038628764
0.050631855 0.12766732 0.022207879 -0.021456487 -0.14603163 0.105909705 0.084257305 -0.15436377
0.06253526 -0.12770292 0.12864171 0.029925216 -0.1209864 0.1295378 0.0040972573 -0.10438024
-0.12680295 -0.10075012 0.121135965 0.0223823 -0.0790394 0.08312928 -0.11817393 0.047762323
-0.05747036 -0.066444494 0.15543427 0.051086903 0.04891259 0.09284124 -0.12178465 0.077876925
0.038622443 -0.022471309 0.09050981 0.030719947 0.05785142 0.015930105 -0.057752073 0.10951432
-0.09658513 -0.07709343 0.0814764 0.06648318 -0.049970567 0.051401667 0.0022729696 0.0065011443
0.043804288 -0.08751727 -0.015801676 0.016871992 0.11025762 0.06659781 0.15376155 -0.1220525
-0.047289193 0.09867116 -0.12062969 0.072878964 0.014323055 -0.10312338 -0.1286685 0.13890445
0.0750797 0.1332632 0.09422426 0.14303054 -0.08023126 -0.032247365 -0.044218257 0.13768317
0.03264125 -0.025508417 0.09112572 0.08769351 -0.07442737 0.055406004 -0.059757885 0.07048899
-0.0106701115 -0.10052283 0.09699383 -0.12830494 0.13479118 0.05775047 -0.111651585 -0.087671414
0.13206442 0.06014263 0.12237925 -0.026304113 0.1143729 0.011550431 -0.12925118 0.018703466
0.0027719673 0.13256319 -0.049833424 -0.09463822 0.11537838 0.06843398 -0.11258427 -0.09197118
-0.13391232 -0.0006648984 0.043621585 0.055007108 0.07497683 -0.08533926 -0.06850899 0.07871409
0.101894446 0.09152723 0.089802936 -0.07645106 0.040185954 -0.027672807 0.09550088 -0.064733356
0.06305946 -0.08076905 0.027784437 0.022396693 0.07954916 0.12929997

embedding_enc.bias f4 [3]
00000000: 4123 5dbd 3d6f f03d 2697 e63d
-0.0539887 0.11739967 0.11259298

embedding_dec.weight f4 [3, 2]
00000000: a850 d63e 485f febe 11d2 3cbe aa81 253f
00000010: 3feb 463e 38f9 653e
0.4185841 -0.4968207 -0.18439509 0.64650977 0.19425677 0.2245835

embedding_dec.bias f4 [3]
00000000: c171 f0bd 8cbd 1fbf d557 4cbf
-0.11740447 -0.623986 -0.7982152

Transformer_layer.encoder.layers.0.self_attn.in_proj_weight f4 [9, 3]
00000000: f691 febe 1a6c 9bbe 66b9 27bf a06c 213f
00000010: 8ca7 c83e 4bdc bfbe 8828 aa3d c867 8fbe
00000020: 0bd2 273f 77f5 05bf 8bbd 0f3f 4fc3 353f
00000030: bebf fa3b 0230 3f3d 7657 a53e 3a8f b8be
00000040: 974a 083f ec1c 293e 9cf6 0fbf 08c8 1e3f
00000050: 8993 c5be 12ed 7c3d 4433 af3d a8ef 11bf
00000060: 6fb4 e8be 4305 643e d985 92be
-0.49720734 -0.30355912 -0.6551727 0.63056374 0.39190328 -0.37472758 0.08308512 -0.28008866
0.65554875 -0.52327675 0.56148595 0.7100114 0.007652252 0.046676643 0.3229329 -0.36046773
0.53238815 0.16514939 -0.5623567 0.62023973 -0.38589123 0.061749525 0.085547 -0.5700631
-0.4545016 0.22267632 -0.28617743

Transformer_layer.encoder.layers.0.self_attn.in_proj_bias f4 [9]
00000000: cd08 a53c 6af6 593c f080 b03c 8a23 7139
00000010: 29e7 34b9 0c74 bcb8 84f7 fa3b a825 8f3c
00000020: eef6 fe3b
0.020145798 0.013303379 0.021545857 0.0002299679 -0.00017252252 -8.986154e-05 0.0076589007 0.01747401
0.007780901

Transformer_layer.encoder.layers.0.self_attn.out_proj.weight f4 [3, 3]
00000000: a7ee 713f 7b89 e23e c479 053f 3d76 063f
00000010: c198 11bf 2970 9abe 430a 1d3f a760 c33e
00000020: 8f1a 38be
0.9450478 0.44245514 0.52138925 0.5252417 -0.5687371 -0.30163696 0.61343783 0.38159677
-0.17978881

Transformer_layer.encoder.layers.0.self_attn.out_proj.bias f4 [3]
00000000: ddb5 a23b 8d2e 9dbc 0f10 f83b
0.0049655274 -0.019187236 0.0075702737

Transformer_layer.encoder.layers.0.linear1.weight f4 [2048, 3]
00000000: b0c5 a53b 8d05 113d 28bb 07bc efe1 96bb
00000010: 2c42 443d fa0f 07bd 345a 633c fda4 063d
00000020: 07cc 903d b027 183d e00e 9e3b 29a3 293c
00000030: 0bf6 8ebc 48d1 ed3c 4bc2 be3c eb3a 513d
00000040: 6e21 b43c 2bb2 c5bc 0396 573d 2e0b 473d
00000050: 2aa2 5fbd 8d29 f63c fbbd 48bd db90 c13d
00000060: e2e9 f5bc 0365 323d f5a2 2ebd 1f6e b73c
00000070: b11f d03b 6702 9bbd 453d 383b 2f40 a63b
00000080: 6110 1d3b 0c7c 523c c5e6 2e3d d05a e9bb
00000090: 6523 223d a8ee 983c f23c 9f3d 4d4e 553d
000000a0: 9e6b a63c 0dce 293d eeee f43c 5b23 0f3c
000000b0: c2cb 5c3b f903 c0bc 4aa8 813c 40c7 92ba
000000c0: ed44 2bbd 7402 db3b 343c 983d 6aaf babc
000000d0: 94d2 683c 0372 1a3d 8ee2 9bbc b3a9 153d
000000e0: b0e8 19bb 4c3b 273c e192 313d 8058 bdb9
000000f0: 886f 34bc d3c5 2fbd 6892 e0bb 4e70 38bd
00000100: 026f b53c 60bc 063c 53e8 3cbd 80cb 383b
00000110: aed2 13bd d136 bdbd a5d1 d93d fa04 bfbd
00000120: c143 333d 37fa 3c3d 30f7 40bd d29c 64bd
00000130: be02 f63d e3f5 b0bd bb65 d4bc 8704 bfbc
00000140: dde7 e7bc 412d 163d 91d0 11bd 03fb b1bc
00000150: f42c 05bc f667 bf3c 4914 223d 0666 9e3b
00000160: a63b c93c 8211 8bba f948 543d 8daa 243d
00000170: 64b3 0a3c 042e 2f3d 5289 0ebe 10a7 fc3d
00000180: 563c cb3c 9a17 b1bc 40ab 4cba a06c 9abb
00000190: b384 53bd 34a3 39bc 3511 b5bc 2ef5 943d
000001a0: 376f a1bd a6b8 2b3c facb 5b3c d229 d6bd
000001b0: b096 73bc d412 11bd 5626 7a3d a46d 1fbd
000001c0: f646 bebc 74c4 b63d 8e45 c93c aa67 cebb
000001d0: 42b5 ea3b e831 7fbc 3546 343d b8f9 19bd
000001e0: c5c1 a13d 87d0 cabd b1b2 b8bc f8ea 04bd
000001f0: 7fed 433d 06ce b13c 559f 293d 370b 3d3d
00000200: 703d f2bb 337d 4f3b 81df 883b 822a 90bc
00000210: 63e8 293d f96f 2f3d a6bd fd3c 80a0 f43b
00000220: e89f 0fb9 e0fc a9bc 6a6b e33c 2a0a fc3c
00000230: f6b9 873c afbe d4ba 8913 4d3d fb1f a7bc
00000240: 2df9 ba3d e58c d3bd e65c ec3d 796c febc
00000250: b794 0f3d c1f8 5c3d 78c2 76bc a105 4b3d
00000260: e842 adbb 31ce 79bc 7e01 bfbb cffe 8a3c
00000270: bbc9 0dbd 821b f13c e53d 273d acad 713c
00000280: 0a1b adbc d246 993c d95d 0a3d 98f2 bbbb
00000290: e38e 253d b070 3bbb 5453 2cbd 00b3 043a
000002a0: 2ec4 30bd 0f87 42bd 1858 9cbb 6ded 623d
000002b0: dfec 90bd 61f1 ebbc 5197 9d3d 7703 13be
000002c0: 9d4d 2a3d 9572 58bd f455 3a3c 6e66 d03c
000002d0: 33ee 3abd 6aaf 1abd b3d4 1b3d af72 403b
000002e0: af17 1c3c 59d6 e83c cc59 5a3c 03c4 2d3d
000002f0: 68c1 07bc 70f5 523c a847 36bd 732a 84bd
00000300: 063c 02bd 69bb d7bc 1f89 563d 24b8 453c
00000310: ace1 473c 206d bfbb f9e2 103d bf56 443d
00000320: bb58 363d dcb7 34bd 2123 2cbd 786a 5cbc
00000330: 7035 c4bc dc33 43bc d9cb 9b3d ca17 3f3d
00000340: 9db3 263c ab3d d8bd 7ef7 603c 6e63 3f3d
00000350: 3b5f 9cbd 4057 703a d4d9 32bc e73c 233d
00000360: 6bdc 543d 6cfe be3b f964 83bd d7a3 dbba
00000370: 07fa 2ebd c49e 173d c1be 2a3d 42cd d7bc
00000380: e2a8 45bd 1ec5 0bbd 7e92 fe3c ca72 ecbc
00000390: 5a1a e03a 04c6 0fbd 6698 a83c 23ac bf3c
000003a0: 838e 2ebc 95a9 323b 529d c73c 1fd3 083d
000003b0: 4bb6 3e3d 4063 79bc 2965 113d 004c 12b9
000003c0: 50b4 8dbb 7b90 063d 055a c3bc 6043 1d3c
000003d0: 63ce 0e3d 4722 24bc 9e72 dc3c b174 46bd
000003e0: 949f 47bc bc8f 733c 1e7f 0cbd c970 2cbd
000003f0: 4f6e 063d 139e 22bd fd01 c9bd 0746 a7bc
0.0050589666 0.035405684 -0.008284368 -0.00460457 0.04791467 -0.03297422 0.013876487 0.03287219
0.07070165 0.037147224 0.0048235506 0.010353842 -0.017451307 0.029030457 0.023286005 0.05108158
0.021988597 -0.024132809 0.052633297 0.048594646 -0.05459801 0.03004911 -0.049009304 0.09451457
-0.03001875 0.043553364 -0.042635877 0.022391377 0.006351434 -0.075688176 0.0028112691 0.0050735692
0.0023966061 0.012846958 0.042700548 -0.0071214214 0.039584536 0.018668488 0.07775296 0.052076627
0.020314988 0.04145627 0.029899087 0.008736457 0.0033690785 -0.023439394 0.015827317 -0.0011198297
-0.04181378 0.006683642 0.07433358 -0.022788722 0.014210362 0.037706386 -0.019028928 0.03653879
-0.002348464 0.010207009 0.043352965 -0.00036114827 -0.011012919 -0.04291327 -0.0068533905 -0.045028977
0.02214766 0.008223623 -0.04612 0.0028197467 -0.03608959 -0.09238971 0.1063569 -0.09327121
0.043765787 0.04613706 -0.047110736 -0.055813618 0.12012242 -0.08640649 -0.025927415 -0.023317588
-0.028308803 0.03666425 -0.035599295 -0.021726137 -0.008128393 0.023365002 0.039570127 0.0048339395
0.024564575 -0.0010610076 0.051827405 0.040201712 0.008465622 0.042768493 -0.13919571 0.12336552
0.024809044 -0.0216177 -0.00078075007 -0.004712656 -0.051640224 -0.011330415 -0.022102932 0.07273327
-0.07882541 0.010481035 0.013415331 -0.10457195 -0.01486747 -0.035418347 0.061071716 -0.03892292
-0.023227196 0.08924189 0.0245693 -0.006298979 0.007162721 -0.015575863 0.044012267 -0.037591666
0.07898287 -0.09903055 -0.022546144 -0.032450646 0.047833916 0.021704685 0.041411716 0.046153273
-0.007392578 0.0031660318 0.0041770344 -0.017598394 0.041481387 0.042831395 0.03097422 0.007465422
-0.00013697112 -0.020750463 0.02776118 0.030766565 0.016568165 -0.0016231145 0.05006746 -0.020400992
0.09129558 -0.10329608 0.115411565 -0.031057583 0.035053935 0.053948168 -0.015061013 0.049565915
-0.005287517 -0.015246914 -0.0058290353 0.016967205 -0.034616213 0.029432062 0.04083051 0.014750879
-0.021131057 0.018710528 0.033780906 -0.0057357065 0.04041947 -0.0028601103 -0.042071655 0.00050620735
-0.04315584 -0.047492083 -0.004771244 0.055402208 -0.070764296 -0.028801622 0.07694877 -0.1435679
0.041577924 -0.05284365 0.011373032 0.025439467 -0.04563732 -0.037764944 0.038044643 0.0029365232
0.009527131 0.028422521 0.013327073 0.04242326 -0.008285858 0.0128759 -0.04450193 -0.06453409
-0.031795524 -0.026334481 0.052376863 0.012067828 0.0121998 -0.005841866 0.035372708 0.04793429
0.044518214 -0.044120654 -0.04202569 -0.0134531185 -0.023951262 -0.01191422 0.0760724 0.046653546
0.010174659 -0.10558637 0.013730882 0.046725683 -0.07635351 0.00091682747 -0.010916192 0.039853003
0.05196802 0.0058286693 -0.064157434 -0.0016757202 -0.042718913 0.037016645 0.041685823 -0.026342992
-0.048256762 -0.034123532 0.031075712 -0.02886333 0.0017097697 -0.03510095 0.020580482 0.02339751
-0.010654095 0.0027261723 0.024367008 0.033404466 0.046560567 -0.015221417 0.035496864 -0.00013951957
-0.0043244734 0.03285263 -0.023846636 0.009598583 0.034864794 -0.010017938 0.026910122 -0.04845113
-0.0121840425 0.014865812 -0.034300916 -0.042099748 0.032820042 -0.039701533 -0.09814832 -0.020419134

Transformer_layer.encoder.layers.0.linear1.bias f4 [2048]
00000000: c430 97be cd15 103d b1bc ee3d 7122 763e
00000010: c31c e63e 1e99 40be c7b0 263c 1568 46bd
00000020: 23b6 77bd 96df 9f3e 3f30 2b3e 3d91 edbe
00000030: 637d 1d3e b071 4fbd caee 1a3e b81d c1be
00000040: 53a4 733d 7492 56be b178 e53e c862 dbbe
00000050: c5c6 0ebf 60e4 06bf e237 b8be 576e f23e
00000060: 526a bebe e6b7 e93e ffb8 713e a98c bcbd
00000070: 4663 24be 6616 953c 124c f5be 3ecc 133f
00000080: 987d 31be a7bc c2be 30dc bc3e b389 873d
00000090: 1a95 833e 2521 053e 1476 3abd 0256 03bf
000000a0: b637 de3b 87ba 13bf a47c edbd 1e5e d33e
000000b0: f053 94bd 5062 b23e 294e 80be 68b1 20bd
000000c0: 7ddf 033e 457f 543d 5b03 02bf e8d1 813e
000000d0: b4a7 69be 3447 aebe ca66 b2be 3cad bfbe
000000e0: 902f d8be 9074 b63e cba7 d53e 0e7f 00bf
000000f0: faa7 ebbe c185 113e 6378 d7be 9dc3 ab3c
00000100: ec15 31be 5884 6fbe 0803 64be 6a3d b0be
00000110: 8e13 383e 8cb7 293e 67dd c83d e573 b2be
00000120: 808f 453e 486c 0c3e 48e9 14be eaf4 23be
00000130: 7b5e 0d3e 4464 7abd 2c82 acbd e68d 5dbe
00000140: d46e c4be 32a2 0a3f 2abf 57be 41c6 13bf
00000150: 0f53 b03e bd1c 9a3e d95a 0c3e 52d9 993e
00000160: b879 0ebf 7c4b 803e 182a 09bf 7fcd 693e
00000170: c23d 943e 2aad 2fbe 5476 d7be 7c30 05bf
00000180: e630 e6be f684 b13d 99a4 2a3e c91e 3d3d
00000190: b6e9 f53d 7cb9 e4bd a025 ecbd ff97 763d
000001a0: 3227 0b3e d0c1 0dbf f62b b0be 85f1 b93d
000001b0: cc45 b1be 3034 3a3e b48d 073f 4a1e 74be
000001c0: 31f7 033f e4a6 cbbe b519 5a3e c13d b83c
000001d0: 54a5 bf3e 7927 ed3e ed85 8c3d 647d ffb9
000001e0: ea35 3bbe 445c ecbe 0a5d ecbe 2da2 dbbe
000001f0: b720 523e bada b2be 6f84 b13e 0919 ac3d
00000200: 313c b83d ce47 92bd 762c 86be 4ffa 073e
00000210: a20a 93be c636 d43e 48e4 063f f06d 52be
00000220: 4902 a83e d011 5bbd 85af e33e e3d2 f1be
00000230: de8d cabe 9e86 a8be ecb2 a83d 0bac d63e
00000240: fcad 8c3e 922b 8a3e c381 f4be eb92 bd3e
00000250: 8eac 093e 289d 06bf 8253 a5be 538e 7d3e
00000260: ce5d 813e 8c88 0e3f d72c e93e 034e 0a3f
00000270: 6746 0d3f e38c a63e a399 713e d67a 233e
00000280: 44fa b3be 2d8c acbe 34ea cabe 339e f83d
00000290: b647 c63e 7089 eebd 0469 d7be 06d4 49bc
000002a0: 4b07 8f3e e216 02be c858 ffbd 9999 acbe
000002b0: 96f8 693c 51e4 013f c81f 41be cb4a 9a3c
000002c0: 72e3 39be 46c2 06bf 5d82 96be af23 b73d
000002d0: 1749 0e3f baf0 ee3e 0d50 94be 00c2 1cbd
000002e0: 9c9a 87be c644 883e d91c ce3d 2898 8abe
000002f0: 8b08 4f3e 1015 64bd c5b6 fe3e c0d7 71bd
00000300: 1608 7ebe d503 97be 3895 6dbe cce9 d6bd
00000310: 8bf5 103f 7a1c 253d cbee d7bd 7c6b 09bc
00000320: 9a33 e1be d249 333d 6f7b 0abf dfe4 413e
00000330: f337 0a3f 350b e8be 58ea 01bf 6cfa c9be
00000340: 4851 d9be 47ae 9e3e 6eae 183e 7b41 fb3d
00000350: be8b aabe ba28 893e 1365 9cbe a99e 023f
00000360: 4f4d 223d a71f a53e 8e84 133f 3c79 0bbf
00000370: f658 dcbc a73c e8be 360f bfbe 7728 86be
00000380: b3a3 863e 1a3a a63e 805e 47be ed5b c4bd
00000390: 4d67 a83e 2baa b33e 7226 003f 355a 053f
000003a0: ff88 033e f9a0 563e 32bd 08bf ea25 0bbf
000003b0: fbb7 a73e 2731 0fbf 37d3 0a3f 7c72 d5be
000003c0: dc6b c93d f21d e0be 8ffa d3be 4a49 bdbe
000003d0: bc7b 183f 5c9f 453e 2af4 a23e 84fd c7bd
000003e0: 6463 d93d 4b45 f4be 8000 813e f256 5fbe
000003f0: d7f3 89bd f43f ebbd 14ec 7bbe fb9e f1be
-0.29529393 0.03517704 0.11657084 0.24036576 0.44943818 -0.1880841 0.010173983 -0.048439104
-0.060476433 0.3122527 0.16717623 -0.4639987 0.15379862 -0.05064553 0.15130153 -0.37717986
0.059482884 -0.20954305 0.44818643 -0.42848802 -0.5577205 -0.5269222 -0.35980135 0.47349808
-0.3719049 0.45648116 0.23605727 -0.09206516 -0.16053495 0.018199157 -0.479096 0.57733524
-0.17333066 -0.38034555 0.3688674 0.06618061 0.25699693 0.13000925 -0.045522764 -0.5130311
0.0067815436 -0.57706493 -0.11596039 0.41282743 -0.07242572 0.3484063 -0.2505963 -0.039231688
0.12878223 0.051879186 -0.5078637 0.25355458 -0.2281788 -0.340387 -0.34844047 -0.37436855
-0.42223787 0.35635805 0.41729578 -0.5019387 -0.46026593 0.1421118 -0.42084035 0.0209673
-0.17293519 -0.23390329 -0.22266781 -0.34421855 0.1797621 0.16573924 0.09807854 -0.34854046
0.19293022 0.13713181 -0.14542115 -0.16011396 0.13805573 -0.061130777 -0.08423266 -0.21636161
-0.38365805 0.5415374 -0.21069017 -0.57724386 0.3443837 0.3010005 0.1370653 0.30048615
-0.5565448 0.2505759 -0.53579855 0.22832297 0.28953367 -0.171559 -0.42082465 -0.52027106
-0.44959182 0.086679384 0.16664352 0.046171937 0.120074674 -0.11168191 -0.11530614 0.06020355
0.1358917 -0.5537386 -0.3440854 0.09079269 -0.34623563 0.1818397 0.52950597 -0.2383968
0.5154906 -0.39775765 0.21298869 0.022490384 0.37430823 0.46319178 0.06861482 -0.00048730813
-0.18282285 -0.46164143 -0.46164733 -0.42897168 0.20520292 -0.349325 0.3467135 0.084032126
0.089958556 -0.07142602 -0.26205796 0.13279079 -0.2871905 0.4144804 0.5269208 -0.2054975
0.32814243 -0.053483784 0.44469848 -0.47231206 -0.3956136 -0.32915205 0.08237252 0.41928133
0.2747649 0.26986367 -0.4775525 0.37026152 0.1344473 -0.5258355 -0.32290274 0.24761324
0.2526688 0.55677104 0.45542023 0.54025286 0.5518555 0.32529363 0.23593764 0.15964827
-0.35151875 -0.33700696 -0.39631808 0.12139549 0.38726586 -0.11647308 -0.42072308 -0.012318617
0.27935252 -0.12704042 -0.124681056 -0.33710936 0.014280459 0.5073901 -0.1885978 0.018834492
-0.1815317 -0.5264019 -0.29396334 0.08942353 0.55580276 0.46668035 -0.28967324 -0.03827095
-0.26485145 0.2661497 0.10064096 -0.2706921 0.20218103 -0.05568415 0.49748817 -0.059043646
-0.24807772 -0.2949511 -0.23201454 -0.10493812 0.5662467 0.04031036 -0.10543593 -0.008387443
-0.4398468 0.043771572 -0.54094595 0.18934964 0.5399162 -0.4532105 -0.50748205 -0.3944887
-0.42444825 0.30992338 0.1491029 0.12268349 -0.3330974 0.26788884 -0.30545864 0.51023346
0.03962451 0.3225071 0.5762414 -0.54481864 -0.026897889 -0.45358774 -0.37316293 -0.26202747
0.26296768 0.32466203 -0.19469643 -0.09587846 0.32891312 0.35090765 0.5005866 0.5209077
0.12845229 0.20959844 -0.5341369 -0.5435473 0.32757553 -0.55934376 0.5422854 -0.41688907
0.09835026 -0.43772846 -0.414021 -0.36969978 0.59563804 0.19299072 0.31826907 -0.09765151
0.106146604 -0.47709116 0.25195694 -0.21810511 -0.06735962 -0.114868075 -0.24601775 -0.47191605

Transformer_layer.encoder.layers.0.linear2.weight f4 [3, 2048]
00000000: a200 fd3c 1bfa 56bc 61ce 213d 4b51 3d3d
00000010: 8489 cdbb 50aa 09bd e5ac 1b3b 9af4 973d
00000020: 8230 68bd 8f48 d6bb 7d7c 013d 8093 fb39
00000030: dc7b 8c3d 498f 563d d2e7 2a3d cbe1 463d
00000040: 81f0 613d 1d51 45bd cbb8 043d 5b6f 3b3d
00000050: 37d1 11bd 7cc7 2c3c f443 673c ce4c b9bc
00000060: c71d 08bd b0e2 a9bc 5a58 123d 7d92 263d
00000070: 80a3 f9ba ec4f 13bd 20c8 de3b 0abc 9a3d
00000080: 228f 8c3c 0d6f 25bd 9a9e 88bc a2d6 85bc
00000090: d42c 973d ae30 913d bfc9 323d 1726 533d
000000a0: 823e a73d d921 1a3d dd3e 423d ed28 5fbc
000000b0: 5d3a 383d a21a 253d 1b2d 50bd 895b 8b3c
000000c0: baea bb3d 3cad dbba 6f22 4e3d 373d 813d
000000d0: 80b8 9739 70e7 7abc 8a66 29bd 19a8 493d
000000e0: 7b56 2fbd d0e3 873d 88e5 5c3d b1d3 05bd
000000f0: 397e 25bd 86c6 8a3d a64b 04bd 9f2e 053c
00000100: 881e 5cbc e88e 40bd 00fa 13ba 3940 4c3d
00000110: 5eb3 413d 43d6 4cbc 1400 adbc ddbf 163d
00000120: 4b03 e23c c8af a03c c7d5 5a3d 98fc 2ebc
00000130: bd01 e43c f525 fbbc 5c93 3abd 5583 22bd
00000140: 8041 b23b a488 b33c 089d 2ebc c595 1b3d
00000150: 0465 2a3d 968f edbc d2ee e93c fb16 2e3d
00000160: 763c f4bc 2622 b3bb c521 073d df92 e13b
00000170: 392e 8d3d 10c3 43bd 837f 1b3d d991 573d
00000180: 3e5b 81bc efc1 8b3c 7b8b 993c 09ff 0f3d
00000190: 7845 cebc 74ae 153c 2333 35bd b508 243c
000001a0: d0c0 af3d 469f b83c 8714 f7bc 6ef4 003d
000001b0: ad43 153d a7b8 5dbc 976c f1bb 8586 0ebd
000001c0: 75f4 3b3d b7d8 06bd 18c3 f6bc 0dd5 b33d
000001d0: 2282 c6bc f056 96bb 5fc0 f53c c122 593d
000001e0: d136 413d 0068 c1bb a05a 8cba db85 5c3d
000001f0: ad6c c03c b186 523d 3fc2 7d3c b340 b43d
00000200: 8fb8 443d 2631 bc3c ece0 703c 313a 553d
00000210: 56dd c13c 2a31 5f3d f5ce 773c 764c ae3c
00000220: b372 a83d 158f 07bd 8ca3 7cbc d00d 023b
00000230: 8d45 033d c134 fdbc 33d4 e9bb 452b 083d
00000240: f36f 9b3d 4ea1 603d a248 913c dc55 c33b
00000250: 189d 643d cf10 363d 5b1e 073d 90f8 a63d
00000260: 8873 813d c3f7 b83c 9406 f2ba 59b6 b13c
00000270: 9685 1f3d 3df1 783d b80e 913a 2746 663c
00000280: 6ab8 b4bc 0092 55bd 9ab5 9f3c 7157 653d
00000290: 7e0d cf3c a0ea 99bc 5225 01bd 68c7 0a3d
000002a0: 2e4a 5bbc 90b4 aabb 7e61 38bd 7020 933b
000002b0: 5bc8 073d 6f5d 883c 5083 02bc 9e90 233b
000002c0: a417 2bbc 7e9d 96bc 7159 553d 78a8 e03c
000002d0: 5d5d a73d b65f f53c 3452 263c 26dc 5abc
000002e0: 9a7b e53c 3507 a33d ca3c 6ebc d2c1 ea3c
000002f0: 3178 533d fcef bbbc 5c2d 423d 8916 5abd
00000300: f4a6 703c 175a 4a3d 2daf 313d 5134 13bd
00000310: 774e ad3c 7a4f 9c3d 79f3 3abd a551 5e3b
00000320: 4a91 c2bc 286b 813d 10fa 913b 2b5f 713d
00000330: 0845 513d f62a 41bd 0623 933c b3bf 483d
00000340: c034 24bd c8cf 3a3d d6a9 2d3d ce7a 1dbc
00000350: 3029 09bc 14a8 663d 257c 443d 6191 8c3d
00000360: 6275 90bc ef8f 9d3d 46fd 0b3c a444 183c
00000370: 614a 49bc d042 3f3b 5c3d 1bbc 94c2 3ebc
00000380: 914a 2a3c 5e30 1abc d653 e8bc e167 7ebb
00000390: c08b 8c3d df0b 6b3d a79c 303d 5d9b 3b3d
000003a0: 9082 1dbb 5bb0 a43d c98d 203d b83d efbb
000003b0: 0c54 2f3d 1b2d 243d 7423 b43b c44c 753c
000003c0: f795 2f3b 21ef 073d fa29 15bd a805 eabb
000003d0: a892 4b3d b3fa 8a3c be5a c8bb 3552 40bd
000003e0: 8198 9dbc 7ee9 913c 33e4 153c d0c0 a4bb
000003f0: 63d2 d93a a863 013c c2f9 34bd 3cf6 a1bc
0.03088409 -0.013121153 0.03950346 0.046220105 -0.0062724967 -0.03360969 0.0023754176 0.07419701
-0.056686886 -0.0065394114 0.031612862 0.00047984347 0.06859562 0.05238274 0.041724987 0.048555177
0.055161003 -0.04817306 0.032402795 0.045760494 -0.035599913 0.010545608 0.014115322 -0.022619631
-0.033231523 -0.020737976 0.03572879 0.040667046 -0.0019045919 -0.03596489 0.006798759 0.07555397
0.017158095 -0.04038911 -0.01667719 -0.016337696 0.07381597 0.07089363 0.04364943 0.051549997
0.08166219 0.037629936 0.047423232 -0.013620597 0.044977535 0.040308602 -0.050824266 0.01701142
0.0917563 -0.0016760002 0.050325807 0.06310504 0.00028938428 -0.015313968 -0.041357554 0.049232576
-0.042807084 0.06635249 0.053929836 -0.032672588 -0.04040358 0.067761466 -0.032298706 0.008128791
-0.013435014 -0.047011286 -0.0005644858 0.049865935 0.0472902 -0.012502256 -0.021118201 0.03680407
0.02758946 0.019615069 0.05342653 -0.01068034 0.02783286 -0.030657748 -0.04555069 -0.03967603
0.005439937 0.021915741 -0.010657556 0.03798463 0.041600242 -0.028999131 0.028556261 0.042502385
-0.029813986 -0.0054667173 0.03299119 0.0068839635 0.06893582 -0.047793448 0.0379634 0.052629326
-0.015790578 0.017060248 0.018743267 0.03515533 -0.02517961 0.009135831 -0.04423822 0.010011842
0.08581698 0.022536885 -0.030161155 0.031483106 0.036441494 -0.013532794 -0.0073676812 -0.034796257
0.04588743 -0.03292152 -0.030122325 0.087808706 -0.024231974 -0.0045880005 0.029998956 0.05301166
0.047171418 -0.0059022903 -0.0010708161 0.053838592 0.02348932 0.051397983 0.015488206 0.08801403
0.04802757 0.022972655 0.014702063 0.05205745 0.023665112 0.054490246 0.015125026 0.021276694
0.08225002 -0.033095438 -0.015419852 0.0019844659 0.03204875 -0.030908944 -0.007135892 0.03324439
0.07589712 0.054841332 0.01773483 0.005961163 0.05581388 0.044449624 0.032987934 0.08152878
0.06320864 0.02257908 -0.0018465095 0.021693395 0.038945757 0.060776938 0.0011067009 0.014054812
-0.022060592 -0.05214119 0.019495774 0.055991594 0.025274988 -0.018788636 -0.031529732 0.033881575
-0.013384385 -0.005209513 -0.04501485 0.004489951 0.03315006 0.016646115 -0.007965878 0.0024958025
-0.010442648 -0.018385645 0.05208725 0.027424082 0.081721045 0.029952865 0.010151435 -0.013358152
0.02801304 0.07960359 -0.01454086 0.028656874 0.051628295 -0.022941582 0.04740654 -0.053244147
0.014688242 0.049402323 0.04337995 -0.035938565 0.021155579 0.076323465 -0.04564235 0.0033923176
-0.02375092 0.063192666 0.0044548586 0.05892865 0.051091224 -0.04716011 0.017961036 0.049010944
-0.04008937 0.045608312 0.042398296 -0.009611798 -0.008371636 0.056312636 0.047969956 0.06863666
-0.017634097 0.07693469 0.008544272 0.009293709 -0.0122858 0.002918411 -0.009475078 -0.011643071
0.010393755 -0.009410946 -0.028360289 -0.003881924 0.06862593 0.057384368 0.043118145 0.045802463
-0.002403412 0.0804145 0.039197717 -0.0073010586 0.042804763 0.04008208 0.0054973904 0.014971916
0.0026792267 0.033187035 -0.036416985 -0.0071417876 0.04970041 0.016965246 -0.006114333 -0.0469534
-0.019237759 0.017811533 0.009148645 -0.005027868 0.0016618486 0.007897295 -0.0441835 -0.019770734

Transformer_layer.encoder.layers.0.linear2.bias f4 [3]
00000000: 7584 d83c 0d1e 7ebd 156c 6ebb
0.026430348 -0.062040377 -0.003638034

Transformer_layer.encoder.layers.0.norm1.weight f4 [3]
00000000: f30d 813f 72d4 883f 57c4 803f
1.0082382 1.0689833 1.0059918

Transformer_layer.encoder.layers.0.norm1.bias f4 [3]
00000000: 3d1e dc3c 8dd7 7cbd 33c8 483c
0.026869887 -0.061729003 0.012254762

Transformer_layer.encoder.layers.0.norm2.weight f4 [3]
00000000: 3c15 823f 84fa 873f 35bd 603f
1.016273 1.0623326 0.87788707

Transformer_layer.encoder.layers.0.norm2.bias f4 [3]
00000000: 2133 393d fa7c 91bd 8517 95bb
0.045214776 -0.071039155 -0.004549923

Transformer_layer.encoder.norm.weight f4 [3]
00000000: 54fe 813f f531 7a3f aa1b 713f
1.015574 0.9773248 0.94182837

Transformer_layer.encoder.norm.bias f4 [3]
00000000: 6d9b 1c3c 13f6 ad3c 34e9 283b
0.009558541 0.021235501 0.0025773766

Transformer_layer.decoder.layers.0.self_attn.in_proj_weight f4 [9, 3]
00000000: 0733 39bf c8f1 fb3c 496b 26bf d44a d03d
00000010: fde4 fdbe c343 1cbf 5955 cabe 1db9 6fbd
00000020: e16a babe b09f 3fbf f47d edbe 2430 1e3f
00000030: 31e5 47bf dce2 763d 7a84 103f 94e8 023d
00000040: 7675 6a3e d268 333f a3f9 8c3e 34fb 0a3f
00000050: 022b f23e bbf6 4b3e 9776 b3bd d76c 34be
00000060: 7315 debe 482c ba3e bf32 ca3e
-0.72343487 0.030754939 -0.65007454 0.10170522 -0.49588767 -0.61040896 -0.3951824 -0.058526147
-0.36409667 -0.7485304 -0.46385157 0.61792207 -0.78084093 0.060274944 0.56452143 0.031960085
0.2289637 0.7008182 0.27534208 0.54289556 0.47298437 0.19918339 -0.087628536 -0.17619644
-0.4337574 0.3636191 0.3949184

Transformer_layer.decoder.layers.0.self_attn.in_proj_bias f4 [9]
00000000: fa95 96bc aaf3 13bd e50a afbd 7343 dfba
00000010: 96af b039 206a b0ba 8780 66bd 64aa 61bc
00000020: ef44 933a
-0.018382061 -0.036121048 -0.08547 -0.0017033651 0.00033700158 -0.0013459362 -0.056274917 -0.013773534
0.0011235754

Transformer_layer.decoder.layers.0.self_attn.out_proj.weight f4 [3, 3]
00000000: aef6 00bf 903d 6ebf c919 1d3e 49c5 3c3f
00000010: 1f3c 273f b21c bebd c5ef de3c ae6c 6f3f
00000020: 6dcb c23e
-0.50376403 -0.93062687 0.15341868 0.73738533 0.6532611 -0.09282817 0.02721394 0.9352521
0.38045827

Transformer_layer.decoder.layers.0.self_attn.out_proj.bias f4 [3]
00000000: 879a f5bb a7c1 6abd 6b63 81bc
-0.0074952277 -0.057313588 -0.015794476

Transformer_layer.decoder.layers.0.multihead_attn.in_proj_weight f4 [9, 3]
00000000: b285 053e 4d56 f2be eb65 f6be 14ed 97be
00000010: 0a53 ba3d 05d3 a23e dcdd ccbe 5616 ec3e
00000020: 69d3 9abe e890 03bf b2f8 213e 0891 9ebe
00000030: cbf1 223f 86ea e43e 3c17 87bd 992e a9be
00000040: a174 f13e 0c05 0c3f 68fa b2be baf9 1dbe
00000050: bf6b 4ebe e0fb 11bf 6ff3 3dbe 3921 9b3e
00000060: f4f5 4abe fb72 f4be 6547 27bf
0.13039282 -0.47331467 -0.48124632 -0.29673064 0.0909787 0.3180162 -0.40013015 0.4611079
-0.30239418 -0.51392984 0.15817526 -0.30970025 0.63650197 0.44710177 -0.065962285 -0.33043364
0.47159293 0.546952 -0.3495667 -0.15427294 -0.2015829 -0.57024956 -0.18549894 0.30298784
-0.19820386 -0.47743973 -0.65343314

Transformer_layer.decoder.layers.0.multihead_attn.in_proj_bias f4 [9]
00000000: c637 80bd 6485 b9bb d23e d9bc 236c f539
00000010: 05bf 04ba 7bc7 cbb9 a45d 043d ac09 0abd
00000020: 7dc4 b5bc
-0.06260638 -0.0056616534 -0.026519213 0.0004681061 -0.00050638645 -0.00038867802 0.032315865 -0.03370063
-0.02218842

Transformer_layer.decoder.layers.0.multihead_attn.out_proj.weight f4 [3, 3]
00000000: 426a d83e d291 05bf 3bb8 47bf 29b5 00bf
00000010: 4d1a 5e3f 755e 3a3f 7d4e 62bf 45bc e93c
00000020: e161 57bf
0.42268568 -0.5217563 -0.7801549 -0.5027643 0.8675888 0.7280038 -0.88401014 0.028532157
-0.84133726

Transformer_layer.decoder.layers.0.multihead_attn.out_proj.bias f4 [3]
00000000: aba3 913d bb16 0bbc 60dc 48bb
0.07111295 -0.008489306 -0.0030648932

Transformer_layer.decoder.layers.0.linear1.weight f4 [2048, 3]
00000000: 9d35 273d 05ab 51bd dc56 06bc 9e3d 0a3d
00000010: 8361 083d 4084 833c e691 f43c a927 3c3d
00000020: bf52 01bd f2d7 9bbb b6db 05be 7192 1d3e
00000030: 10f3 3bbd 047e bf3d ce78 d0bd 0bb8 ea3c
00000040: abf0 c3bc bdb2 a4bb 2b14 3ebd 98b7 3bbd
00000050: 4198 0d3d 21e3 83bc ed16 93bd 11ce 213d
00000060: a743 a2bd 5adf e3bd 7c0c a63e 1b18 89bd
00000070: 428b c4bd ddb5 b13e 0e53 2bbd e893 01bd
00000080: d2dc c0bc 39a0 843c 55f9 aabc e13d 4f3d
00000090: afee d7bc 064f fa3c e9b1 433d 6f3c 9c3c
000000a0: bced 363d 13c0 a8bc 40f6 7aba a87a a1bc
000000b0: 486c 803b 5a9f a93c b26c 983c 11c2 563d
000000c0: fec3 cb3b d026 bbbd 8df3 933d ccdf cab9
000000d0: c8fa d13d 8ac7 46be 5c6a 09bc dbeb 0d3d
000000e0: 7f5c 233d a31f 4c3d aaa9 be3c 280a 5cbd
000000f0: 08da 9dbd efaf e6bd 9638 913e a023 ef3c
00000100: 2dc2 4ebd 8d4c d73d bada fe3c b5d3 1d3d
00000110: 0cfc 483c 341a 883d 365f 463d c2fd a33c
00000120: 503e 943c d473 71bd e1cd b23d 28e7 753c
00000130: 9d97 1f3e a720 bdbd 5c4f 3a3c 9074 1bbb
00000140: 80ae 963b 7f4a 973b 91a0 2abd a64f 203e
00000150: 76be a4bd 0a8c d4bd b726 803e 705e 9a3d
00000160: 8b91 0bbe 9b9b 833d d1c7 6b3c a79a 7d3d
00000170: b739 dcbd aa6f 42bd 65f7 bcbd f35f d03e
00000180: 1826 5cbd 203f a4bb 3471 f5bc 30a1 90bb
00000190: 44ce 75bc 2fbe d5bc f3d5 c73c ae0f 973d
000001a0: 01a9 ecbc 9dfe 1c3d 8853 ef3b c0dc 9d3a
000001b0: c5f4 313d cfc8 41bd a8e6 cabb 97a9 613d
000001c0: 670b 04bd d14e a73c 7ec2 bebb e7f1 dbbd
000001d0: 5bfa 143e e582 423d d467 19bd 9340 0b3d
000001e0: 567d aabd a52c efbd af9d 883e 61fe 2fbc
000001f0: 6d8a ebbd 43f2 0f3e dcfb 11bc 2072 913b
00000200: e90d 0c3d aa7f ecbc 45d8 0bbd 6ce6 cb3d
00000210: a273 4b3d edb2 c73d 828f 2dbc 9d49 f3bc
00000220: b137 5d3d e3d0 08bd fbce 0c3d c81a b7bc
00000230: f6d9 a13c db5b d4bc cb04 10be 5210 0d3e
00000240: d0bc d03c 189f 773d 5dd7 3fbd b9dd 38bc
00000250: 7cdb 51bd 9913 d33d 8ac7 b83c d889 d4bc
00000260: e20e 873c ea5f d2bc e2ba 38bd 30ff 003c
00000270: f195 8bba 05b2 a73c c730 adbc d893 02bd
00000280: 322f e2bd 2b60 cb3d 58a8 d3bb 2ab1 12bd
00000290: 4a1f cb3c 2315 3ebd 00e7 f2ba e82d 62bc
000002a0: 555f 0e3e 13b2 5ebe 2398 0c3d 88d9 8fbc
000002b0: 860f f33c 6b29 58bd e2d1 383b f9c7 3bbd
000002c0: 23b8 dcbc e734 c7bc b0f1 31bb 9a6a ea3c
000002d0: 472f 1abd a29d 19bd 145e 30bd 30a7 12bc
000002e0: ffa8 273d 3816 41bd 5444 413c 9595 53bd
000002f0: 1998 51bd e5cd 513d 5110 973d 5f7f 46bd
00000300: b3d0 5dbd dae6 bbbd 0bec 923e 1e50 8f3b
00000310: 2a64 3b3d f0b9 26bd b7e1 8e3c 6a8a a53c
00000320: 897c f53c 42b3 9e3c 08a6 2bbc 9069 823b
00000330: 7b2d cf3c 93c0 593b e8be cb3b 7218 2dbb
00000340: 19e1 d73c 17f4 69bd 1027 2a3b 5f30 dfbc
00000350: 5a05 ee3c 412d 4c3d c0f7 5ebb 14b5 57bc
00000360: 74ef 7b3b 7e46 113d 94e9 0d3d 2a2a 453d
00000370: 8c4f 02be 7446 d43d 55f3 1b3d 500a 4bbd
00000380: 804a 30bc 423b db3c 9945 4a3d 7cb9 98bd
00000390: 13c1 ccba 23d0 c63c 9bac d4bd 6bb3 8c3b
000003a0: fbfa f8bc a3fa 223d 350d 1d3d 1019 f53b
000003b0: d3c5 2a3d 358f 583d 23ac 963d e7af 8b3a
000003c0: 8d7e 57bd 100d 073b 3d91 423d e2d4 703d
000003d0: 9822 53bd dc19 733d d978 0e3e 4909 80be
000003e0: 80f2 163d ef24 503d 03be 573d cbbb 573d
000003f0: 28e1 89bb 518c 2c3d 70bc 27bb 70a4 03bb
0.040822614 -0.051188488 -0.00819942 0.03375017 0.03329612 0.016054273 0.029854726 0.04593626
-0.031573053 -0.0047559673 -0.13072094 0.15387894 -0.0458861 0.093502074 -0.10179292 0.028652212
-0.02391847 -0.00502619 -0.046405952 -0.045829386 0.03456903 -0.016099514 -0.07182107 0.03950316
-0.0792306 -0.11126585 0.324314 -0.06694051 -0.09596874 0.34709063 -0.041827254 -0.031635195
-0.023542795 0.016189681 -0.020870844 0.05059612 -0.02635893 0.03055526 0.04777709 0.019071786
0.044660315 -0.0205994 -0.0009573437 -0.019711807 0.003919158 0.020705868 0.018606517 0.05243117
0.0062184324 -0.09138262 0.07224188 -0.00038695184 0.10252911 -0.19412056 -0.008387174 0.034648757
0.039883133 0.04983486 0.023274262 -0.053720623 -0.07707602 -0.112640254 0.28363484 0.029191792
-0.05047815 0.10512648 0.031110156 0.038531978 0.012267124 0.06645623 0.048430644 0.020018462
0.01809612 -0.058948353 0.087306745 0.015008725 0.1558518 -0.092347436 0.01137146 -0.00237206
0.0045984387 0.004617035 -0.041657034 0.15655383 -0.0804414 -0.10378273 0.25029537 0.07537544
-0.13629739 0.06426164 0.014390902 0.061915066 -0.10753196 -0.047469772 -0.09226874 0.40698203
-0.053747267 -0.005012408 -0.029961206 -0.0044137463 -0.015002791 -0.026091663 0.024394011 0.073760375
-0.028889181 0.038328756 0.007303659 0.0012043938 0.04344632 -0.047310647 -0.006192047 0.055093374
-0.032237437 0.020423325 -0.005821525 -0.107394986 0.14548628 0.047488112 -0.037452534 0.03399713
-0.08324687 -0.11678437 0.26682803 -0.010741801 -0.11501012 0.1405726 -0.008910146 0.0044386536
0.034192953 -0.028869469 -0.034141798 0.09956059 0.049670823 0.09750924 -0.010593297 -0.029698187
0.05400819 -0.033402335 0.03437708 -0.022351637 0.019757252 -0.025922706 -0.14064328 0.13775757
0.025480658 0.060454458 -0.046836246 -0.011283332 -0.051234707 0.10306472 0.022556085 -0.025944635
0.016486589 -0.025680501 -0.0451001 0.007873341 -0.0010649544 0.020470629 -0.021141423 -0.031879276
-0.11044158 0.09930452 -0.006459277 -0.035813488 0.024795193 -0.046406876 -0.0018531978 -0.01380489
0.13903554 -0.21747617 0.034324776 -0.017559782 0.029670488 -0.052773874 0.0028201272 -0.045845006
-0.026943272 -0.024317218 -0.0027152114 0.028615285 -0.037642743 -0.037503846 -0.04305847 -0.008950993
0.04093265 -0.04714033 0.011796076 -0.051656324 -0.051170442 0.051221747 0.07376159 -0.048461314
-0.05415411 -0.09174891 0.28695711 0.0043735644 0.04574982 -0.040704668 0.017441614 0.020207603
0.02996661 0.019372586 -0.010476597 0.003979869 0.025290241 0.0033226355 0.006217826 -0.0026412276
0.026352452 -0.057117548 0.0025963224 -0.027244745 0.029055286 0.049847845 -0.0034022182 -0.013165731
0.0038442286 0.035467617 0.034646586 0.048135914 -0.12725657 0.10365 0.038073856 -0.04957038
-0.01075995 0.026761655 0.04938278 -0.07457253 -0.0015621505 0.02426917 -0.103844844 0.004293849
-0.030393114 0.039789807 0.038342673 0.0074797943 0.041692566 0.052870948 0.07357051 0.0010657281
-0.052610923 0.002060715 0.04750179 0.05879677 -0.051546663 0.059350833 0.13913287 -0.25007084
0.03685236 0.050816473 0.052671444 0.052669328 -0.004207749 0.042126004 -0.0025594495 -0.0020087026

Transformer_layer.decoder.layers.0.linear1.bias f4 [2048]
00000000: 0814 1dbe f20e 61bd 94f5 55be 41a9 063f
00000010: 401b 4b3c aa67 ec3d a48d a8be 0235 0a3e
00000020: 535c dc3d 4ee9 eb3d 137b bcbe 5ce4 c33e
00000030: e2cf 16be 1b7c 6a3e 3b2d 12bf 3476 adbe
00000040: caa5 a83e 729e 013d 4ef0 02bf ca30 f3be
00000050: 1b24 ed3d 34a9 3a3e fe36 16be c867 ec3e
00000060: 0a64 353d 0dc0 403d d27c c0be bb97 4e3e
00000070: 4c97 b03d 7b50 fa3e 0ad2 a83d 2ec6 0f3e
00000080: 84b3 c4be c164 a3be d95d 693d d6d0 5bbe
00000090: ec9f 13bf 07d1 fa3e 54ff f83d 0ec5 efbe
000000a0: d95c c13d 9a1b 103e 289b 8ebe 7646 4d3e
000000b0: 0d44 fd3d ff74 0cbf a66c 4cbe 963c 003f
000000c0: 35ea a33e f814 3d3e 1450 4fbe e0ca 09be
000000d0: c9c9 bc3d d266 c43e fcb5 8fbe ab48 c1be
000000e0: 3bbe 2cbe 9be1 edbe b896 2f3e 540a b3be
000000f0: 25a7 06bf a59a 13bf 41ea aabe 6b27 e93e
00000100: 8433 d83d e6f4 ed3e b170 993e 9c0c edbe
00000110: 6d02 94bd c1cb a93e a49b 0fbe 9019 61be
00000120: fa77 113e f8c0 033f 041d babe 5605 863d
00000130: 0424 8f3d 07ca fd3e 4eed b8be 47b5 e03d
00000140: 1a99 84be 3d5f 073f 3ff3 2ebe 240d e0be
00000150: e67b 11bf 16b7 aabe 98c8 ccbe fbf5 753e
00000160: cbb8 f23d bd15 7a3e 37fa 8e3d 894d 11bf
00000170: f1f7 ba3e c3a6 fabe cac5 c1be 85bd aabe
00000180: f1db 08bf 92a8 093f e81a 94be 53a5 ef3e
00000190: 06b1 9b3e b54b d13e 0a9a babe 4fa0 d13d
000001a0: 8e25 d53e 8375 b5be 0c83 ef3d f951 933e
000001b0: 34c9 b93e e099 8fbe 5682 cabd 068e a63e
000001c0: ef71 c53e 80cf e63d ae43 a63d df7e f33e
000001d0: acac febd 5cb1 22be cdc5 c33e 4b9e fd3d
000001e0: 6481 d9bd 2ef1 0bbe 7055 eabd 96c8 043f
000001f0: d2b3 e6be 2c51 c7be 7e30 0bbe 6192 a93e
00000200: e884 06be 5080 71bd c5c9 e7be fd55 c8be
00000210: cef3 0cbf 4d73 fc3d 7508 3fbd 2db2 623c
00000220: 5e4b 4d3e c17c 82be 3a0d 4fbe a43f c9be
00000230: 6667 f03e 8f9b a63e 01e2 a33e d06f 1eba
00000240: 8195 443c f781 8c3e 2911 2e3e e4a3 e6be
00000250: 541d 8abd 9373 333e dfdc b13e dff8 fe3e
00000260: 3072 aabd fb48 543d b1d1 b1bd 82d3 31be
00000270: ac6a 05be 445c 673e 2286 6bbe 6270 ae3e
00000280: 6a9d dfbe 2187 063f a188 083d f2d0 883e
00000290: 4abe 45be 9cf0 4a3e a29f e0be a41d 433e
000002a0: 1c64 d6bc a86c ca3c 7ca5 11bf aa8a 223e
000002b0: 66d7 e4be 2ace 76bc 69d4 0bbf 9b1f b8be
000002c0: 9635 ea3d 3422 49be cf9e 843e 25cf 35bd
000002d0: e4aa bdbd 709a d0bd bd97 af3d b09d 19be
000002e0: 2a3a b93e 8ffc 1abc 0be5 2fbe 0b39 e7be
000002f0: 5eb7 9f3d 7ab3 043f 7fe7 a43e 5ec8 e4bb
00000300: d0a9 80be 42b1 e73e a9b1 e43e 986c 0fbf
00000310: 33be 3a3e e540 963e 6421 fbbd 88d6 a7be
00000320: daaf a7be b1de be3e f86c 01bf 367e 063f
00000330: 1fb8 e13e 10b2 07bf 0bc9 9c3e cb8e 0e3e
00000340: 4d96 11bf ba3c 043f 3ec7 d8be df4b bb3e
00000350: c5c0 703e c01f b93d 26ea 823c 2707 c83e
00000360: 823b d3be 0df5 a63e 4ca5 e13d 6098 52be
00000370: 2cdb aebe 83c2 9e3e 0368 b0be 7e95 79bd
00000380: 2256 02bf 0ab7 80be 3185 03bf 64a1 043f
00000390: 1a39 153c 58fe b2bd 177a b7bd 7361 793e
000003a0: 1c91 f13e 6036 e9be 056c b63e 6ccd acbd
000003b0: a0e6 6dbe 6a47 81be 9f03 013f e10d 6c3d
000003c0: faac df3d cb23 6c3e cb1b 0ebf 8826 cfbe
000003d0: a065 793d 8ad9 b83d 59ec 93be fe76 23bd
000003e0: 9a71 483e 50be 4dbe 38eb 06bf b5bf db3e
000003f0: f154 0abf 7f45 6d3e 2c96 aabe e580 b73d
-0.15339673 -0.054945894 -0.20894462 0.5260201 0.012396634 0.1154321 -0.32920563 0.13496783
0.10759797 0.11519109 -0.36812648 0.38260162 -0.14727738 0.22898905 -0.57100266 -0.33879244
0.32938987 0.031645246 -0.51147926 -0.4749816 0.11579152 0.18228608 -0.14669415 0.4617293
0.044284858 0.047058154 -0.3759523 0.20175068 0.086226076 0.48889527 0.08243187 0.14040443
-0.3841821 -0.31912807 0.056974266 -0.21466383 -0.57665896 0.489876 0.12158075 -0.46830028
0.094415374 0.14073029 -0.2785275 0.2004641 0.12366495 -0.5486602 -0.19963321 0.50092447
0.32014623 0.1846503 -0.20245391 -0.13456297 0.09218175 0.38359696 -0.2806853 -0.37750754
-0.16869442 -0.46461186 0.17147338 -0.34968817 -0.5259879 -0.57657844 -0.33381847 0.45537886
0.10556701 0.46475905 0.2996879 -0.46298683 -0.07227025 0.33163264 -0.14024216 -0.21982408
0.14205924 0.5146632 -0.36350262 0.065439865 0.06989291 0.49568197 -0.3611855 0.10972076
-0.25898057 0.528797 -0.17084979 -0.43760026 -0.5682968 -0.33342808 -0.3999679 0.24019615
0.11851653 0.24422355 0.069813184 -0.56758934 0.3651729 -0.48955354 -0.37846214 -0.33347717
-0.53460604 0.5377284 -0.28926778 0.4680582 0.30408496 0.40878072 -0.36445647 0.102356546
0.41630214 -0.35441217 0.11694917 0.28773478 0.36286318 -0.28047085 -0.09888141 0.3253023
0.38563487 0.11270046 0.081183776 0.47557732 -0.12435278 -0.1588797 0.38236848 0.123837076
-0.106203824 -0.13666221 -0.11442077 0.5186857 -0.45059067 -0.38929117 -0.13592717 0.3311949
-0.13136637 -0.05896026 -0.45271125 -0.39128104 -0.55059516 0.123266794 -0.046638925 0.013836426
0.20048282 -0.25485805 -0.2021989 -0.39306366 0.46953887 0.32540557 0.32008365 -0.0006043883
0.011998535 0.27442905 0.16998734 -0.45046914 -0.06743875 0.17524557 0.34738824 0.4979925
-0.08322561 0.051827412 -0.086825736 -0.1736584 -0.13028973 0.2259379 -0.23000386 0.34070116
-0.43674785 0.5254994 0.033333424 0.26721913 -0.19310871 0.19818348 -0.4387179 0.19054276
-0.026170783 0.024710014 -0.56893134 0.15873209 -0.44695586 -0.015063802 -0.5462099 -0.35961613
0.11436002 -0.19641954 0.2590241 -0.044387 -0.092611104 -0.101857066 0.08573864 -0.1500156
0.36177188 -0.009459629 -0.17177217 -0.45160708 0.077986464 0.5183636 0.32207868 -0.0069818934
-0.25129557 0.45252424 0.44666794 -0.56025076 0.18236618 0.29346386 -0.12262228 -0.32780862
-0.32751352 0.37279275 -0.505569 0.5253633 0.44085786 -0.53006077 0.30622134 0.13921659
-0.56869966 0.5165516 -0.4233951 0.36581323 0.23511036 0.09039259 0.015980791 0.39067957
-0.41256338 0.32608834 0.11017856 -0.20565939 -0.3415159 0.31007776 -0.34454355 -0.060933582
-0.5091268 -0.25139648 -0.5137511 0.5180876 0.009107852 -0.087399185 -0.08958834 0.2435358
0.47181022 -0.45549297 0.35629287 -0.084376186 -0.23232508 -0.25249797 0.5039615 0.057630423
0.109216645 0.23060529 -0.5551116 -0.40459085 0.060887933 0.09025867 -0.28891256 -0.0399084
0.19574586 -0.2009213 -0.52702665 0.42919698 -0.5403586 0.23171042 -0.33317697 0.089601316

Transformer_layer.decoder.layers.0.linear2.weight f4 [3, 2048]
00000000: 5c2a 553c 401e 7d3b d4dc 2c3c 9da2 203d
00000010: aea7 1abd db35 8abc 0839 cb3b 3a13 763d
00000020: dc22 bb3d e835 fd3c 0db1 563d bf60 853c
00000030: d25a a33c 56c3 623c c694 bf3c 4f5d 313d
00000040: d973 5d3c b3fb 21be c7ee 34bd f8c9 e7bb
00000050: 6b71 c93d ebf1 b0bc d025 02bb 0c0a 13bd
00000060: bc27 4e3c 304c 0abe 09c4 423d f2c5 1f3d
00000070: 941f cf3d 16e8 b8bc 9c49 9abd 75c2 4dbc
00000080: 8eb0 933c c660 e03c d9e3 b2bc 25da 443d
00000090: a5d9 393d 8c4a 68bb c9f1 09bd ea45 9d3c
000000a0: b29f ca3d 0338 3b3d f2d3 d93c f872 c03c
000000b0: c1e2 4339 6a65 fe3c c216 1abd 6f9e 203d
000000c0: ee81 d6bc 7125 ca3c a7bb 1bbd 9e65 e03c
000000d0: 848f a03b d5cd 183d 25de 053d 8bfb 3b3d
000000e0: 8c12 323e 3037 77bb 65a4 05bc a092 89bb
000000f0: b2a2 12bd 8e28 53bd e9a1 5cbd 1523 9339
00000100: 7769 5c3d f156 dabc 3e80 6ebc aa97 873c
00000110: 66fb 35bc 472f 7f3b db4a 203d 2062 16bd
00000120: 8ffc be3c 3da6 3fbb e361 51bd aa04 12bc
00000130: 0af1 86bc bce4 123d 6c2a c3bc ef5a 5fbc
00000140: 4d0e 443d ed27 1a3d 593d 543e ee13 52bd
00000150: ae81 b2bc 9e08 a7bc 20fe babb 2df0 11bd
00000160: 428f 3b3d dbb9 c5ba b0ec 663d e0a2 3cbd
00000170: c978 f23c 68db 8bbc dc16 2f3c 3011 43bc
00000180: 1021 41bd 0059 6dbc 5602 f03c b188 fb3c
00000190: 54a4 093c 9f2f a53c d3c6 cebc 8620 62bd
000001a0: 8461 08bc cbac 5c3d 4f4b ebbc 8211 2c3d
000001b0: 4ab1 b1bc fa10 843c 65c0 c23d 9225 8fbb
000001c0: 3d83 57bc 632d 963c b78b 183d bb7c 98bc
000001d0: 4a68 d13c 58fb f5bc bbbf b1bc 8212 c7bc
000001e0: 00ee a53a c2a3 d13c f674 55bd 8609 e9bc
000001f0: a102 3c3d 0267 2dbd d5d2 273d 1a94 e43c
00000200: a39e f03a 109c 79bc 507d 56bb 6e5b 50bd
00000210: c199 38bd 10fe 8c3c 75e8 3dbe 3d9a b1bc
00000220: 11f6 e1bc e8be fb3b a327 4b3d cd1a 2ebd
00000230: 57de 4ebc 5d98 063d cebb eebb 71d4 0dbe
00000240: 251b c13d eb09 333d 2b8d 333c 8b8c 5b3d
00000250: c03f 0d3d 5892 253d e923 19bc 6b76 d53c
00000260: 1efe 35bd 4ee0 ecbc 6141 423d 9084 cdbb
00000270: 1413 6b3c 06a2 b7bc 61bd 4f3d bc6d b6bc
00000280: 659a 153d 7a73 87bc 8368 a4bd e1f6 053d
00000290: 1a13 af3c 0c8e b0bc 6bc8 143d a436 18bd
000002a0: c8e6 19bd 3032 06be d434 1dbd 9214 7abd
000002b0: 787c b3bb c78b 11be 0082 be38 c45c 96bc
000002c0: 6a8f 913c 456a 573d 539b 973b 6b0f 12bd
000002d0: c620 77bd e53f 313d a23c 993d 28ad 97bb
000002e0: db5a b73c e578 363c 291f 603e 4a21 ff3c
000002f0: ba96 0bbe d3ca 65ba 490a 413d 1c1a a03d
00000300: 5713 4ebd 0465 013d b26a 0bbd c543 1ebd
00000310: 36a8 c73c f7dc eabc 8ee0 1dbd c0a0 91bb
00000320: e6e5 c03c cbd8 28bb 34f4 4c3c ee6c 5f3c
00000330: 1ae2 2b3c 185f e6bb da53 b33c d683 303d
00000340: 5cca 46bc 62ee c43c 323d 853c 1184 123c
00000350: df49 2dbd 8d27 763d 4f2e 013e e436 69bb
00000360: 02cb 17bd a15f 5dbd 102c c03c face e93c
00000370: ba73 c0bc f84c 64bd 4964 2e3d 74ef 973d
00000380: c210 a0bc cee5 9d3c 1203 5abd fcbe 13bd
00000390: b1c3 343e 7c4c 6a3c d5c8 3b3d 68b6 6c3d
000003a0: 42e0 04bd 0041 e439 aca2 15bd d7a2 2bbf
000003b0: 3da6 50bd b777 21bd 0c64 3ebd b3b3 82bd
000003c0: d2cf 8d3c 6e89 d8bb 8352 143d d3a5 283d
000003d0: 53c9 013d 125c e4bb 108a 0ebd fb6a 153c
000003e0: dc49 9ebc e649 a43c c071 aabb 9990 cdbc
000003f0: f7fe 4e3d 58fa 6fbc 8c01 f4bc ef61 e03d
0.013010588 0.0038622767 0.010550696 0.03921758 -0.037757568 -0.016871383 0.006201867 0.06007693
0.09137508 0.030909494 0.052414943 0.016281484 0.019940767 0.013840517 0.02338637 0.043301877
0.01351639 -0.15818672 -0.04417303 -0.007073637 0.09836086 -0.02159973 -0.0019858964 -0.035898253
0.012582716 -0.13505626 0.047550235 0.039007135 0.10113445 -0.022571605 -0.07533571 -0.012558569
0.018028524 0.027389895 -0.021837162 0.0480596 0.045373578 -0.0035444824 -0.03367785 0.019198377
0.09893741 0.045707714 0.026590321 0.023492321 0.00018681122 0.031054217 -0.03761936 0.039213594
-0.026185002 0.024676057 -0.038020756 0.027392205 0.004899921 0.03730567 0.032682557 0.045894187
0.17389888 -0.0037722103 -0.0081568705 -0.0041983873 -0.03579969 -0.051552348 -0.053865347 0.00028064163
0.053811517 -0.026652785 -0.0145569425 0.016551811 -0.011107301 0.0038938092 0.039133888 -0.036714673
0.023313789 -0.0029243373 -0.051118743 -0.008912245 -0.016472358 0.03586267 -0.02382394 -0.01363252
0.0478652 0.037635732 0.20726527 -0.051288538 -0.021790352 -0.020389851 -0.0057065636 -0.03562944
0.04579092 -0.0015085296 0.056378067 -0.046053767 0.02959861 -0.017072394 0.010686602 -0.011905953
-0.04715067 -0.014486551 0.029297989 0.030704828 0.008400995 0.02016431 -0.025241291 -0.055206798
-0.008324031 0.053875726 -0.028722433 0.042008884 -0.021690983 0.016121376 0.095093526 -0.0043684924
-0.013153848 0.018332189 0.037242617 -0.018614164 0.025562424 -0.030027077 -0.02169787 -0.024300817
0.001265943 0.025590781 -0.052113496 -0.028446924 0.045900945 -0.042334564 0.04097255 0.027902652
0.0018357824 -0.015234962 -0.00327285 -0.050868444 -0.045068506 0.01721099 -0.18545707 -0.021679992
-0.027583154 0.00768267 0.049598347 -0.042506028 -0.012626252 0.03286015 -0.0072855717 -0.13850571
0.094290055 0.04371063 0.01095895 0.05360083 0.034484625 0.040422767 -0.009346941 0.026057443
-0.0444318 -0.02891555 0.04742563 -0.006271906 0.01434781 -0.022416126 0.050717715 -0.022269122
0.036524195 -0.016534556 -0.080277465 0.032706145 0.021371413 -0.021552108 0.036323946 -0.037161484
-0.037573606 -0.13105083 -0.03838046 -0.061054774 -0.0054774843 -0.14213477 9.0841204e-05 -0.018354781
0.01776858 0.05259158 0.0046266704 -0.035659235 -0.06033399 0.043273825 0.07482268 -0.004628796
0.02238219 0.011137222 0.21886887 0.031143803 -0.13631716 -0.000876588 0.04712895 0.0781748
-0.050311413 0.031590477 -0.0340373 -0.03863885 0.024372201 -0.028669817 -0.03854423 -0.0044442117
0.023547124 -0.0025763984 0.012509394 0.013636811 0.0104909185 -0.007030379 0.02189057 0.04309448
-0.012133207 0.024039451 0.016264532 0.00894262 -0.042306777 0.060096312 0.12615322 -0.0035585696
-0.037058838 -0.054046277 0.02345851 0.028541077 -0.023492683 -0.055737466 0.042576108 0.07418719
-0.01953924 0.019274618 -0.053225584 -0.03607081 0.17652775 0.014300462 0.045845825 0.057791144
-0.03244043 0.00043535978 -0.03653209 -0.6704535 -0.050939787 -0.03942081 -0.04648213 -0.06381931
0.01731101 -0.00660818 0.0362115 0.041173767 0.03168614 -0.0069689834 -0.034799635 0.009119744
-0.019322328 0.020054769 -0.0052015483 -0.025093364 0.050536122 -0.014647089 -0.029785894 0.10956179

Transformer_layer.decoder.layers.0.linear2.bias f4 [3]
00000000: 24cf a9b9 0e10 adbb 02c4 6abc
-0.00032388524 -0.005281455 -0.0143289585

Transformer_layer.decoder.layers.0.norm1.weight f4 [3]
00000000: 4508 8c3f b1d4 823f f910 673f
1.0940024 1.0221158 0.90260273

Transformer_layer.decoder.layers.0.norm1.bias f4 [3]
00000000: 8708 e7bc 3eb7 843d 1e90 52bd
-0.028202308 0.06480263 -0.051406972

Transformer_layer.decoder.layers.0.norm2.weight f4 [3]
00000000: 6211 af3f a959 8c3f 7028 453f
1.367718 1.0964862 0.7701483

Transformer_layer.decoder.layers.0.norm2.bias f4 [3]
00000000: b180 b9bd 7e24 063e 54bb e9bd
-0.09057749 0.13099858 -0.11412683

Transformer_layer.decoder.layers.0.norm3.weight f4 [3]
00000000: 161b 883f e1bf ac3e 4034 aa3f
1.0633266 0.33740142 1.3297195

Transformer_layer.decoder.layers.0.norm3.bias f4 [3]
00000000: 0309 29be 0b0c a43e 95b8 3bbe
-0.16507344 0.32040438 -0.18332131

Transformer_layer.decoder.norm.weight f4 [3]
00000000: 0b20 aa3f 2ac9 a43f be0f b63f
1.3291029 1.287389 1.4223554

Transformer_layer.decoder.norm.bias f4 [3]
00000000: 54f4 fbbe a639 193f 762e 2dbf
-0.49209845 0.5985359 -0.6764902

FC_layer.weight f4 [2, 3]
00000000: 1ff7 c03d 1cde 543f db29 58bf 2ba2 4bbf
00000010: 6cb5 333f 1446 dcbe
0.094221346 0.8315141 -0.84438866 -0.79544324 0.701987 -0.43022215

FC_layer.bias f4 [2]
00000000: d3d5 0a3f c2cb c53e
0.5423252 0.38632017
